fashion1l.onnx (onnx, 408810 bytes, 4 tensors)

StatefulPartitionedCall/sequential/dense_1/MatMul/ReadVariableOp:0 f4 [128, 10]
-0.040328983 -0.11496595 0.043606702 -0.19783877 -0.20611432 -0.1581432 -0.04685215 0.2040848
0.1361245 -0.10232158 0.193208 -0.11576282 -0.1966489 -0.40720093 -0.021667715 0.07536185
-0.23691118 0.098160885 0.14091116 0.019213967 -0.18861234 0.2932962 0.13110669 0.085124955
0.0711797 0.13444926 0.09210081 0.15637589 0.07269366 0.021302257 -0.02680548 -0.10493115
-0.08584841 -0.033366866 -0.05850853 -0.15658194 0.029738765 0.15380584 -0.13353 -0.010392298
0.0473347 -0.56804186 0.08738163 -0.03947218 -0.09882655 0.064969175 0.12502986 0.09592454
-0.40196833 0.029137019 0.11066738 0.43856096 0.17025764 -0.06629083 -0.12493438 -0.0087942155
0.016337479 -0.4838684 -0.013369402 0.1288629 -0.12635316 -0.32434335 -0.08754166 -0.40590554
-0.37239763 0.100208566 -0.4598856 0.1459915 -0.48286515 0.18232635 -0.26220995 -0.21019684
-0.06600587 0.05231859 0.009699274 -0.19613315 -0.13753359 -0.007096973 -0.16352214 0.15631871
0.06533333 0.14225045 -0.119102776 -0.24937125 -0.20247784 0.6308064 -0.044851284 0.07724033
0.023819555 -0.3190483 -0.20962676 -0.27815703 -0.20887268 -0.15670086 -0.34717825 0.16431478
-0.26300755 0.06386384 0.31069654 0.040821366 0.04770108 -0.2833832 -0.35425895 -0.93211997
-0.37468165 0.6179391 -0.305584 -0.23116888 -0.26778454 -0.16956827 -0.08219827 -0.25605297
-0.0063501364 -0.114680454 -0.11249736 0.0011096771 0.09978491 -0.16029602 0.109985195 -0.013341918
-0.013834228 -0.25428626 -0.38294122 -0.8232095 -0.088039435 0.71718067 -0.04329404 -0.27498487
-0.13018905 -0.53215134 -0.4417604 0.03533784 -0.30828586 -0.19870575 -0.11449114 -0.012399371
-0.37941122 0.3189328 -0.09116317 -0.12814951 -0.089876056 0.14024138 -0.24717058 -0.093804084
0.16454422 0.5979893 -0.12446958 -0.25153577 -0.28710213 -0.07028823 0.33979583 -0.2913342
0.1895052 0.022431845 -0.08846768 0.1276264 -0.21548282 -0.27042106 -0.13891558 -0.0730762
-0.086674176 0.024124516 0.12168305 0.0045059044 -0.12898839 -0.06912226 0.16295755 0.06722877
0.23991089 -0.12035468 -0.02201977 0.110236086 -0.03984394 -0.050242692 -0.06819041 0.38993958
-0.095934235 0.045324273 0.32406384 -0.3279375 -0.18020928 0.47970206 -0.036971807 -0.057185635
-0.07725591 -0.07396739 -0.056635965 0.002133695 0.12258075 -0.31983793 -0.010803582 0.20658343
0.118952565 -0.3515957 0.089677796 -0.06517689 0.081530586 -0.30376524 0.10265525 -0.12004035
-0.13388443 -0.08999624 -0.24886525 0.033166558 -0.011225213 -0.24449384 -0.117479205 0.14184026
-0.48576194 0.2360965 0.015571269 -0.09865545 0.17935678 -0.1345919 0.17437649 -0.186455
0.024703044 -0.012260927 -0.15894753 0.12639955 0.0187463 0.39636505 -0.0040936614 -0.20442869
0.044773627 -0.21068816 -0.038923144 0.019980066 0.099007405 0.09183667 0.09568867 -0.57968783
-0.24663591 -0.14413388 -0.18455838 -0.18098558 -0.0011039103 0.07498312 0.31522045 0.076987945
0.1552154 0.28378916 -0.27512908 0.0024183062 -0.3190847 0.1458541 -0.02896572 -0.6691052
-0.24820244 -0.011704477 -0.21921206 -0.79358864 -0.35750124 0.10460722 -0.07894252 0.56837493
00000000: 0130 25bd 4573 ebbd f19c 323d 3f96 4abe
00000010: a20f 53be 4bf0 21be 0ae8 3fbd 9bfb 503e
00000020: 3964 0b3e fa8d d1bd 51d8 453e 0f15 edbd
00000030: 545e 49be a47c d0be 7e80 b1bc 5057 9a3d
00000040: d898 72be 9308 c93d 044b 103e 9c66 9d3c
00000050: 9823 41be eb2a 963e d540 063e fe55 ae3d
00000060: aac6 913d 11ad 093e 599f bc3d 0021 203e
00000070: 6ae0 943d 1282 ae3c 2a97 dbbc 25e6 d6bd
00000080: 4bd1 afbd b2ab 08bd a4a6 6fbd 0457 20be
00000090: b69e f33c 477f 1d3e 17bc 08be 7544 2abc
000000a0: 08e2 413d 316b 11bf 24f5 b23d 95ad 21bd
000000b0: 9365 cabd 8f0e 853d d407 003e 1674 c43d
000000c0: cbce cdbe c2b0 ee3c 94a5 e23d 108b e03e
000000d0: 0558 2e3e 7dc3 87bd 99dd ffbd 9d15 10bc
000000e0: 2dd6 853c 99bd f7be 560b 5bbc a3f4 033e
000000f0: b962 01be 5510 a6be 0b49 b3bd dad2 cfbe
00000100: e7aa bebe 263a cd3d 2076 ebbe cc7e 153e
00000110: 1a3a f7be c2b3 3a3e 6240 86be d73d 57be
00000120: 162e 87bd 054c 563d b4e9 1e3c 21d7 48be
00000130: 9bd5 0cbe b98d e8bb 5972 27be 0312 203e
00000140: 7bcd 853d 1aaa 113e 28ec f3bd 2d5b 7fbe
00000150: 5a56 4fbe 877c 213f fbb5 37bd 2e30 9e3d
00000160: 3a21 c33c 4c5a a3be 66a8 56be 996a 8ebe
00000170: b8e2 55be 3176 20be 59c1 b1be 2242 283e
00000180: eda8 86be 0ccb 823d 9e13 9f3e 4e34 273d
00000190: 3562 433d 9a17 91be 6e61 b5be 6a9f 6ebf
000001a0: 46d6 bfbe 4231 1e3f 8275 9cbe 89b7 6cbe
000001b0: 0e1b 89be 4ea3 2dbe 9157 a8bd 6019 83be
000001c0: ce14 d0bb 96dd eabd 0465 e6bd 9672 913a
000001d0: 085c cc3d a424 24be eb3f e13d 0f98 5abc
000001e0: f5a8 62bc cf31 82be df10 c4be dcbd 52bf
000001f0: 054e b4bd 2799 373f 1755 31bd d1ca 8cbe
00000200: 4750 05be 123b 08bf 6b2e e2be 69be 103d
00000210: a5d7 9dbe 8579 4bbe 557a eabd bb26 4bbc
00000220: 3042 c2be 294b a33e c2b3 babd a039 03be
00000230: f010 b8bd 709b 0f3e 491a 7dbe 5b1c c0bd
00000240: 487e 283e d415 193f e8e9 febd 4cc9 80be
00000250: 0dff 92be 47f3 8fbd b8f9 ad3e c229 95be
00000260: a70d 423e fdc2 b73c 8b2e b5bd 7fb0 023e
00000270: 87a7 5cbe a174 8abe e33f 0ebe faa8 95bd
00000280: 3b82 b1bd c7a0 c53c f734 f93d 44a6 933b
00000290: 8815 04be f98f 8dbd 58de 263e 3daf 893d
000002a0: 33ab 753e 847c f6bd ce62 b4bc 75c3 e13d
000002b0: 6633 23bd 48cb 4dbd 6aa7 8bbd 29a6 c73e
000002c0: 2b79 c4bd f2a5 393d b2eb a53e 6de7 a7be
000002d0: c888 38be 829b f53e c06f 17bd 7c3b 6abd
000002e0: 5938 9ebd 377c 97bd 1dfb 67bd 76d5 0b3b
000002f0: 9e0b fb3d ccc1 a3be 8201 31bc 9b8a 533e
00000300: 679d f33d 5a04 b4be fea8 b73d 767b 85bd
00000310: 82f9 a63d 1e87 9bbe ea3c d23d b7d7 f5bd
00000320: 0019 09be f34f b8bd 88d6 7ebe a8d9 073d
00000330: f5e9 37bc 985c 7abe f098 f0bd 933e 113e
00000340: cab5 f8be 48c3 713e a31e 7f3c de0b cabd
00000350: 4ea9 373e 76d2 09be c08f 323e 0fee 3ebe
00000360: 0a5e ca3c 0ee2 48bc 24c3 22be e26e 013e
00000370: d791 993c 5cf0 ca3e 1f24 86bb c155 51be
00000380: 8d64 373d a3be 57be e06d 1fbd 3cad a33c
00000390: 65c4 ca3d dd14 bc3d 6cf8 c33d 6c66 14bf
000003a0: 208e 7cbe d597 13be dffc 3cbe 4954 39be
000003b0: 15b1 90ba c090 993d 9364 a13e dbab 9d3d
000003c0: c9f0 1e3e d04c 913e b8dd 8cbe 727c 1e3b
000003d0: 125f a3be c75a 153e 8549 edbc 7a4a 2bbf
000003e0: c828 7ebe 22c4 3fbc 2079 60be a028 4bbf
000003f0: 670a b7be 4f3c d63d 9eac a1bd 0581 113f

StatefulPartitionedCall/sequential/dense_1/BiasAdd/ReadVariableOp:0 f4 [10]
0.09305959 -0.21283846 0.11013217 0.19056375 -0.32029167 0.20710921 0.100432 0.13794504
-0.15984032 -0.37757346
00000000: 0796 be3d 53f2 59be fa8c e13d 2523 433e
00000010: 45fd a3be 7014 543e 4baf cd3d 7741 0d3e
00000020: 2ead 23be 4f51 c1be

StatefulPartitionedCall/sequential/dense/MatMul/ReadVariableOp:0 f4 [784, 128]
-0.02800044 -0.03569264 -0.05966576 -0.015974596 -0.06526977 -0.0043456154 -0.061164163 0.055282105
-0.062345702 -0.01590407 -0.07257424 0.048706867 -0.024837028 -0.049068384 -0.0142369345 -0.034766212
0.09187886 -0.05119608 0.023923954 0.12079779 -0.054820765 0.040876277 -0.07602682 0.07703603
0.081188664 0.08928506 -0.07523362 0.020683741 -0.07655488 0.08754909 0.079493575 0.017246941
0.1484247 0.17714031 -0.04063054 0.080558024 -0.09834173 -0.01362094 0.10310601 0.011902316
0.06069503 0.1343243 -0.1365076 -0.19587494 0.012844152 0.0741436 0.033366572 -0.16661897
-0.05220571 -0.11331486 -0.053664386 0.094657965 -0.13538118 0.11880473 0.0011204345 -0.05535412
-0.1040148 -0.016544964 -0.018999292 0.18250637 -0.037081745 0.08380287 -0.07692503 -0.039552093
-0.0322792 -0.022949519 0.050667543 0.027970713 0.017275583 0.014001704 -0.052933533 0.028546715
-0.0132553205 0.045657836 -0.055775695 0.14851788 -0.0425969 0.17463313 -0.05277353 0.029177584
0.06103306 -0.037570372 0.0055401465 -0.0033697416 0.035544083 0.019846998 0.047938198 -0.008687006
-0.0789648 -0.09904494 0.15154348 0.07548068 0.0875364 -0.117345 0.030460017 -0.17941763
0.100595795 -0.03242201 0.052961823 -0.04472178 0.01671414 -0.10405831 -0.052310437 -0.05579154
-0.036216054 -0.116779454 0.093569644 -0.011904085 -0.20526542 -0.06674777 0.011248992 0.017387867
0.068016104 -0.0021857792 -0.044214934 -0.009681338 -0.06343151 -0.07047219 0.06978459 -0.02549484
0.11424974 0.13849002 -0.04535113 -0.07095144 -0.06716476 0.18246533 -0.021524409 0.013898284
0.03050561 0.050694503 0.020805081 -0.038337175 -0.009456815 0.20736238 0.14682233 -0.078879856
0.07622859 -0.12547372 0.0076513886 -0.033391636 -0.006676183 0.057296228 -0.030453552 0.14545731
-0.12289926 -0.03389456 -0.13644391 -0.0013203814 0.07436246 0.030443862 -0.17041023 -0.2144225
0.07082852 -0.025450002 0.035427522 0.11963939 -0.12248502 0.034390364 -0.051723905 -0.0704614
0.050228357 0.1345839 -0.03320059 -0.08689562 -0.015937172 -0.055776704 0.19025145 0.14414267
0.06277831 0.120809995 -0.053774007 -0.08940702 -0.037117947 0.03259416 0.021512127 -0.0015113425
-0.07192653 -0.060160585 0.03809982 0.18976158 -0.14003743 0.1411804 0.1216025 -0.035582248
0.02530424 -0.1675586 -0.04714483 0.08144494 0.148489 -0.054490782 0.055665724 0.13664903
-0.022866646 -0.04001704 0.14993966 0.059642486 -0.07408126 0.08656554 -0.018270284 -0.19933346
0.0358622 0.10357168 -0.07753095 -0.011076695 -0.14601111 0.15166728 0.07734873 0.033533268
0.039287098 -0.09249848 -0.05797925 0.010684538 0.037864268 -0.10026964 0.10318674 0.08566424
-0.15960826 0.05827262 0.18274732 0.009527577 0.074647546 -0.06022831 0.0043769507 -0.0034181562
0.07588574 -0.042032484 0.08926625 -0.06583713 -0.008091427 -0.04289981 -0.016762927 -0.26245278
0.008870475 0.039342865 0.054725483 -0.03894104 -0.15282959 -0.005849268 0.05472356 0.0023764446
-0.05440686 0.033921313 0.07419839 -0.0116625065 -0.13394494 0.007170288 -0.089783244 -0.02809238
-0.029059244 0.070707366 -0.011896362 0.00827647 -0.13578282 -0.09775919 -0.0865635 0.23820981
00000000: 2e61 e5bc 7232 12bd 1564 74bd 28dd 82bc
00000010: 28ac 85bd aa65 8ebb 4687 7abd 7d6f 623d
00000020: 355e 7fbd 4149 82bc cea1 94bd da80 473d
00000030: 0677 cbbc eefb 48bd 0842 69bc 0467 0ebd
00000040: fc2a bc3d fbb2 51bd 2bfc c33c d564 f73d
00000050: bd8b 60bd e26d 273d f3b3 9bbd 11c5 9d3d
00000060: 3e46 a63d 16db b63d 1614 9abd f370 a93c
00000070: cec8 9cbd f04c b33d 87cd a23d 7549 8d3c
00000080: a5fc 173e 4564 353e 366c 26bd 9bfb a43d
00000090: 6467 c9bd 5d2a 5fbc 3e29 d33d ee01 433c
000000a0: 5a9b 783d 4f8c 093e a6c8 0bbe 7193 48be
000000b0: 4770 523c 9ad8 973d 63ab 083d 2a9e 2abe
000000c0: a8d5 55bd 9f11 e8bd 30cf 5bbd 09dc c13d
000000d0: 5da1 0abe e54f f33d 8bdb 923a 00bb 62bd
000000e0: b605 d5bd 4e89 87bc 67a4 9bbc f3e2 3a3e
000000f0: 07e3 17bd d7a0 ab3d df8a 9dbd 6001 22bd
00000100: 3237 04bd a100 bcbc c588 4f3d d622 e53c
00000110: 8685 8d3c 6767 653c d5d0 58bd cdda e93c
00000120: d82c 59bc b603 3b3d 0e75 64bd 1215 183e
00000130: 167a 2ebd 07d3 323e 0f29 58bd d405 ef3c
00000140: cdfd 793d 64e3 19bd 1e8a b53b e2d6 5cbb
00000150: ac96 113d 2c96 a23c d85a 443d f253 0ebc
00000160: 4cb8 a1bd 13d8 cabd 372e 1b3e 9d95 9a3d
00000170: 4946 b33d 9352 f0bd 4987 f93c 41b9 37be
00000180: 2b05 ce3d f1cc 04bd 7fee 583d 2f2e 37bd
00000190: 18ec 883c 861c d5bd 7843 56bd ab85 64bd
000001a0: 4957 14bd 112a efbd 71a1 bf3d 5a09 43bc
000001b0: 1931 52be 0eb3 88bd b14d 383c 0071 8e3c
000001c0: 074c 8b3d 4a3f 0fbb b81a 35bd 7a9e 1ebc
000001d0: 61e8 81bd b953 90bd 39eb 8e3d 8eda d0bc
000001e0: c5fb e93d 54d0 0d3e 1bc2 39bd fd4e 91bd
000001f0: ad8d 89bd 31d8 3a3e f553 b0bc a1b5 633c
00000200: e7e6 f93c 0aa5 4f3d 6b6f aa3c 7107 1dbd
00000210: c2f0 1abc ce56 543e 9858 163e c38b a1bd
00000220: bc1d 9c3d 2f7c 00be 80b8 fa3b abc5 08bd
00000230: e2c3 dabb 73af 6a3d ba79 f9bc c3f2 143e
00000240: 9bb2 fbbd 06d5 0abd f4b7 0bbe a610 adba
00000250: 584b 983d 6865 f93c 0580 2ebe 9291 5bbe
00000260: 8b0e 913d 867c d0bc 731c 113d 7f05 f53d
00000270: 6dd9 fabd e9dc 0c3d 72dc 53bd 114e 90bd
00000280: 40bc 4d3d 5dd0 093e 58fd 07bd 55f6 b1bd
00000290: ac8e 82bc 1d76 64bd 47d1 423e 239a 133e
000002a0: ea91 803d 3b6b f73d 2242 5cbd 071b b7bd
000002b0: fd08 18bd 7481 053d 333a b03c 3d18 c6ba
000002c0: 374e 93bd f26a 76bd 8f0e 1c3d dc50 423e
000002d0: f965 0fbe 9891 103e bb0a f93d b1be 11bd
000002e0: d64a cf3c 7b94 2bbe f01a 41bd 9bcc a63d
000002f0: 800d 183e ba31 5fbd be01 643d b9ed 0b3e
00000300: d552 bbbc e8e8 23bd c889 193e ae4b 743d
00000310: eab7 97bd 4649 b13d 90ab 95bc 121e 4cbe
00000320: 3ee4 123d 641d d43d 8cc8 9ebd 077b 35bc
00000330: f083 15be ab4e 1b3e 0369 9e3d 2e5a 093d
00000340: 82eb 203d d86f bdbd a67b 6dbd 330e 2f3c
00000350: 9017 1b3d 2b5a cdbd 9253 d33d bc70 af3d
00000360: 5970 23be 45af 6e3d 1d22 3b3e 8e19 1c3c
00000370: d0e0 983d f6b1 76bd 866c 8f3b 2503 60bb
00000380: fc69 9b3d 412a 2cbd 39d1 b63d 9ed5 86bd
00000390: e891 04bc b6b7 2fbd 6852 89bc 3660 86be
000003a0: 7855 113c fc25 213d d427 603d a480 1fbd
000003b0: 5c7f 1cbe 37ab bfbb d025 603d 20be 1b3b
000003c0: bad9 5ebd 13f1 0a3d 53f5 973d 1914 3fbc
000003d0: dd28 09be bcf4 ea3b 47e0 b7bd fe21 e6bc
000003e0: a70d eebc 06cf 903d f5e8 42bc 089a 073c
000003f0: a70a 0bbe f835 c8bd 3448 b1bd 46ed 733e

StatefulPartitionedCall/sequential/dense/BiasAdd/ReadVariableOp:0 f4 [128]
0.09097746 -0.022741651 0.10028128 -0.0056772525 0.33507028 0.24603854 0.17755455 -0.20100714
0.3521747 0.4213967 0.22442916 -0.01502811 0.29969296 0.20402756 0.20906416 0.17439619
0.20407768 0.33330107 -0.044341758 0.032696232 -0.22866696 -0.010935517 -0.51928 0.085358925
0.25769827 0.33221582 -0.020187961 -0.13127966 0.07348782 0.19304162 0.2262047 -0.41098627
0.4032555 0.3523541 -0.015338254 0.18048169 0.19748625 0.19264273 0.2136472 0.04554232
0.40614936 0.20621431 -0.17995128 0.19150831 0.13828373 0.30896932 0.3188188 -0.20622385
0.38743368 -0.34399298 0.12290136 0.22239438 0.10926541 0.36274633 -0.028707677 -0.24349074
0.14958768 0.14960253 0.21170613 0.44905335 0.049344257 0.3027965 0.027965786 0.4093185
0.11857031 0.4118318 0.09925134 0.15301217 0.04749499 -0.045127455 0.2494409 -0.23672703
-0.014152426 0.36618176 0.026609069 0.31503022 -0.05510277 0.3333303 -0.070368424 0.1675019
0.072505645 0.014761797 -0.113492124 0.21275961 -0.019947343 -0.06988975 0.41035777 0.1794379
0.4478287 0.24674271 -0.14997779 0.48264995 0.22283588 -0.0562041 0.29522738 0.24673186
0.15987234 0.51721925 0.07781635 -0.21561655 -0.21015197 0.13565426 0.2774951 -0.18961366
0.04017962 0.08515341 0.18075347 -0.12381569 0.0016034434 -0.0105768675 0.16129759 0.014487928
-0.013152539 0.064749435 -0.020757299 0.07201997 -0.007205165 -0.16692983 -0.18614566 -0.019994583
0.1802003 0.24682859 0.3591354 0.3710898 0.00061792217 -0.03432022 0.021271432 0.21487765
00000000: 6452 ba3d b34c babc 4660 cd3d 3f08 babb
00000010: 558e ab3e 87f1 7b3e dcd0 353e d1d4 4dbe
00000020: 3e50 b43e 4fc1 d73e c2d0 653e 7638 76bc
00000030: 5b71 993e 9aec 503e ea14 563e ea94 323e
00000040: bdf9 503e 70a6 aa3e b49f 35bd 7cec 053d
00000050: ac27 6abe e22a 33bc 89ef 04bf a9d0 ae3d
00000060: 07f1 833e 3118 aa3e 3961 a5bc 2d6e 06be
00000070: c880 963d b4ac 453e 34a2 673e cb6c d2be
00000080: 8177 ce3e c267 b43e 4d4d 7bbc 31d0 383e
00000090: d639 4a3e 2344 453e 55c6 5a3e 958a 3a3d
000000a0: cff2 cf3e d829 533e 2645 38be c11a 443e
000000b0: 409a 0d3e 3a31 9e3e 383c a33e 582c 53be
000000c0: b55d c63e d91f b0be b5b3 fb3d 5abb 633e
000000d0: 8bc6 df3d e3b9 b93e 5d2c ebbc a355 79be
000000e0: 832d 193e 6831 193e 7ec9 583e 52ea e53e
000000f0: 341d 4a3d 2508 9b3e 8118 e53c 3292 d13e
00000100: fed4 f23d 9edb d23e 4944 cb3d 39af 1c3e
00000110: 1b8a 423d 91d7 38bd 6f6d 7f3e 9268 72be
00000120: 94df 67bc 2d7c bb3e 43fb d93c a44b a13e
00000130: 71b3 61bd 45aa aa3e 521d 90bd 9e85 2b3e
00000140: d77d 943d 77db 713c 8f6e e8bd a8dd 593e
00000150: 9c68 a3bc 5b22 8fbd 6a1a d23e 92be 373e
00000160: ce49 e53e 1faa 7c3e c793 19be e51d f73e
00000170: 172f 643e 4536 66bd 0b28 973e 47a7 7c3e
00000180: 93b5 233e 7b68 043f 2e5e 9f3d 96ca 5cbe
00000190: 1432 57be f3e8 0a3e d613 8e3e 152a 42be
000001a0: 6393 243d e964 ae3d 7017 393e 1593 fdbd
000001b0: a22a d23a 994a 2dbc 322b 253e c65e 6d3c
000001c0: bf7d 57bc 5a9b 843d 360b aabc 357f 933d
000001d0: 4e19 ecbb a7ef 2abe f89c 3ebe aecb a3bc
000001e0: 6d86 383e a2c0 7c3e 98e0 b73e 7bff bd3e
000001f0: 0efc 213a 5c93 0cbd 6d41 ae3c e308 5c3e
