fashion2l.onnx (onnx, 222721 bytes, 6 tensors)

StatefulPartitionedCall/sequential/dense_2/MatMul/ReadVariableOp:0 f4 [64, 10]
000000 c6 f1 79 be dc e7 fb 3d 40 6e 30 be bb cd 4f 3e
       -0.24408635 0.12300083 -0.17229557 0.20293324
000010 29 57 26 3e 6b 8b f1 3c fe 13 85 be 3d 0b 76 bd
       0.16244186 0.029485425 -0.25991815 -0.06006931
000020 94 c0 b8 3d c8 9d ef be 00 5b d4 3e 88 56 d9 be
       0.09021106 -0.46800065 0.41475677 -0.4244883
000030 30 83 82 be 0b e2 b7 bd e8 bf 01 be d8 d5 bf be
       -0.25490713 -0.08978661 -0.12670863 -0.37467837
000040 49 a9 82 bd a7 d1 75 be 8d 82 50 be ca 6a 24 be
       -0.06379945 -0.24005757 -0.20362301 -0.16056362
000050 a4 5f 63 3e f3 2a d0 be 8b 45 09 bf f4 4a 2e be
       0.22204453 -0.40657768 -0.5362174 -0.1702078
000060 75 d1 f5 be 72 2d 25 3e cd ed 3f 3d 39 d5 35 3c
       -0.48011366 0.16130617 0.046857644 0.0110981995
000070 a7 c5 8e bd 27 ad 96 bd f3 e3 91 bd 6f 99 2f 3e
       -0.06971293 -0.07357245 -0.07123556 0.17148374
000080 f6 9d 89 be 3e 78 6f 3b 17 c0 92 be 74 13 09 3e
       -0.26878327 0.0036540176 -0.28662178 0.13386327
000090 ff 7b 04 be ca 28 9a bd 66 0c 0d 3e fc b9 fa 3c
       -0.12937926 -0.07527311 0.13774261 0.030606262
0000a0 57 66 72 bd a0 fc 9b be 85 28 17 3d cd 75 5b bd
       -0.05917963 -0.30466175 0.036903877 -0.05357914
0000b0 52 5d 96 3c 13 f0 96 be dd ef f1 bd 76 5d 2c 3e
       0.018355045 -0.29480037 -0.118133284 0.16832528
0000c0 6b 29 d8 3e 1e 59 70 3e 1a 94 7f be 48 4c d8 3b
       0.422191 0.23471496 -0.2495884 0.0066008903
0000d0 2e 44 31 3e 35 40 5c 3d 8d ed a7 3e cb 33 99 be
       0.17311165 0.05377217 0.32798424 -0.29922327
0000e0 68 ac 49 3e 5a 5f 3c 3e 45 0e ec be b4 b2 4b 3e
       0.19694674 0.18395749 -0.46104637 0.19892389
0000f0 cc ec 33 be bf 71 30 3f c8 dd c3 be be f1 9c be
       -0.175708 0.6892356 -0.38255143 -0.30653185
000100 51 1f b0 be ed 73 b7 3d f4 4c 74 3d b9 4b a4 3c
       -0.34398893 0.08957658 0.0596437 0.020055639
000110 29 79 f4 3d f0 2f d0 bc d9 00 35 bd e0 7f c3 be
       0.11937172 -0.025413483 -0.04419026 -0.38183498
000120 1f c0 76 be 20 04 ec be d6 a6 3c be 0a ee 9e 3e
       -0.24096726 -0.46096897 -0.18423018 0.31040984
000130 fa b6 23 3e 66 1d 19 be 4e 1e 80 3e 7b 2d 7a be
       0.15987769 -0.14952621 0.2502312 -0.24431412
000140 07 34 25 3e 22 50 fb be 10 71 1d be dd 37 ca be
       0.16133128 -0.49084574 -0.15375161 -0.39495745
000150 38 81 dc be 1c a3 59 bd 74 0b f8 be e8 d3 21 3e
       -0.43067336 -0.05313407 -0.48446238 0.15803492
000160 82 22 c1 be ae 78 4c 3e 97 ba b8 3d 13 c4 6a 3e
       -0.3772164 0.1996791 0.09019964 0.22926359
000170 49 81 5f 3e c0 52 49 3e 7b 09 10 be 20 1e 4d 3e
       0.21826662 0.19660473 -0.14066117 0.20031023
000180 84 d1 64 be 2f 04 a5 be f7 0c c2 bc f7 ec e6 be
       -0.22345549 -0.32229754 -0.023687823 -0.45102665
000190 4e 8b 3c be f3 8b 2a bd 8a ac 30 be 53 be 46 3e
       -0.18412516 -0.041637372 -0.17253318 0.1940854
0001a0 07 0a 6f 3e b7 c9 73 be e1 f3 3a 3e c8 62 d9 be
       0.23343669 -0.23807417 0.18257095 -0.42458177
0001b0 84 8a 90 3e 0f 66 d8 be 87 e0 7b be 08 0c 2b be
       0.2823068 -0.42265365 -0.24597369 -0.16703808
0001c0 8e 37 89 bd b3 21 15 be 16 e9 19 3e 5e 6f 40 3e
       -0.06700049 -0.14563636 0.15030321 0.18792483
0001d0 fe ba 6c 3b dd 4c a6 be e5 ea b0 bc 7b 67 a2 3c
       0.0036122198 -0.32480517 -0.021596381 0.019824734
0001e0 15 cc 79 3e 99 ff b2 3e bb b5 2f be b2 51 5f 3e
       0.24394257 0.3496063 -0.17159168 0.21808508
0001f0 8d f1 d4 be 7b b1 9e 3e bb 1f 1b be 75 40 93 be
       -0.4159054 0.30994782 -0.15148823 -0.28760114
000200 49 0f e9 be f8 5c 24 3d a5 48 e8 3d c0 f0 13 be
       -0.45519474 0.040127724 0.11341981 -0.14447308
000210 0a 46 b3 be 80 b3 8e 3e 55 f1 f0 be 56 97 06 3e
       -0.35014373 0.27871323 -0.47059122 0.13143668
000220 d3 1f 68 3e 23 78 eb be d3 b5 27 be b7 58 7c bd
       0.2266839 -0.45990095 -0.16377954 -0.061608043
000230 65 b9 a6 bd 60 a5 5d 3e 5b 1f 4f 3e 6f 7f fd 3d
       -0.0814083 0.21645117 0.20226805 0.12377822
000240 22 50 81 3e f9 d1 8f bf fe 3c 85 3e 79 64 44 bf
       0.2525645 -1.1235954 0.26023096 -0.7671581
000250 25 86 94 be 08 19 ed be 53 2d fa 3d 95 59 93 3e
       -0.29008594 -0.4630816 0.12215676 0.28779283
000260 fa e9 e0 bc c8 46 ad 3d 67 e1 03 3d 87 e1 cc be
       -0.027455319 0.08460766 0.032197382 -0.40015814
000270 67 52 9d bb 29 79 e5 bd 94 81 b7 be 4a a7 93 3e
       -0.004801083 -0.1120475 -0.35841048 0.2883857
000280 61 ad de bb de 41 1a bf 6c 47 e1 be d7 3e a7 be
       -0.0067955707 -0.60256755 -0.43999803 -0.3266513
000290 4b d2 fe be 2b f1 9a 3e 21 59 6d be b3 b9 86 3e
       -0.49769816 0.30262122 -0.23178531 0.26313552
0002a0 88 de c5 3c 5a b9 07 3e 1e 74 86 3e 00 6e 86 3e
       0.024153963 0.132543 0.26260465 0.26255798
0002b0 97 40 d3 3d b4 24 13 bc 07 7a 91 3e a2 25 f6 bd
       0.10315054 -0.008980919 0.28413412 -0.12018897
0002c0 78 0e 0b bc df d1 2a bd 8b 8b 8b 3e 13 01 5c be
       -0.008487336 -0.041704055 0.272549 -0.21484785
0002d0 94 56 a1 bd d2 1d 83 be 2a b6 19 be 6f b4 97 3e
       -0.078778416 -0.2560869 -0.15010896 0.29629847
0002e0 21 c3 50 3d 23 3d a5 3e 6c cc 2c bd fe fd ae 3d
       0.05096734 0.32273206 -0.04218714 0.08544539
0002f0 ff bc 55 3d 2c 4b c9 3d 08 f2 20 3e 6a 9b 8a be
       0.052182194 0.09828791 0.15717328 -0.27071697
000300 7e 06 50 3e c7 9f 6d 3d 66 08 31 bd 19 0e bd be
       0.20314977 0.058013704 -0.0432209 -0.36924818
000310 48 51 d1 bd 10 cc 77 bd 80 e2 8f be 96 4d ad 3e
       -0.10220581 -0.060497344 -0.28102493 0.33848256
000320 b3 19 63 be ac cf fa bb 9c c7 af 3d 84 04 ef be
       -0.22177772 -0.007654151 0.08582994 -0.46683133
000330 62 df df 3c bb 6f 5b be 5f 5f 07 be 6c ab 5d be
       0.027328197 -0.2142934 -0.13219975 -0.21647424
000340 ef 76 6a 3d 21 95 90 3c 9d b0 8f be 44 05 8d be
       0.05724233 0.017649235 -0.28064433 -0.2754308
000350 24 22 80 3e 38 3d 06 bd cc 84 d3 3d 61 d5 42 bb
       0.25026047 -0.032773226 0.10328063 -0.0029729235
000360 f5 e0 09 3d f2 80 b5 bd 40 33 49 3e ef 8d 0c 3d
       0.0336618 -0.08862485 0.19648457 0.034315046
000370 1f c5 91 3d 65 41 b4 bd 67 eb a4 3e 45 82 bc 3d
       0.07117676 -0.088015355 0.32210848 0.092045344
000380 00 40 63 bd e4 2d 7f be bc dd 8b 3d 7e 6a 6d 3e
       -0.055480957 -0.2491985 0.06829402 0.23185155
000390 64 df b5 3e 60 44 ac bd 15 e8 be 3e 5e 82 ad be
       0.35521996 -0.08411479 0.3728644 -0.33888525
0003a0 46 f9 1f 3e ca df 83 bd 5b 58 7e be 94 13 b5 be
       0.15622434 -0.06439169 -0.24838392 -0.353665
0003b0 95 79 55 be b7 3d fc bd 21 40 24 3e 77 fc 91 be
       -0.20847161 -0.12316459 0.16040088 -0.28512928
0003c0 75 a6 56 3e 2e 5e 6a 3e 6f 16 9c bd dc 17 85 3d
       0.20961936 0.22887489 -0.07621466 0.064986914
0003d0 96 0a 8a 3e f6 c7 da be b9 ac 6b 3d 6c 6c 19 bf
       0.269612 -0.42730683 0.057537768 -0.59931064
0003e0 a2 25 00 be 5f 98 ec be a6 65 51 be ea 50 8d 3d
       -0.12514356 -0.4621 -0.20448932 0.06900199
0003f0 f4 dc 86 be c1 12 27 bd 3e 09 6c be d4 c1 64 3e
       -0.2634045 -0.04078937 -0.230504 0.22339565

StatefulPartitionedCall/sequential/dense_2/BiasAdd/ReadVariableOp:0 f4 [10]
000000 7d b8 a8 3d ce 23 7d be df 3f ce 3d 00 a4 ff 3d
       0.08238313 -0.2472069 0.10070776 0.124824524
000010 78 41 68 be 25 81 bc 3d 3f 85 cb 3d 5e 61 c1 3d
       -0.22681224 0.0920432 0.09937524 0.094423994
000020 8e fb bd bd f9 fa 8c be
       -0.09276496 -0.27535227

StatefulPartitionedCall/sequential/dense_1/MatMul/ReadVariableOp:0 f4 [64, 64]
000000 57 d8 07 be 24 c4 7f be 6f 7a 6a 3c f0 b6 28 be
       -0.13266121 -0.24977165 0.014311417 -0.16476035
000010 ab a5 ac be 52 f3 54 be 72 00 24 3e c2 70 a1 3e
       -0.33720145 -0.20795944 0.16015795 0.3153134
000020 1e 08 8a bc 6b 83 33 3e 2d cf 42 3e bb b8 5d 3d
       -0.016849574 0.175306 0.19024344 0.05413125
000030 11 19 da 3e b2 f0 d1 3d d6 ae 80 3e c4 93 a0 be
       0.4259725 0.10250987 0.2513339 -0.31362736
000040 e6 f9 b1 3e 5d fd 05 be 03 c4 f8 3d 68 f5 1f be
       0.3476097 -0.13084932 0.12146761 -0.15620959
000050 29 35 8b 3b d8 6b 81 3d 7a f1 78 bd 67 87 8e 3d
       0.0042482805 0.06319398 -0.060777165 0.0695942
000060 3c b1 03 3e f5 9d 6a be 1d a9 fc bd 59 5d 86 3e
       0.12860578 -0.22911818 -0.12336943 0.26243094
000070 03 9e fd bd 35 60 b0 3d 67 fc 26 be 08 89 4b bd
       -0.12383654 0.086121 -0.16307221 -0.04969123
000080 e9 84 f0 3d e1 76 ec bd c6 6e a9 be b2 6b 3e 3e
       0.117441006 -0.11546112 -0.33092326 0.1859577
000090 11 5a ac bd 43 36 03 bf c2 19 02 3e 3a 05 56 3e
       -0.08415616 -0.5125467 0.12705138 0.20900431
0000a0 e8 d0 5c 3d d0 2a 79 3e 9d ef 76 3e e4 db e0 be
       0.053910166 0.24332738 0.24114843 -0.43917763
0000b0 4b b1 43 be 5e 8f 2e 3e cf 82 4a 3d 94 7e 50 3d
       -0.191106 0.17046878 0.049441155 0.050901964
0000c0 c3 09 b8 bd a1 64 03 3e 27 ff 98 3e 8b f6 d2 3d
       -0.08986237 0.12831356 0.29882166 0.103009306
0000d0 0c e4 2b 3e 67 99 96 be bc 1d 96 3d 9b f0 58 be
       0.16786212 -0.29413912 0.0732989 -0.21185534
0000e0 33 70 33 be 56 88 81 bd d3 e0 6d bc 23 4e bd 3e
       -0.1752327 -0.06324832 -0.014518934 0.36973676
0000f0 13 ec d4 3e a1 78 0f be 9e ad c3 be 52 a0 ee bd
       0.4158636 -0.1401086 -0.38218397 -0.116516724
000100 c3 5e 88 be 74 aa d3 3d 22 19 61 3e 67 a5 ae bc
       -0.26634797 0.10335246 0.21982244 -0.021319104
000110 8c 53 98 be ff 3c a8 3e 16 77 57 bd a7 89 54 be
       -0.2975124 0.32859036 -0.052603804 -0.20755635
000120 25 1c 3e be 3d 4b 78 3d c8 9e 26 3b c3 58 a7 3d
       -0.18565424 0.060618628 0.002542423 0.08171227
000130 1e db 5e be 08 f6 92 3d a6 e5 bb bb 13 b4 0d bc
       -0.21763274 0.07175833 -0.0057341633 -0.00864889
000140 27 45 83 be 1c 8b 06 3d f4 b0 91 3d 1b 2e 77 3d
       -0.25638697 0.03284751 0.07113829 0.060346704
000150 cd 2e 2d 3e 4d 86 f5 bd b5 c2 6d 3c 3a a1 97 3d
       0.16912384 -0.119885065 0.014511754 0.074037984
000160 af 1d 77 3e 83 90 1d be a4 8b fb 3d 40 86 a1 3c
       0.24132417 -0.15387158 0.12282494 0.019717336
000170 0a a0 0f bd 49 eb ea bc e4 3a 95 3d 26 20 ae 3d
       -0.035064735 -0.028676646 0.07286623 0.085022256
000180 9f a7 46 3d e4 7c 00 3d 8a b9 b6 be a7 e5 e8 3d
       0.0484997 0.031369105 -0.3568843 0.11371928
000190 d9 3f 08 be 8a ee 13 3d 59 4b 01 3e 59 cd 08 3c
       -0.13305606 0.03611616 0.12626399 0.00834974
0001a0 81 59 c1 3d 44 23 80 3d b4 b0 60 3e ef 05 de be
       0.094409 0.062567264 0.21942407 -0.43363902
0001b0 21 e0 92 3d 58 a4 43 be 25 07 72 bd d2 32 44 3e
       0.071716554 -0.19105661 -0.059088845 0.19160011
0001c0 87 7d b4 3c a3 c3 63 3e a7 18 08 be 3c 11 b6 3d
       0.022032512 0.22242598 -0.13290654 0.08890006
0001d0 6f 4d 75 3d bb fb 07 3d 6d fc 09 be 69 8e dd bc
       0.0598883 0.033199053 -0.13475199 -0.027045446
0001e0 ef 3c cc 3d d6 35 91 3e 14 58 03 3e 67 61 49 be
       0.0997256 0.28361386 0.12826568 -0.19666062
0001f0 e2 1b 2f 3d d8 98 6a bd a7 8e e8 3d 28 21 b4 bd
       0.0427512 -0.05727467 0.11355334 -0.087953866
000200 1a 08 f3 bd 03 31 78 be 53 91 a1 be cf 5c ee bc
       -0.118667796 -0.24237446 -0.31556186 -0.029096989
000210 2f da 4a 3d ee 51 24 3d a7 74 a7 3d b7 af 32 3d
       0.049524482 0.040117197 0.081765465 0.043624606
000220 f3 66 94 3d 8e 3d 91 3c f8 ad 83 bd 23 a1 f5 bd
       0.072461985 0.017729547 -0.06429666 -0.11993625
000230 cc b6 22 be 0d 20 b1 bd be 06 70 3e 50 31 a8 be
       -0.15890044 -0.08648691 0.23440072 -0.32850122
000240 7d f0 e8 3d 0d f7 07 be 9c 83 af 3d 5b 6a 6f be
       0.113739945 -0.13277836 0.08570024 -0.23380415
000250 dd 97 28 be 54 f4 1f be 2d b8 33 3d 76 ab 5f be
       -0.16464181 -0.15620548 0.043876816 -0.21842751
000260 6e c9 18 be 64 d6 77 bb b8 6f b9 3d 6b 02 88 3d
       -0.1492059 -0.0037816996 0.09054512 0.06641086
000270 cb e1 00 be c9 41 3e be 3d 51 da 3d b9 cd a4 bd
       -0.12586133 -0.18579783 0.10660026 -0.08047051
000280 96 97 c5 bc bb 25 32 3e 26 d3 26 3e cd 1e 28 3d
       -0.024120133 0.17397206 0.16291484 0.041045
000290 2e cd 2c be cd 3c 11 be 10 fd ad bd ba d6 21 3e
       -0.16875145 -0.1418335 -0.084955335 0.15804568
0002a0 20 1b 67 be 34 7d 4e 3c 90 ca 23 3e 7c ff e3 3c
       -0.22568941 0.012603093 0.1599524 0.027831785
0002b0 53 5d 8f 3d 25 d4 e6 3d 4d 03 39 3c 96 bc 2e be
       0.07000222 0.11270932 0.011292291 -0.17064127
0002c0 cf 31 a2 bd df bc 0a bb 16 76 2f be 0a ee 6e be
       -0.079196565 -0.0021169705 -0.1713489 -0.23332992
0002d0 76 9b 78 3e c3 ca 3e bd 6a 79 17 be a6 d3 0a be
       0.24278054 -0.046580087 -0.1479241 -0.135573
0002e0 60 c5 e1 bd 06 b2 47 3d 68 52 e8 bd 62 5e 11 3e
       -0.110239744 0.04875376 -0.11343843 0.1419616
0002f0 d4 bd 7d bb 2d 2e 76 be 4a 0e 55 be eb 6e 73 3e
       -0.0038717883 -0.24041052 -0.20806232 0.2377278
000300 ab c0 e1 bd 2d 30 35 3d 98 7a fb bd 6a 04 1f 3e
       -0.110230766 0.044235397 -0.12279242 0.15529028
000310 88 4b 29 be 38 b4 dc 3d c6 cb 45 3e 8c f8 56 be
       -0.16532719 0.107765615 0.19316015 -0.2099325
000320 72 5c 36 3e c2 fc ba 3d c8 1f bc be e6 e3 3d be
       0.17808703 0.09130241 -0.36742997 -0.18543968
000330 0d 19 29 3c cd 5c b7 bd 7f 7f 4f be 50 d6 d6 3d
       0.010320914 -0.08953247 -0.2026348 0.104900956
000340 96 74 7f 3e d9 fd 03 be bc 29 07 be 0b 43 9f bd
       0.24946818 -0.12889804 -0.13199514 -0.07776459
000350 1f 4d cb bd 81 ed 8a bd 08 81 39 be 09 c3 3c be
       -0.09926819 -0.067835815 -0.18115628 -0.18433775
000360 47 cf 95 be 5b c8 29 3d de 50 58 bd 29 fc 8c be
       -0.29259703 0.04145084 -0.052811496 -0.27536133
000370 14 95 80 3d 46 d2 41 be 43 d3 65 be 48 08 96 3b
       0.062784344 -0.18927869 -0.22443871 0.004578624
000380 33 d2 19 3c 56 26 b3 bd 4b 4a f6 3b 01 84 31 be
       0.009388494 -0.087475464 0.0075161806 -0.17335512
000390 22 ca 96 3e 91 f3 a1 3e ab 96 bf bd 43 e2 e4 bd
       0.2945109 0.3163114 -0.093549095 -0.111759685
0003a0 ed 7b 6c 3e 55 dd 1e 3e 91 b8 ae bd fe 19 f6 3c
       0.23094149 0.15514119 -0.08531297 0.03004169
0003b0 54 b6 cb 3c e7 58 6f 3e 33 f6 b1 3d a6 e7 94 3d
       0.024867214 0.23373757 0.08689537 0.07270746
0003c0 df c5 15 be 2e f7 d6 bc c4 17 d5 3c 4c a1 54 be
       -0.14626263 -0.026240911 0.026012309 -0.20764655
0003d0 ec c1 b9 3e d3 3b a2 3e b5 69 02 be e9 e6 26 be
       0.36280763 0.31686267 -0.12735637 -0.16299023
0003e0 d4 e6 3e bd e9 56 d9 3d c3 34 d2 be 60 d6 fa bd
       -0.046606854 0.1061228 -0.4105588 -0.1224792
0003f0 04 22 6e 3e 56 84 d5 3d 7a dc 17 3d a6 f4 84 be
       0.23255163 0.10425632 0.037075497 -0.25967902

StatefulPartitionedCall/sequential/dense_1/BiasAdd/ReadVariableOp:0 f4 [64]
000000 57 0b 49 3e c5 1b 2b 3e 32 9c 99 3e 72 12 7e 3d
       0.19633232 0.16709812 0.3000198 0.06202931
000010 c8 09 c8 bd 9f 65 ae bc ab 37 16 be 7f 32 51 3e
       -0.097674906 -0.021288691 -0.14669673 0.20429419
000020 c6 29 31 bc 3d 83 5a 3e c3 ad 6d bd 8a 2c 0e be
       -0.010813182 0.21339126 -0.05802704 -0.13884178
000030 ed 94 84 3d 90 cc 86 3e e6 7c a8 3d 49 e9 0d be
       0.06473718 0.26327944 0.082269475 -0.13858522
000040 05 da b2 3e 6d 76 07 be 51 c2 58 3e 6d 24 3c bd
       0.3493196 -0.1322877 0.21167876 -0.045933176
000050 bb 9d cb 3c 1c ca f0 bc 1d b1 14 3e 6c 30 20 3e
       0.024855485 -0.029393248 0.14520688 0.15643471
000060 d9 0f c5 bd ec 08 40 3e 0b a5 ce bd eb 67 07 3e
       -0.09622163 0.18753403 -0.10090073 0.13223235
000070 21 d7 22 bd 30 4e 37 3e 76 0d d6 bd 4d de 8f 3e
       -0.039755944 0.1790092 -0.10451786 0.2809929
000080 b2 a9 bb bd 8d 4e b0 bc f8 e3 7d 3e 22 7b 35 3e
       -0.09163226 -0.02152183 0.24793994 0.17722753
000090 21 09 a3 3d 42 d7 b6 bd 1b 68 69 3e 1a 5c d8 3e
       0.079607256 -0.08927776 0.2279362 0.42257768
0000a0 84 fb 8e 3d 9e fa 11 3e bb 66 2b 3e 43 bb 3f 3e
       0.069815665 0.14255759 0.16738407 0.18723778
0000b0 55 70 32 3c 48 9c 23 be 1d 95 88 3e 3f d5 82 3e
       0.01089104 -0.15977585 0.26676264 0.2555332
0000c0 f8 08 19 3e fc 28 06 3d 8f c0 9b bc dd 43 ca 3d
       0.14944828 0.03275393 -0.019012718 0.09876225
0000d0 0a 54 9c 3e dd 32 a6 3e f5 f0 d8 3c c0 27 bd bd
       0.30532867 0.3246068 0.026482085 -0.09236097
0000e0 71 e1 16 3d 89 90 1e 3e 5b f1 2a 3e ed 17 a5 3e
       0.03683609 0.15484823 0.16693632 0.32244816
0000f0 2a 99 aa 3e 87 1b 69 bd 70 86 13 be b7 65 05 3e
       0.3331998 -0.056911018 -0.14406753 0.13027082

StatefulPartitionedCall/sequential/dense/MatMul/ReadVariableOp:0 f4 [784, 64]
000000 2f fd e0 3d 80 2c 58 bd 88 9d 19 3e 1e a2 08 3d
       0.10985791 -0.052776814 0.150015 0.033357732
000010 af 7b 85 3d 89 c7 b8 3d 1d 4b a1 3d b7 ef e1 bc
       0.065177314 0.09022433 0.07875655 -0.027580125
000020 e0 88 5c bb 88 3a 00 3c 14 2b c4 bc 09 fa 58 3e
       -0.003365092 0.007826455 -0.023946323 0.21189131
000030 73 3e 24 bd e4 d8 dc bd cd 34 a5 bd 28 b4 f6 bb
       -0.04009862 -0.10783556 -0.080667116 -0.0075288005
000040 ed 23 e8 37 b0 2b 97 bb 1b c2 fa bd 43 ec 37 bd
       2.7673284e-05 -0.0046133623 -0.12244054 -0.04490305
000050 c5 3f ab 3d ae cb 22 3e 26 53 38 bd 38 b6 ff bc
       0.083617724 0.1589801 -0.04500117 -0.031214818
000060 0e 41 48 be 40 5e 28 3b da 83 51 3d 4d 0c 12 be
       -0.19556066 0.0025690943 0.051151134 -0.14262505
000070 f3 9f 95 bd d0 c2 eb 3b 08 0f ce 3c 65 87 80 3d
       -0.073058985 0.0071948543 0.025153652 0.062758245
000080 92 15 00 3e 30 7e c3 3d eb e1 39 bd de af 52 3e
       0.12508228 0.09545553 -0.045381468 0.205749
000090 bc 24 12 be 23 e0 aa 3d 28 e4 01 be ba 83 a3 bd
       -0.14271826 0.08343532 -0.12684691 -0.07984109
0000a0 96 05 e2 bd b6 82 7d 3d 4f 13 54 3c 84 0d 91 3c
       -0.11036222 0.061892234 0.012944057 0.01770664
0000b0 89 0d 55 bb a6 63 19 3e c8 bd f1 bb d8 68 08 bc
       -0.0032509288 0.14979419 -0.00737736 -0.008325778
0000c0 10 ca 71 bc 01 13 61 be 57 3c 26 be 3c 6b ad bc
       -0.014757648 -0.21979906 -0.16233955 -0.021169297
0000d0 95 72 c3 3d 90 cd b0 bb 95 5d 42 3e 60 98 04 be
       0.09543339 -0.0053955987 0.18981011 -0.12948751
0000e0 92 7e 0e 3d 80 f4 39 bb 43 2b f5 bd 77 fd 5a bb
       0.034788676 -0.0028374493 -0.11971142 -0.0033415237
0000f0 c9 2a 74 bd 34 d9 aa bd 3e 56 7a 3d 0a 6f 35 3e
       -0.059611116 -0.083422095 0.061117403 0.1771814
000100 fd 95 3e 3e c7 b0 2e bd 6b 6d f5 bd 36 05 0d bb
       0.18611903 -0.042649057 -0.119837604 -0.0021517999
000110 42 af 06 be 4d 40 b6 3d 50 ef 15 be 10 84 c1 bd
       -0.13152793 0.08898983 -0.14642072 -0.09449017
000120 60 76 be 3d 6b fe 1b bd 56 05 0a 3e 6c 7b ab 3e
       0.09299922 -0.03808443 0.13478598 0.334926
000130 ca c6 31 be 71 1f f2 bd 56 aa 16 3d e3 50 ef 3d
       -0.17360988 -0.11822403 0.03678354 0.1168535
000140 57 e1 60 bd c9 5f 48 bd fc 8d 88 be d1 b5 38 be
       -0.0549024 -0.048919473 -0.26670825 -0.18038107
000150 18 6d 78 bd 6b a9 9d 3d f0 af 72 bc a3 80 92 3d
       -0.060650915 0.076983295 -0.014812455 0.07153442
000160 5e 1a c7 3c 32 63 86 bd c3 50 9e bd 97 d5 54 bd
       0.024304565 -0.06561889 -0.07730248 -0.051961508
000170 c1 9d 16 be 7e 32 b1 bd 3d e2 29 3e 82 1d 09 3d
       -0.14708616 -0.08652209 0.1659021 0.033475406
000180 3c d5 19 3e a6 6d 3a be 48 2d 43 3e 17 45 09 3e
       0.15022749 -0.1820589 0.19060242 0.13405262
000190 10 3b 01 be aa 93 00 be d1 df 88 3d 11 05 05 3e
       -0.12620187 -0.1255633 0.066833146 0.12990214
0001a0 ee 6a 53 be aa 78 37 bd 1f 59 e5 bc a2 81 54 3d
       -0.20646259 -0.04479281 -0.027996598 0.05188144
0001b0 a3 89 62 3e 11 e3 2e 3e 5d 85 02 be 85 c8 f4 3d
       0.22122817 0.17078806 -0.12746187 0.119523086
0001c0 a2 ad 4e be 6c bc 55 be 80 cd e8 3c e6 55 14 bd
       -0.20183423 -0.20872658 0.028418303 -0.03621473
0001d0 bd e5 e8 3d fe 9f 2f 3d b7 d6 89 bd d7 81 16 be
       0.11371944 0.04287719 -0.06730407 -0.14697967
0001e0 7b 8f 05 be 84 ab 07 bc fc d5 6f be 76 e8 53 3c
       -0.13043015 -0.008280639 -0.23421472 0.012933841
0001f0 45 94 82 3d 1e 5a 54 be 0b 20 ec bd c4 43 18 3e
       0.063759364 -0.20737502 -0.11529549 0.148696
000200 9e 67 67 3e b9 27 a3 3d eb 21 84 be 38 7e 2c bd
       0.2259812 0.07966561 -0.25807127 -0.04211256
000210 e1 4f ac bd 95 d4 86 3c 4d 18 89 be c2 92 1b be
       -0.08413673 0.016458789 -0.26776353 -0.15192702
000220 f7 7d a8 bb c0 25 43 bc fc eb f9 3d cb a6 ae 3e
       -0.0051419693 -0.011910856 0.122032136 0.34111628
000230 3a 30 7d bd 4a 13 84 be 65 be 80 bd 51 7a 0e 3e
       -0.06181357 -0.25795966 -0.06286315 0.13913848
000240 95 96 7b be c2 78 c9 bc 17 bc bc bc b8 e5 1c be
       -0.24569161 -0.024593715 -0.023038907 -0.15322006
000250 4c 87 f5 3c 47 48 a3 3e a8 e6 3f 3c 92 1c 73 3d
       0.029971741 0.3189108 0.011712708 0.05935342
000260 35 3a 27 3d fe 7f 9e bd 9c 0a 64 bd a6 9b 65 3d
       0.040826995 -0.07739256 -0.05567418 0.05605664
000270 31 98 d8 bd 55 b0 2a be 4f d6 68 3e 4e 05 b6 3d
       -0.10575903 -0.16668828 0.22738002 0.088877305
000280 4d dc 00 be a8 1a b3 3d e5 80 b6 3d e4 cd 40 3e
       -0.12584038 0.08745319 0.089113034 0.18828541
000290 5c e5 95 be 08 79 04 3c 60 05 cc 3d 4d df 85 3c
       -0.2927655 0.008085497 0.09961963 0.01634183
0002a0 84 cd 47 bd 0f 3d 9e 3d 27 36 e3 bc 5a 27 e5 bb
       -0.04877998 0.0772649 -0.027735783 -0.0069932165
0002b0 35 b8 53 3b 2c 84 43 3e 4b 73 de 3b 14 7a e3 3d
       0.003230584 0.19093388 0.0067886463 0.11107269
0002c0 35 e6 18 3e a1 fa 8a be 31 79 45 be 67 cb d9 bc
       0.14931567 -0.2714434 -0.19284512 -0.026586248
0002d0 8a fd a0 3e 1f 47 45 bd 3c 3e e8 bd 6a f9 cc bd
       0.31443435 -0.04816353 -0.11339995 -0.100085095
0002e0 d6 27 45 be 04 84 99 bd c8 ba 82 3c 28 20 50 bc
       -0.19253477 -0.07495883 0.015958205 -0.012702979
0002f0 8b ba 56 3d e1 c1 52 be fb b8 66 be 75 5a ab 3d
       0.052423995 -0.20581771 -0.22531502 0.08366863
000300 df f6 1e 3e 73 c0 05 bd 1a 42 c9 bd 7a 14 ea 3c
       0.15523861 -0.032654237 -0.09827061 0.028574217
000310 5d 00 33 bd 04 60 c1 bd b4 50 e0 bd 50 57 a3 3d
       -0.04370152 -0.09442142 -0.10952893 0.07975638
000320 56 9a af 3c bd be b3 bd 95 26 4f bd bf d7 2e bd
       0.021435898 -0.08776615 -0.050573904 -0.04268622
000330 b1 ca 76 be da ee a4 be 95 63 09 be c3 9a 9f bb
       -0.24100758 -0.3221348 -0.13416894 -0.004870744
000340 3e 98 78 3c 43 bc a8 3d 63 02 05 be cc b2 90 be
       0.015173016 0.08239033 -0.12989192 -0.2826141
000350 90 24 2d bd e6 35 bb 3d 38 27 b2 3c 4e 94 b8 3c
       -0.042271197 0.0914114 0.021747217 0.022531655
000360 83 7b 27 3c db 63 13 bd d9 9e a4 bd b3 4a b1 bc
       0.010222319 -0.0359839 -0.0803811 -0.021642065
000370 78 b1 01 be 71 13 48 be f1 2c a2 3e 3c a8 24 3d
       -0.12665355 -0.19538666 0.31674913 0.040199503
000380 02 db 47 3d c5 d7 16 3e a9 78 29 be 8d a0 1f 3d
       0.048792847 0.14730747 -0.16549934 0.038971473
000390 27 e1 9e bd d7 96 92 3c 01 d5 5d 3d 06 0f b4 3d
       -0.07757788 0.017894192 0.054158214 0.08791928
0003a0 89 53 e7 3d 43 75 25 ba d1 63 f7 3d 24 42 8e 3d
       0.1129523 -0.0006311724 0.12079585 0.06946209
0003b0 1d 20 4f be 96 d5 ac bc 10 ee 08 bd 8b 64 3c bd
       -0.20227094 -0.02109794 -0.03343016 -0.045994323
0003c0 02 0d 37 3e fa 99 1e 3e 9f b2 58 be dd e4 f5 bc
       0.17876056 0.15488425 -0.21161889 -0.030016357
0003d0 20 7f 89 bd 17 29 eb 3c 02 aa d1 bd cf bf 26 be
       -0.067137 0.028706117 -0.102375045 -0.16284107
0003e0 07 23 b2 bd 96 0a 96 bd 9c 79 99 3d 5e 3e c7 3c
       -0.08698087 -0.07326238 0.07493898 0.024321731
0003f0 77 6d 93 3d 07 3f 7e be a8 90 db bd e8 f4 4b bc
       0.07198613 -0.2482873 -0.1072095 -0.012448527

StatefulPartitionedCall/sequential/dense/BiasAdd/ReadVariableOp:0 f4 [64]
000000 0d 15 4b 3e fc 7d b8 3e 34 39 0c 3e d2 e5 2f 3e
       0.19832249 0.36033618 0.13693696 0.17177513
000010 a0 c6 a1 bd a4 f1 3f 3e a0 9c ad bd d2 ac 52 3e
       -0.07899213 0.18744522 -0.084771395 0.20573738
000020 5c 45 02 3d b4 3b 1d bd cd 40 d5 3e dd b7 ce 3e
       0.031804428 -0.038387015 0.41651002 0.40374652
000030 16 92 bb 3e c9 2d e0 bd fd b7 ce 3e b4 6e 8b 3e
       0.36634892 -0.10946233 0.40374747 0.27232897
000040 f0 ab 58 3d 21 5f f3 bb 20 41 a6 3e 92 52 ad bd
       0.052898347 -0.0074271117 0.3247156 -0.08463015
000050 60 ab 9c bc 96 b7 2e 3e cf ee 6c bc 54 21 82 bc
       -0.019124687 0.1706222 -0.014461233 -0.015885033
000060 d6 35 96 be 95 ea 78 bc 54 2a 70 bc 4f 47 5f 3d
       -0.2933795 -0.015192647 -0.014658529 0.054511365
000070 5a cc c7 3c 49 58 a6 3d e5 54 8c 3e b1 63 4d 3e
       0.024389435 0.08122308 0.2740852 0.2005756
000080 75 d1 1b 3e 56 31 62 3e d4 ca 3f 3e 95 44 05 3f
       0.1521662 0.22089133 0.18729717 0.5205777
000090 8d 2a 11 3d d2 a5 2e 3d 72 f3 03 be 1f 31 4b bc
       0.03544097 0.042638607 -0.12885836 -0.012401848
0000a0 9d 76 04 be 11 81 06 bd 1f 99 91 3e c2 c8 2b 3e
       -0.12935872 -0.03283793 0.28437135 0.16775802
0000b0 43 3e 8a 3d 6a 38 2a 3e 7d 53 8b 3d f8 2f 8d 3d
       0.06750157 0.16623083 0.068030335 0.06893915
0000c0 bf 77 ff bc 0f 5e bd be 7a a2 00 3d 85 3a f0 3c
       -0.03118503 -0.36985824 0.03140495 0.02932478
0000d0 50 7a 9f 3d 7a b2 da 3d 74 2c 68 3e 68 19 ea 3c
       0.07787001 0.10678573 0.22673208 0.028576568
0000e0 2b 16 d7 3d b9 80 36 3e 73 cf 93 be 16 27 ab 3b
       0.10502275 0.17822541 -0.2886921 0.0052231653
0000f0 53 44 3b bc 08 c5 91 3e 4e 1d 1e 3e 3b 1b 9d 3e
       -0.011429864 0.28470635 0.15440866 0.30684838
