reducedDimensions.onnx (onnx, 1886 bytes, 4 tensors)

StatefulPartitionedCall/sequential/dense_1/MatMul/ReadVariableOp:0 f4 [2, 10]
0	0xbe8dc4c9	-0.27689198
1	0x3ef18472	0.4717136
2	0x3e8eee9c	0.2791642
3	0xbeef2554	-0.46708167
4	0x3d1d2a00	0.038370132
5	0x3e9b0d92	0.3028379
6	0x3db5f4d8	0.08884591
7	0xbf3330b1	-0.6999617
8	0x3eb1176a	0.34588176
9	0x3e142b60	0.14469671
10	0xbe26813b	-0.16260235
11	0x3eba8483	0.36429223
12	0xbf2d6baa	-0.6774241
13	0x3db10035	0.086426176
14	0x3ec55c43	0.38546953
15	0xbd970a59	-0.073750205
16	0xbeb060d9	-0.3444889
17	0xbe82906c	-0.2550081
18	0xbdd7d578	-0.10538763
19	0x3f11ffaf	0.5703077

StatefulPartitionedCall/sequential/dense_1/BiasAdd/ReadVariableOp:0 f4 [10]
0	0x3ba3d432	0.004999661
1	0x3ba3d2e4	0.0049995054
2	0x3ba3d340	0.004999548
3	0xbba3d2f6	-0.0049995137
4	0xbba3d18c	-0.004999345
5	0xbba3d3b4	-0.004999602
6	0xbba3d4f0	-0.0049997494
7	0xbba3d488	-0.004999701
8	0xbba3d3da	-0.00499962
9	0xbba3d0ac	-0.004999241

StatefulPartitionedCall/sequential/dense/MatMul/ReadVariableOp:0 f4 [4, 2]
0	0xbf14ca30	-0.58121014
1	0x3ef9f805	0.48822036
2	0x3e4cd9e0	0.20004988
3	0xbd25cb2d	-0.040476967
4	0xbf66d5fc	-0.90170264
5	0x3f418426	0.7559227
6	0x3f1340ec	0.5752094
7	0xbe651e85	-0.22374924

StatefulPartitionedCall/sequential/dense/BiasAdd/ReadVariableOp:0 f4 [2]
0	0x00000000	0.0
1	0xbba3b4b3	-0.0049959063
