onnxnetworks/fashion3l.onnx (onnx, 155227 bytes, 8 tensors)

StatefulPartitionedCall/sequential/dense_3/MatMul/ReadVariableOp:0 f4 [43, 10]
000000 b4 f6 94 be d7 0f 67 be 8c 11 88 be 98 02 bf be
       -0.2909447 -0.22564636 -0.26575887 -0.37306666
000010 7d 01 c6 be 55 0c 63 be 49 a9 c0 3d a3 1f 74 3e
       -0.3867301 -0.22172673 0.094072886 0.23840193
000020 35 93 51 3e 90 b7 94 3e 6d 17 9d 3e b1 b8 a0 3c
       0.20466311 0.29046297 0.30681935 0.019619318
000030 56 08 fa bd 4d 40 27 3d 1f cd 5f 3e 38 e4 16 be
       -0.12208621 0.040832806 0.21855591 -0.14735496
000040 0b 10 85 3d ac 58 b6 3b b5 16 f0 3d 81 f7 a4 3d
       0.064972006 0.0055647697 0.11723081 0.0805502
000050 29 9d fb bd d1 e7 c2 be be 16 f1 be 59 22 90 bd
       -0.12285835 -0.38067487 -0.47087663 -0.07037801
000060 0c 0c 17 3e c6 86 9a 3e fa 7f 01 3e b0 eb 1c be
       0.1475069 0.3018095 0.12646475 -0.15324283
000070 90 9c a9 3e 28 72 d6 3a 31 f8 9e be e0 3d aa bd
       0.3312726 0.0016360926 -0.3104873 -0.08312583
000080 45 48 45 3d 39 59 2b 3e 13 34 7f be 9c b1 c5 be
       0.048164625 0.16733254 -0.24922208 -0.38612068
000090 59 3a d0 be 85 0a 81 3e 35 37 57 3d 97 63 62 be
       -0.40669516 0.25203338 0.052542884 -0.22108303
0000a0 92 f8 95 3e 63 67 6b 3e 06 17 12 be 70 2d 91 be
       0.29291207 0.22988658 -0.14266595 -0.2835498
0000b0 70 31 be be 40 3b 0d be d3 26 7d be f2 7c b9 3e
       -0.37147093 -0.13792133 -0.24721842 0.36228138
0000c0 ad 27 00 3e 5d 1a ae 3e 8e 11 09 bf 34 aa 64 be
       0.12515135 0.3400449 -0.5354241 -0.22330552
0000d0 46 cb 85 bd 72 0b 9a 3d 3c e0 72 3e 6b a3 47 3e
       -0.06532912 0.07521714 0.23718351 0.19495933
0000e0 ed 8c bc 3c 7d 63 9c 3e 6a 11 af be 44 8b af be
       0.023016417 0.30544654 -0.34192973 -0.3428594
0000f0 09 72 b4 3e 4a 68 9d be 41 03 d6 3e dd 28 81 3e
       0.35243252 -0.3074363 0.41799358 0.2522649
000100 a3 85 0c 3e 7b 4a d7 be 01 42 d5 bc 7b b7 63 3e
       0.13722853 -0.42049012 -0.02603245 0.22237961
000110 7b 62 53 3e 3b eb 2a 3e 8d 90 db 3e 2d a2 85 be
       0.20643036 0.16691296 0.4288372 -0.26100293
000120 e3 30 df bd 69 82 84 be 65 b2 0a bf b9 4d 4b bf
       -0.10897996 -0.25880745 -0.5417846 -0.7941547
000130 70 33 4f be 67 dd 1c bf 3f 6c 04 bf bd 26 88 be
       -0.20234466 -0.61275333 -0.5172767 -0.26592055
000140 14 92 20 bd a0 ae 93 bd 62 3d 2d 3e e2 a5 28 be
       -0.03920181 -0.072110415 0.16917947 -0.1646953
000150 d3 41 17 be 1e 4f 5c bc 4f 77 e2 3d 9b 4e 1e be
       -0.14771204 -0.013446597 0.110579126 -0.15459673
000160 5a ec ad bd 99 bc f2 bc 4a ec 8c be 13 37 11 3f
       -0.08492346 -0.029630946 -0.27524024 0.5672466
000170 ea 74 f8 be 9f d0 57 be 7e c3 bb be 87 2a 51 be
       -0.48526698 -0.21075676 -0.36672586 -0.20426379
000180 6d f5 a4 38 c5 45 eb be 85 6a 38 3e f8 67 2a be
       7.8658435e-05 -0.45951667 0.18009384 -0.16641223
000190 f3 71 b8 bc c4 9e a7 3e db ce 18 3e 87 c4 73 be
       -0.022515273 0.32738316 0.14922659 -0.23805438
0001a0 df 9e 9e be 6a f4 c0 be 28 2e 1b 3c 52 f2 b2 be
       -0.30980584 -0.37686473 0.009471454 -0.349505
0001b0 6a ea 5f be 4f d2 3a be 40 16 30 be b7 99 50 be
       -0.21866766 -0.18244289 -0.17195988 -0.20371138
0001c0 f5 97 b9 be e7 50 fc bd 63 ca b4 be a3 29 a5 3e
       -0.36248747 -0.123201184 -0.3531066 0.3225833
0001d0 62 cc 15 be 73 4f 19 be 21 82 c5 3e 8f 85 88 3e
       -0.14628747 -0.14971714 0.38575843 0.26664397
0001e0 cd 44 bb be a3 58 ad be 70 be ae be ed 54 d5 3d
       -0.36575928 -0.33856687 -0.34129667 0.10416589
0001f0 12 55 d2 bd 9f 93 de 3d 0f 1e d9 be f0 dc 0f 3e
       -0.10270132 0.10868 -0.42405745 0.14049125
000200 96 00 bc 3d 96 9e 85 be da 66 4c 3d 66 f4 c5 be
       0.09179799 -0.26097554 0.049902774 -0.38663024
000210 00 f7 70 3e 11 df 64 3e 27 64 59 3d 74 6b 6c 3e
       0.23531723 0.22350718 0.05307403 0.23087865
000220 17 d7 10 be c7 1c 2e 3e ab 2e 2c be 1e 02 da be
       -0.1414455 0.17003165 -0.16814677 -0.4257974
000230 7a 7f 05 bf 01 2e dc 3d c1 de 40 bf 20 0c c4 be
       -0.5214764 0.10750962 -0.75339895 -0.382905
000240 48 c4 b4 be 9f 29 91 bd 2f 2b 10 bf 3a 84 73 3e
       -0.35306 -0.07088017 -0.5631589 0.23780909
000250 ac 8c d7 be 50 3f d0 bd 3d cd c6 bd 72 df 46 be
       -0.42099512 -0.10168326 -0.09707115 -0.19421175
000260 88 f9 ef bb d2 81 bd 3e c2 b0 42 be f2 0e 10 3e
       -0.0073234476 0.37013108 -0.1901274 0.14068201
000270 10 62 17 3c 0f 6c e1 bd b1 81 2f be 05 59 19 3d
       0.0092396885 -0.11006939 -0.17139317 0.03743841
000280 97 d0 a3 3e 1b 2e 14 3d e5 76 a0 bc f2 a5 e1 3c
       0.3199508 0.036176782 -0.019587943 0.02754495
000290 5d c9 97 3e 5f f4 b8 bd 67 6a a4 3d 2d 35 f3 bd
       0.29645815 -0.09030985 0.08028107 -0.11875377
0002a0 e4 51 c6 bd 6e 72 94 be c0 f3 45 3e b1 b6 5b 3e
       -0.09683588 -0.28993553 0.19331264 0.2145641
0002b0 4c ee b2 be 31 d5 b9 3e 77 92 72 3e 84 9c 5d 3d
       -0.3494743 0.36295465 0.23688684 0.054104343
0002c0 e1 44 0b be fc e4 e4 3d 37 14 91 bd 35 32 da 3d
       -0.13600494 0.11176488 -0.07083934 0.106541075
0002d0 02 0a 36 3e 5d 5e b1 3d 92 54 38 3e 13 ca 40 3e
       0.17777255 0.086605765 0.18001011 0.18827085
0002e0 6a 4e d1 bb e9 99 a2 be 68 98 91 3e 5b 42 1c bf
       -0.0063875215 -0.3175805 0.2843659 -0.6103875
0002f0 dd 83 44 be ae c2 11 be 66 86 f0 3c 94 cc b1 bc
       -0.19190927 -0.1423442 0.029360961 -0.021703996
000300 88 d7 96 3e cb ff 15 be 14 02 20 be 09 36 32 3e
       0.29461312 -0.14648359 -0.15625793 0.17403425
000310 de 05 82 3e 5f 7e 17 bd df 0d c1 be 08 c5 63 3e
       0.253951 -0.03698575 -0.37705895 0.2224313
000320 a8 5f 1d 3e 71 cc a2 3e a6 c5 6a be b8 0b ce bd
       0.15368521 0.317966 -0.2292696 -0.10060829
000330 af b0 bd 3d 8e 82 d1 3d d4 51 08 be 44 68 e2 3d
       0.09262215 0.102299795 -0.13312465 0.11055043
000340 ca 54 84 3e 91 a2 9d 3c 35 e8 cf bd 29 57 c4 bd
       0.2584594 0.019242557 -0.10151712 -0.09586937
000350 ef 23 8c be 1a 7d 07 bf 2e 29 eb be a3 d5 a9 3e
       -0.27371165 -0.52925265 -0.45929855 0.33170804
000360 0c f6 53 be c2 bd 12 3e ca 55 92 3e f2 e3 34 3e
       -0.20699328 0.143302 0.28581077 0.17665079
000370 3b 4d eb bd 5d 10 8c 3c 99 71 e2 bc 0c 58 04 bf
       -0.1148934 0.017097646 -0.027642058 -0.5169685
000380 45 eb 36 3d a1 10 80 3e 6b bd 3c 3e 8f cd 41 3e
       0.044657964 0.25012687 0.18431632 0.1892607
000390 13 dc 0d bf e9 26 49 3e 8d 2e 00 3e 8b 57 80 be
       -0.5541393 0.1964375 0.12517758 -0.2506679
0003a0 bb 57 6e 3e 43 d0 bb bd ba 39 3d bd e3 b0 b2 be
       0.23275654 -0.09170582 -0.04619763 -0.3490058
0003b0 5f b4 36 3e db 12 9b be 01 c6 c4 3e 38 93 74 bd
       0.17842244 -0.30287823 0.38432315 -0.05971071
0003c0 db 32 ac 3e 6e 89 e4 be 23 3e 78 be 59 c1 84 be
       0.3363255 -0.446361 -0.24242453 -0.25928763
0003d0 24 97 95 be db 92 72 3e b4 ba 98 3e a9 a7 86 3e
       -0.29216874 0.23688833 0.29829943 0.2629979
0003e0 02 42 10 bf c5 76 bb 3c 65 98 6a be c6 34 f2 be
       -0.5635072 0.022883782 -0.22909696 -0.47305888
0003f0 0b b6 d5 bc b3 2d bb be 09 e6 3b 3e 54 cc 89 be
       -0.026087781 -0.36558303 0.1834947 -0.26913702

StatefulPartitionedCall/sequential/dense_3/BiasAdd/ReadVariableOp:0 f4 [10]
000000 79 78 b9 3d a2 26 3c be 3d 50 43 3e f9 24 0b 3e
       0.090561815 -0.18374112 0.19073577 0.13588323
000010 be 85 71 be 5b bd db 3d 8e cd df 3d 89 99 63 3d
       -0.23586175 0.10729476 0.10927878 0.055566344
000020 22 eb 78 bd ed 85 b0 be
       -0.060771115 -0.34477177

StatefulPartitionedCall/sequential/dense_2/MatMul/ReadVariableOp:0 f4 [43, 43]
000000 01 29 17 be 32 36 23 3d 2e 08 ab 3d c6 81 0d be
       -0.14761735 0.039846607 0.083511695 -0.13819036
000010 c3 44 00 be 01 a8 5d be 0c ea 05 be 47 23 78 3e
       -0.1252623 -0.2164612 -0.13077563 0.24232207
000020 31 bb 4b 3e e3 2c eb be 8d c2 cb be 36 1d a1 3c
       0.19895627 -0.45932683 -0.39796868 0.01966725
000030 4b b4 17 be bd f8 c9 3d 10 38 3e be fd eb 2d 3e
       -0.1481487 0.09861896 -0.18576074 0.16984554
000040 e4 67 63 be ec 5b ae 3e fa 08 84 3c a3 0e e4 3d
       -0.222076 0.34054506 0.016117562 0.11135604
000050 69 1c 8c 3e b8 20 d8 3e 7c 21 02 3b b9 01 8a be
       0.27365425 0.42212462 0.0019856384 -0.2695444
000060 32 37 15 3e 66 a7 72 be bf 13 a8 be cd ed 18 be
       0.14571837 -0.2369667 -0.32827565 -0.14934464
000070 60 02 41 be 62 3c 07 3e 7e a9 2c be cf dc 9a 3e
       -0.18848562 0.13206628 -0.16861531 0.3024659
000080 08 c9 fe 3d 5a 05 04 3f b6 60 92 3d 08 06 e9 3e
       0.124406874 0.51570666 0.071473524 0.45512414
000090 63 63 49 bd 57 38 aa 3e 03 de 0d 3e 0d 3b 16 3d
       -0.04916705 0.3324611 0.13854222 0.03667741
0000a0 62 bd 9d be de 27 3c bd 84 21 33 bd 39 30 31 3d
       -0.3080855 -0.045936458 -0.043733135 0.04325888
0000b0 5d fb 3d 3d 23 74 c5 3d d5 d3 12 bd 81 fd 6d 3e
       0.046382297 0.09641292 -0.03584655 0.23241235
0000c0 74 6d 84 3e a6 0c 50 bd c4 a2 8c be 13 89 10 3e
       0.25864756 -0.050793312 -0.2746793 0.1411479
0000d0 d3 65 94 be 24 5f 27 be 0e 21 63 3e eb a7 92 3e
       -0.28983936 -0.16344887 0.22180578 0.28643736
0000e0 a7 e8 9e bd 50 53 50 be 36 b3 42 3e c5 89 1a 3e
       -0.07759219 -0.20344281 0.19013676 0.15091617
0000f0 f5 ac e6 3c b2 30 e7 3d 42 80 06 3e fa 69 0a be
       0.028158644 0.11288585 0.13134864 -0.1351699
000100 f9 e3 2c 3e 20 a0 6e 3e fb 37 89 bd 90 44 89 3e
       0.1688384 0.2330327 -0.067001306 0.26810122
000110 91 0f e9 bd a9 8e 23 3e ab fe 0a bd 85 46 dc be
       -0.11379922 0.1597239 -0.033934277 -0.43022552
000120 94 fe df be c4 e2 8e be d4 db af 3e 5f a8 b9 3d
       -0.43748915 -0.27907383 0.34347403 0.09065317
000130 27 b7 1c 3d 5a fe 99 be 45 d3 51 3d cf 18 6e bd
       0.038260605 -0.30076867 0.051226873 -0.058129128
000140 e9 36 b4 bd a4 ec ce 3e eb 2a 8b 3e 1d ba 60 3e
       -0.08799536 0.40414917 0.2718118 0.21945997
000150 9a 7d 47 bd a5 b2 39 be 71 ad 0c be 23 7c a3 be
       -0.048703767 -0.18134554 -0.13738038 -0.31930646
000160 5b cf 9b bd 2a 91 93 3e e4 24 5e bd 0c f5 c0 3e
       -0.07607909 0.2882169 -0.0542344 0.37686956
000170 75 35 9d be 70 65 f0 3d 96 0e c6 3b f4 fa 1b be
       -0.30704847 0.11738098 0.0060442192 -0.1523245
000180 82 72 9f be 22 1c 25 bd 77 5b bf 3e f1 73 51 3e
       -0.3114205 -0.040310033 0.3737447 0.20454384
000190 df 7f 92 bd 4a 38 41 be 80 cd be 3c 90 11 bf 3e
       -0.07153296 -0.18869129 0.02329135 0.37318087
0001a0 73 70 b0 bd 4d 66 84 be 81 53 1e 3e 8c 3b 22 3e
       -0.08615198 -0.258593 0.15461542 0.15843028
0001b0 91 21 0c 3e f1 87 62 be e1 07 03 be 7e ad 5c 3e
       0.1368468 -0.2212217 -0.12795974 0.21550557
0001c0 66 20 01 3d 43 e2 86 be 46 cb 0f 3d d1 39 1e bd
       0.03152504 -0.263445 0.035105966 -0.038629357
0001d0 4e f2 70 3e 76 7e 8b bd 57 63 d2 3e 1e 98 df 3c
       0.23529932 -0.0681123 0.41091415 0.027294215
0001e0 5f c8 12 3e 9d 4e 72 bd c2 9e ab bd 6c 01 05 3d
       0.14334248 -0.059157003 -0.0837989 0.03247206
0001f0 fa f2 dd bd ce 89 3d bd ff b5 c1 be b4 25 01 3e
       -0.1083736 -0.046274 -0.37834165 0.12612039
000200 66 7d 85 3e ac ea 24 be 3b 1e 25 3e ea 44 97 be
       0.26072234 -0.16105145 0.16124813 -0.29544765
000210 3c 08 48 3e 9b af 76 3e 86 89 6e 3e 9f fe 3b bc
       0.19534391 0.24090426 0.23294649 -0.011474281
000220 dc 42 42 bd 49 28 a3 3d b6 2d 09 bd e3 60 0d 3d
       -0.047427043 0.07966668 -0.03349086 0.034516227
000230 eb 92 1b bd ce ad 32 3d e2 7b 0b 3d 44 e0 b1 bd
       -0.03798191 0.043622784 0.03405369 -0.086853534
000240 1a b3 11 3e 2e c3 59 be a3 3e 43 3d 1c 5b eb 3d
       0.14228478 -0.21265861 0.047667157 0.11491987
000250 82 6d 4a 3d 85 0c f1 bc d4 3c 9e 3e 36 7d d1 bd
       0.04942084 -0.029424915 0.30905783 -0.1022896
000260 08 a5 c5 bd 86 88 9f be e4 0a 6a 3e 4b e4 8e 3e
       -0.09650618 -0.31158847 0.22855717 0.2790855
000270 45 5d 69 3e e4 3c c2 3d 47 f9 14 be 14 30 33 3e
       0.22789486 0.0948427 -0.14548217 0.17498809
000280 9b 6a 39 3e 7c 1c 41 3d f4 89 e2 bd 77 ab a4 3d
       0.18107073 0.047146305 -0.11061469 0.08040517
000290 00 3f 38 be cc f1 67 3d 82 54 02 bd 3d 33 d8 bc
       -0.17992783 0.05662708 -0.031818874 -0.02639162
0002a0 34 f7 23 be b3 84 3b 3e 70 1e a8 3b 97 1d 0e 3e
       -0.1601227 0.1831234 0.0051305816 0.13878475
0002b0 95 5b f4 3c de a6 b6 be 7a e3 27 3e 30 84 64 3e
       0.029828826 -0.35674185 0.16395369 0.2231605
0002c0 79 a8 70 3e a4 9e 5d be 11 ac 31 be 58 69 89 be
       0.23501767 -0.21642548 -0.17350794 -0.26838183
0002d0 c4 c2 9c bd e4 5f ce 3d ef 76 34 be d4 a8 7b 3e
       -0.07654336 0.100768834 -0.17623495 0.24576122
0002e0 3e ec 7f bd 07 dc e4 bc 74 09 6e be 98 55 c7 bc
       -0.062481157 -0.027936948 -0.23245794 -0.024332806
0002f0 39 64 2e 3e 99 36 6b be 31 17 3e 3d d6 92 64 bd
       0.1703042 -0.22970046 0.046408836 -0.055804096
000300 3d 5c 7b be 55 76 15 3d 97 85 6b be 2a c4 a9 3e
       -0.24546905 0.036489803 -0.23000179 0.33157474
000310 e3 65 2d bd b0 e0 49 3e a2 04 91 3e 17 8b 21 3c
       -0.042333495 0.19714618 0.28323847 0.009859822
000320 01 84 2a bd b4 c3 2f be b2 6b 21 3e 64 3b 53 3e
       -0.041629795 -0.17164499 0.15763739 0.20628124
000330 cd 2b db 3d 0b 57 97 bc 52 3c 37 3e 1d 0c 12 3e
       0.10701714 -0.018474123 0.17894104 0.14262433
000340 ba ac 70 3e 27 07 6b bd 2f 42 26 3e 92 e9 34 be
       0.2350339 -0.057379868 0.16236185 -0.17667225
000350 fe 6a 93 be 74 4a 89 bc 08 94 3c bb 6b b8 dc bd
       -0.28792566 -0.016759135 -0.0028774757 -0.107773624
000360 97 f7 0c 3d d0 7d 81 be 51 c7 7b be 17 3b 81 3e
       0.034415808 -0.252913 -0.24587752 0.25240394
000370 61 c6 47 be 77 eb 1c bd 59 99 13 bd be 72 a1 bc
       -0.1950927 -0.038310494 -0.036034916 -0.019708034
000380 fb 6e c6 be 81 de 81 3e b3 8c fe 3c 9a bc d7 bd
       -0.38756546 0.2536507 0.03107295 -0.1053402
000390 97 2f 44 3e a5 62 12 be a7 30 80 be 0d 77 13 3e
       0.19158779 -0.14295442 -0.2503712 0.14400883
0003a0 29 9b 15 be 24 e0 d2 3c 58 43 c5 3b f6 81 83 bd
       -0.1460997 0.025741644 0.006019991 -0.064212725
0003b0 64 7d 19 3a 3b cf 9d 3d 3c 12 41 3e eb 80 c2 3e
       0.00058551715 0.07705542 0.18854612 0.37988982
0003c0 59 98 68 3e e0 be 90 bd 89 0e 13 bc 70 5b 97 bd
       0.22714366 -0.070676565 -0.008975633 -0.07390487
0003d0 4e 0e 63 bd c0 c8 9c bd 4e d6 81 be 9f c5 27 3e
       -0.055433564 -0.076554775 -0.25358814 0.1638398
0003e0 c2 81 3f be a9 7b 75 be 54 51 c3 3d a0 ad d4 bd
       -0.18701842 -0.23972954 0.095369965 -0.10384679
0003f0 35 ef 25 bd 73 67 94 bb 1a 68 e0 3d 93 19 98 be
       -0.04051133 -0.0045289337 0.10957356 -0.29707012

StatefulPartitionedCall/sequential/dense_2/BiasAdd/ReadVariableOp:0 f4 [43]
000000 4b b4 12 3d 5b 02 9a bd 70 67 58 3d ac f2 51 3e
       0.035816472 -0.075199805 0.05283302 0.20502728
000010 a2 18 a8 bd 0b 19 02 3e ec 57 9d 3c 4b 53 ec 3d
       -0.08207823 0.12704866 0.019206963 0.115393244
000020 18 3b 5b bd 6d 78 4b bd e8 d8 ee 3d 9f b5 ac bb
       -0.053523153 -0.049675394 0.11662465 -0.0052706744
000030 e0 f6 78 3e 0c 65 8a 3e f0 af df bc 90 ae 45 3e
       0.24312925 0.27030218 -0.027305573 0.19304872
000040 81 49 fc bc c3 e0 23 3d d0 5b 67 3e 22 48 40 3e
       -0.030796768 0.04000927 0.22593617 0.18777516
000050 3a c9 35 bd f0 da 53 3e e8 71 e8 3d 74 ca 74 3d
       -0.044381358 0.20688987 0.11349851 0.059763387
000060 ac 6a 68 3e c9 8d 93 bc 35 67 06 3d c6 27 39 be
       0.22696942 -0.018011944 0.03281327 -0.18081579
000070 1e 17 60 3e 89 07 86 3e 4b 3f 05 3e fa dc cd bd
       0.21883819 0.26177624 0.13012426 -0.100519136
000080 b5 cb f7 3c 7a 59 d9 3d b1 4a c0 3c c0 ef 8c 3e
       0.030248502 0.106127694 0.023473116 0.27526665
000090 b7 70 16 3e d6 70 56 3c 6c db 7f 3e 9b 3c 12 3e
       0.14691435 0.013088426 0.24986047 0.14280932
0000a0 31 ed 45 3e 72 02 f7 bb 59 56 ae bd
       0.19328763 -0.0075381333 -0.08512563

StatefulPartitionedCall/sequential/dense_1/MatMul/ReadVariableOp:0 f4 [43, 43]
000000 7c 39 32 3c 80 e1 ed bc 95 f4 ae 3e cb f1 fd bd
       0.010877963 -0.02903819 0.34170976 -0.12399634
000010 85 7a 88 be 2a 28 51 3e 18 d6 8f bd 5d b6 5d 3e
       -0.26655975 0.20425478 -0.07023257 0.21651597
000020 45 3f e7 3d 5c 76 8b 3e b7 10 fc 3d a8 77 6a 3e
       0.112913646 0.2723874 0.123078756 0.22897208
000030 98 89 fc 3d 58 f0 7e bd a4 dd 10 be 48 3e 30 3e
       0.123309314 -0.06224093 -0.14147049 0.17211258
000040 b8 2e 26 3e ce 9f 93 3e d2 2c 11 be 48 c5 78 be
       0.1622876 0.2883286 -0.14177254 -0.24294007
000050 04 41 92 3e 92 d9 6a 3e 8f ae 24 3e 4c 46 79 be
       0.28565228 0.22934559 0.16082214 -0.24343222
000060 32 d3 a9 3e 1a 2a ad bd 86 37 31 bd 1e 3e 98 be
       0.33168942 -0.08455296 -0.043265842 -0.29734892
000070 f3 2c 70 3e 91 fc c3 bc 31 d8 a5 bd 21 59 ec bd
       0.23454647 -0.023924144 -0.08097876 -0.115404375
000080 c1 d1 80 bc 81 60 91 3e 21 f9 4f 3e 3a 4e 8d be
       -0.015725018 0.2839394 0.20309879 -0.27598745
000090 17 b3 e4 3b fb a8 94 3d dc 09 26 be f8 73 83 3c
       0.006979357 0.07258793 -0.16214699 0.01604651
0000a0 1b f2 c3 bc a2 9a 33 3e 7b 92 03 3e 16 57 d2 3d
       -0.023919156 0.17539456 0.12848847 0.102705166
0000b0 02 06 31 3e cc 56 8c be 74 57 06 3e 6f 69 6f bd
       0.17287448 -0.2740997 0.13119298 -0.05845016
0000c0 63 e9 c6 bd b7 19 82 3d 35 c0 15 3e 34 ce 9a bd
       -0.09712484 0.06352561 0.14624102 -0.075588614
0000d0 6a f1 8f 3e ab cb 6f be 42 b3 83 be 0e a4 86 3e
       0.28113872 -0.23417537 -0.257227 0.2629704
0000e0 d8 6c b7 bd 0f e9 8e bd f3 b3 9d 3e 86 7d 7c 3e
       -0.08956307 -0.06978046 0.30801353 0.24657258
0000f0 26 80 11 bd e1 97 fb 3c 50 23 25 3e 60 8c 70 3e
       -0.035522602 0.03071207 0.16126752 0.23491049
000100 80 c2 ed 3d 8a 3e da bd 4a 5a 5f 3d 66 c7 a1 3e
       0.116093636 -0.1065646 0.054529466 0.3159744
000110 ea fa 2e 3d 52 06 d7 3d 8f be f2 bd 89 07 6d 3e
       0.04271976 0.104992524 -0.118527524 0.23147406
000120 a7 a8 88 3e 45 71 ec 3d da db 18 3e c9 da 2b bd
       0.26691172 0.11545042 0.14927617 -0.041956697
000130 bd 5f 95 be dd d0 80 3e 99 2d 19 3e 3b 9b 6b 3e
       -0.29174605 0.2515935 0.149588 0.23008434
000140 8a 48 0e 3e e4 6a 0c 3c b5 e0 0c be 4c ff 84 3e
       0.13894859 0.008570407 -0.13757594 0.25976026
000150 87 c0 a3 3e df 8d cb 3d e8 df bf be 7f 15 10 bf
       0.31982824 0.09939169 -0.37475514 -0.562828
000160 a1 a9 ce bd df 6c 97 3e 83 53 ec bb 7f c0 a9 be
       -0.10090948 0.2957525 -0.007212104 -0.33154675
000170 ed 3f 87 be d8 ff 92 3e 25 1d bb bd e6 99 53 be
       -0.2641596 0.28710818 -0.09136418 -0.20664176
000180 cc bd f9 3d 88 6c 9a 3e 86 94 47 3a d7 90 92 3e
       0.12194404 0.30160928 0.0007613379 0.2862613
000190 5d 83 c6 3d b9 47 34 be d1 03 39 3d 27 10 b3 3e
       0.09693024 -0.17605485 0.045169655 0.3497326
0001a0 1c f8 13 be e3 1d e2 3d 1a 01 9d be e5 fb fb bb
       -0.14450115 0.11040857 -0.30664903 -0.0076899403
0001b0 b4 1a 97 3e 55 fa 8e 3c 0a 5a 1d bf b9 30 1a 3e
       0.2951256 0.017453352 -0.61465514 0.15057649
0001c0 03 4a cf be 41 2f 7d 3d 70 a9 03 bd e2 22 34 3e
       -0.40486154 0.061812643 -0.03214401 0.17591432
0001d0 11 d2 1e be 2f 4e 0d be d4 3e a2 3d 7e 0b 35 be
       -0.15509821 -0.13799356 0.0792214 -0.17680165
0001e0 99 fd cf 3d 89 c8 c8 bd 5e dc 03 3e a8 2e 09 3e
       0.10155792 -0.09803874 0.12877032 0.13396704
0001f0 89 f2 00 bd 26 74 a2 3e 76 19 1b be 77 c6 a2 bd
       -0.0314813 0.3172924 -0.15146431 -0.079480104
000200 05 26 06 be 22 3c 8f be 41 bb e4 bd 0a 65 52 be
       -0.13100441 -0.27975565 -0.11168528 -0.20546356
000210 f5 05 24 be 2c bb 9d ba 94 a1 63 be cd e1 4b be
       -0.16017897 -0.0012033931 -0.22229606 -0.19910355
000220 13 88 f6 3c 62 2e 05 3e 27 0d 8f 3e 43 9c b6 3d
       0.030094182 0.13005975 0.27939722 0.08916523
000230 eb c7 31 be 2d 7a a1 be 6e d4 01 be 58 d4 0a 3e
       -0.17361419 -0.31538525 -0.12678692 0.13557565
000240 c6 4a 23 3e 7c f8 8d 3e 37 a1 d5 3d f5 ad 3a be
       0.15946493 0.2772864 0.1043114 -0.18230422
000250 d7 7d 03 be 1e 73 82 3e a2 f9 54 be 1a 44 7e be
       -0.12840973 0.25478452 -0.20798352 -0.24830666
000260 d7 b5 ac bd 3f 24 38 be dd 7b e8 bd 44 f2 89 bd
       -0.08433121 -0.17982577 -0.1135175 -0.067356616
000270 03 59 cc 3d 0d 5d ea 3d 2a 8f 19 bc e3 6d 75 be
       0.09977915 0.11443529 -0.009372512 -0.239677
000280 0f 93 78 be 14 9a 4e be f0 cb 92 be 35 fc 88 3d
       -0.24274848 -0.20175964 -0.28671217 0.0668873
000290 80 26 a3 bd cf 1b 99 be b7 1b c5 bd a5 7e e9 bd
       -0.07966328 -0.2990403 -0.09624427 -0.11401109
0002a0 fe 0b 43 3d b6 c7 2b be a7 9d ff bd 7a c9 4b bd
       0.04761886 -0.16775402 -0.12481242 -0.04975269
0002b0 4f 16 9a 3d 86 0b 0c bd cb ea bd 3d d2 a4 ba be
       0.07523786 -0.034190677 0.09273299 -0.36453873
0002c0 96 f3 9b 3e e3 b6 39 be 8f ec 8b be 7c 98 d7 3e
       0.3045928 -0.18136172 -0.27328917 0.42108524
0002d0 63 b7 13 3e 98 56 f5 3d 41 52 22 3e 82 10 f5 be
       0.14425425 0.11979407 0.1585169 -0.47864157
0002e0 e1 81 14 3e 32 39 99 3e e6 e8 a6 3d 63 1c b4 be
       0.1450267 0.2992645 0.081498906 -0.35177907
0002f0 b4 a7 8e bc 73 06 a0 3c 85 b8 d3 3e ab d5 f2 3d
       -0.017413951 0.019534325 0.41351715 0.1185716
000300 b6 c3 b0 3e c5 8e 93 bd 7b eb df be d6 8c af be
       0.34524316 -0.072049655 -0.43734345 -0.34287137
000310 d3 43 5b bb cd 6f 9b 3e 12 69 7a be 83 66 2a be
       -0.0033457174 0.30358735 -0.24454144 -0.16640668
000320 11 4b b5 bc 57 73 02 bf 50 20 19 be 5c c6 c4 3e
       -0.022130521 -0.50957245 -0.14953732 0.38432586
000330 93 d1 40 bd 01 e9 56 3e 80 b0 f5 be 31 8b 99 3e
       -0.047074866 0.20987321 -0.4798622 0.29989007
000340 18 9d ea 3e 9f dc c8 3b be bb c8 bd 1e 22 51 be
       0.45822978 0.0061298157 -0.09801434 -0.20423171
000350 3b 40 17 3e b1 88 e6 bd 21 3f 16 be 04 21 13 3e
       0.14770596 -0.112565406 -0.1467252 0.14368063
000360 8e 86 86 3e d9 4b 48 3e 70 4a c0 bd 74 0b d5 bd
       0.26274532 0.19560184 -0.09389198 -0.10402575
000370 2b 83 53 be b1 63 1f be ce 11 ae 3e 04 d9 46 3e
       -0.20655505 -0.15565373 0.3399796 0.19418722
000380 53 e0 a3 3e 07 a9 a6 3e 38 a7 c4 3d ed 03 52 3e
       0.32007083 0.32550833 0.09602207 0.2050931
000390 6b c9 83 3e 32 00 76 3e 6a 63 64 3e 0d bc a8 be
       0.25739607 0.24023512 0.22303548 -0.3295597
0003a0 0c 6e a7 bb 65 6c dd 3b 75 28 83 bb b1 17 a0 3e
       -0.005109554 0.0067573064 -0.0040026256 0.31268075
0003b0 5a 65 1a bd a0 7f 62 3e ae 67 20 be 40 d2 8a 3e
       -0.037694313 0.22118998 -0.1566455 0.27113533
0003c0 03 9c 2e be bf e9 15 be ee 36 08 bd 9e 43 f0 bd
       -0.17051701 -0.14639948 -0.03325551 -0.11731647
0003d0 b4 7e 82 3c 98 85 35 3e 6a 3f ee bd bc b9 80 3c
       0.015929557 0.17726743 -0.11633189 0.015713565
0003e0 db 10 36 be f9 b1 73 bd 78 87 27 3d 6c ce 71 be
       -0.17779867 -0.0594959 0.040900677 -0.236139
0003f0 2e 7c 80 be 96 8c 7a 3e e5 1a 5b be 1e af 8a 3e
       -0.25094742 0.24467692 -0.21396978 0.2708673

StatefulPartitionedCall/sequential/dense_1/BiasAdd/ReadVariableOp:0 f4 [43]
000000 1f 9d 14 3e de 06 9a 3e b2 63 90 3e 56 f8 15 3c
       0.14513062 0.30083364 0.2820106 0.009153446
000010 47 d3 bc bd 8c 52 51 3b 7f b9 43 be 4e a1 4a 3c
       -0.092199855 0.003194007 -0.1911373 0.01236756
000020 ba b1 ea bc bc 2e 65 3e 2d a7 2b 3e 59 b7 2b 3e
       -0.0286492 0.22381109 0.16762991 0.1676916
000030 cc 2f e3 3d dc b2 a7 be 7d 47 ad bd 9d 1d 89 3e
       0.11093101 -0.32753646 -0.08460901 0.26780406
000040 95 82 af 3e 18 25 72 bd 29 12 a6 3e 89 55 b5 3e
       0.34279314 -0.059117407 0.3243573 0.3541682
000050 f3 c2 49 bd da 34 3a bd 59 8c 38 3e a4 56 14 be
       -0.049258184 -0.04546056 0.18022288 -0.14486176
000060 ff f8 c6 3e cc 8b 05 3e e4 0a 63 bb 54 0f 0d 3d
       0.38861844 0.1304161 -0.0034643942 0.034438446
000070 a4 1a 23 3e 14 2e 10 3d 82 0d 65 3e 7d 5f 0f 3e
       0.15928131 0.035200194 0.22368434 0.1400127
000080 ef 2e 05 3e ee 70 64 3e 40 65 3b 3e 61 f5 a7 bd
       0.13006185 0.22308704 0.18300343 -0.08201099
000090 d0 77 47 bd 1a 77 ae bc 47 b2 1d 3e 3c d8 a4 bd
       -0.048698246 -0.021297026 0.15400039 -0.08049056
0000a0 80 97 47 b9 2b ea 40 3e 43 c5 41 3e
       -0.00019034557 0.18839328 0.18922906

StatefulPartitionedCall/sequential/dense/MatMul/ReadVariableOp:0 f4 [784, 43]
000000 35 7b b8 3d 38 2c 2a 3e 3e 5f 41 3c 3e 42 20 bd
       0.09007875 0.1661843 0.011802493 -0.039125673
000010 cd 04 85 3d 50 ab 27 3d c8 1b 18 3e 42 aa 76 3d
       0.06495056 0.04093486 0.14854348 0.060220964
000020 6b 7b 9f bd ce 0b e6 3d 53 4e 0e be 91 69 13 be
       -0.07787212 0.1123272 -0.13897066 -0.14395739
000030 22 02 18 3e d9 b2 5c bd 2b f7 89 3d ad 17 4b bd
       0.14844564 -0.0538815 0.06736597 -0.049583126
000040 0f 56 8e 3d 3e 4b 17 3e 46 b3 7d 3d 60 dd e7 bb
       0.06950008 0.14774796 0.061938547 -0.0070759505
000050 f8 1a 0c 3c 09 da 3a bd d0 b9 12 be fa 80 5b 3d
       0.008551352 -0.04561809 -0.14328694 0.0535898
000060 0f 87 2a be a9 39 52 3d 0c 3c e4 3d b3 23 66 3d
       -0.16653083 0.05132452 0.111442655 0.05618639
000070 93 85 09 bd 97 15 99 bd 5a f7 14 be 4d e5 56 be
       -0.033574652 -0.07474821 -0.14547482 -0.20985909
000080 2e 09 7c 3c c6 38 76 3d 9c 1f b5 bd 4e 54 71 bd
       0.015383048 0.060112737 -0.0884392 -0.05891829
000090 47 e5 8e 3d e0 72 ea 3b 9a 7e 02 3d c7 5a 0a 3e
       0.06977325 0.0071548074 0.031859018 0.13511191
0000a0 1f 8a 33 be e4 12 e1 3d 0b 82 c4 bd b7 f8 00 3e
       -0.17533158 0.10989931 -0.09595116 0.12594877
0000b0 e3 ce 76 3d b6 3e e9 bd 0c 4a dd 3d f3 6f 60 bd
       0.060255896 -0.11388914 0.10805139 -0.054794263
0000c0 b5 e5 28 bd 27 49 43 3e ba 9e 57 3c 16 59 7c 3d
       -0.04123469 0.19070874 0.013160402 0.061608396
0000d0 c0 9a 88 bd a2 f6 83 3d 19 76 18 be 2a bf 5b 3e
       -0.06670141 0.06443526 -0.148888 0.21459642
0000e0 70 2b 12 3e 97 52 3f bd 59 ef 3e be 3e 64 73 3b
       0.14274383 -0.046709623 -0.18645991 0.0037138606
0000f0 e2 10 0d 3e cb db 3e bd 27 02 dd bd 73 dc 8e 3d
       0.13775972 -0.04659633 -0.10791426 0.06975641
000100 a9 07 17 bd fd 69 d5 bd 0c 3a bd 3c e0 7a 00 be
       -0.03687254 -0.10420606 0.023098968 -0.12546873
000110 99 60 52 3d 00 44 89 bd e7 3b d3 bd af 8b db bd
       0.051361654 -0.06702423 -0.1031416 -0.10720002
000120 a8 3d 67 3e 01 90 1c bb 59 73 8d be 81 d6 a9 3d
       0.22582114 -0.0023889544 -0.27627066 0.082928665
000130 80 cb df ba ee b5 21 3d d5 c7 26 bd db 81 40 bd
       -0.0017074198 0.039480142 -0.04071792 -0.04699884
000140 00 b6 e4 3a 2c ab bb bd bd 89 9e bd d0 17 10 be
       0.001744926 -0.09163508 -0.07741115 -0.14071584
000150 86 ee c2 3d e4 9e 33 be 32 b1 1b 3e 0f 5d 9a 3d
       0.09518151 -0.1754108 0.15204313 0.07537281
000160 3f 0c 1b 3e 38 90 94 3e fb 7b 60 be 50 10 86 bd
       0.1514139 0.2901628 -0.21922295 -0.0654608
000170 e5 4d 80 3c 67 a3 1e be d9 86 60 bd 04 72 3d 3e
       0.015662143 -0.1549202 -0.0548161 0.18500525
000180 8a 2e 03 bc a5 e8 ba be 44 05 00 3e 0a 31 2c be
       -0.008006701 -0.3650562 0.12502009 -0.16815582
000190 ee b9 78 3d cd 4b 1c be 27 c3 16 be 49 d7 92 3d
       0.06072419 -0.1526329 -0.14722882 0.07169969
0001a0 59 e7 f8 3d 90 4f 88 bd 4c 5f 6b 3c 41 a9 7c bd
       0.12153501 -0.066558 0.014365982 -0.06168485
0001b0 f0 87 9b bd ce 41 a4 bd 89 ae 3c be b5 d0 70 be
       -0.075942874 -0.08020364 -0.18425955 -0.23517115
0001c0 62 b5 a0 3d e4 6f f8 bd da cb 4d be 7e 81 fc 3d
       0.07847096 -0.121307164 -0.20097294 0.12329386
0001d0 fd ce 1f 3e 43 57 b2 be 87 74 a3 bc 34 ea 8c bc
       0.15606304 -0.348322 -0.019953026 -0.01720152
0001e0 b1 f1 22 bd c4 85 3f be 5a 08 d3 3d 6d f7 1d bd
       -0.039781276 -0.18703371 0.10304327 -0.03856604
0001f0 6f e7 a9 3d e5 78 50 be d3 85 75 bd 33 30 4d 3e
       0.082960956 -0.20358618 -0.059942078 0.20037918
000200 c0 3c 1d bd 91 a6 77 3d fa 37 37 bd 1f 2f 6f 3e
       -0.038388014 0.060461584 -0.044731118 0.23357819
000210 12 83 a4 3b 86 59 78 be fe 35 10 3c b6 96 75 3d
       0.0050205076 -0.242529 0.008801935 0.059958182
000220 11 e4 08 be 48 3b 30 3c e4 ab a7 bd a2 89 b8 bd
       -0.1336825 0.010756321 -0.081870824 -0.090106264
000230 05 b8 ce bd 56 4c 34 bd 5c 8f fe bd f0 62 89 bd
       -0.10093693 -0.044018112 -0.124296874 -0.06708324
000240 9b ef 65 be 0b 12 d0 bd b3 28 45 3d e5 88 8d 3e
       -0.22454683 -0.101596914 0.048134517 0.27643505
000250 c0 1b f3 bd dc 6e 91 bd 53 6f 84 bd 78 17 85 3b
       -0.11870527 -0.07101223 -0.06466546 0.0040616356
000260 e0 c6 36 3b 8d 4f f2 bd 79 d9 e0 3b bf 6a 32 bd
       0.0027889535 -0.11831579 0.0068618623 -0.043558832
000270 ba 57 8b bc 82 74 30 be 77 b5 92 3d 0c 01 8e be
       -0.017009605 -0.17231944 0.07163518 -0.27735174
000280 99 3c e9 bd 85 a1 02 be 4b b6 ac bd 9e d3 df bd
       -0.11388511 -0.12756927 -0.08433207 -0.10929035
000290 77 fd 12 be 00 18 4e 3c a7 10 3f bd f3 fa 90 3e
       -0.14354502 0.012578964 -0.04664674 0.2831646
0002a0 4b b9 43 be 73 f3 07 3e 41 51 36 3d c1 1a 6f be
       -0.19113652 0.13276462 0.044511084 -0.2335005
0002b0 4b 81 89 bd 7e 95 99 be 00 28 03 3f db c0 d1 3d
       -0.06714114 -0.29996866 0.5123291 0.102418624
0002c0 a1 97 b7 be 0d 3e 47 3e 1b 8a 59 bc 0d 95 42 be
       -0.3585787 0.19457264 -0.013277556 -0.19002171
0002d0 22 89 69 bd 90 a7 15 bd 0b 08 86 be 25 ad 75 be
       -0.057015546 -0.036536753 -0.2617801 -0.2399183
0002e0 ca 5a a3 be 73 23 7f 3e e2 72 bc bd 82 5b 8c be
       -0.31905204 0.24915867 -0.092016 -0.27413565
0002f0 70 74 ea bd 55 a9 c5 3d df 02 e3 3d f9 27 4b be
       -0.1144799 0.09651438 0.11084532 -0.19839467
000300 76 53 7a 3d 8b c6 b3 bd 72 06 b5 bd f4 e0 b8 3c
       0.06111475 -0.087781034 -0.0883912 0.022568204
000310 a0 5c 53 be fd 6e 19 3e 0a a6 24 be e8 ac cf bd
       -0.20640802 0.14983745 -0.16078964 -0.10140401
000320 95 0b 22 be a6 a5 b1 3d fe c5 86 3d 85 6a bb bd
       -0.1582473 0.08674173 0.06580733 -0.09151176
000330 0d 41 5d 3e 1a d3 0a 3d 0e 23 78 bd e9 89 c6 be
       0.21606846 0.03389273 -0.060580306 -0.38777092
000340 1c 01 6d 3e e9 5b 28 bd 17 d7 26 3e 52 04 ed 3c
       0.23144954 -0.041103277 0.16292988 0.028932724
000350 1b 8c 0c 3d ff d2 5c be c5 24 17 bd f0 a9 3e be
       0.034313302 -0.21564864 -0.0369003 -0.18619514
000360 3d 46 02 be 4e 69 a1 3e b7 f7 43 be 77 ee 57 be
       -0.12722106 0.31525654 -0.19137464 -0.21087061
000370 f2 db d0 3e c1 c5 2b be 6f 09 54 be fa 20 35 be
       0.40792805 -0.16774656 -0.20706724 -0.17688361
000380 9f c0 f4 bd 4f 6e ac be ed c4 2e bd d2 e2 12 bf
       -0.11950802 -0.3367791 -0.04266827 -0.5737735
000390 af 78 33 3e 3a 6e af bd bd e1 8a be be 63 95 be
       0.17526506 -0.08565946 -0.2712535 -0.2917766
0003a0 fe 43 2e 3e 5a 0a eb 3c 52 b4 0e be ef 1b 90 3d
       0.17018124 0.02869146 -0.13935974 0.07036578
0003b0 ea ef 52 bc 56 0c 85 be 3e ef 3b bd 9f 7d b2 bd
       -0.012874583 -0.25985974 -0.045882456 -0.087153666
0003c0 00 f7 a8 3e 5e b9 5c be 33 87 5e be bb 4e 59 be
       0.33000946 -0.21555087 -0.21731262 -0.2122144
0003d0 6d 2b 08 3d a9 75 ed bd 46 51 34 bc 6d 15 30 3c
       0.03324454 -0.115947075 -0.011005705 0.010747296
0003e0 d5 59 a6 3d e3 3b af bd 28 41 94 bc 92 61 72 3d
       0.08122603 -0.08556344 -0.018097475 0.05917508
0003f0 19 86 97 bd cd aa ad 3d 98 5c a5 3e f0 74 12 3e
       -0.07398624 0.08479843 0.32297206 0.1430242

StatefulPartitionedCall/sequential/dense/BiasAdd/ReadVariableOp:0 f4 [43]
000000 c2 46 b4 3e f2 dd 8a 3e 4d 29 05 bd b6 38 0f be
       0.35210234 0.27122456 -0.03251009 -0.13986477
000010 b5 d9 6d 3d 78 35 59 3e 67 85 97 3e e3 39 d9 3e
       0.05806895 0.21211803 0.29593965 0.42426977
000020 24 e6 db bc 02 ab 60 bd 05 c8 1e be cb f4 be 3d
       -0.026843138 -0.054850586 -0.15505989 0.09324034
000030 a8 d8 2e bd 3a d3 2d be c9 c3 29 3d ed 0b b3 bd
       -0.04268709 -0.16975108 0.04144648 -0.08742509
000040 7d 5f 61 3e ad b3 0d 3e d0 2d d8 3d 1f 5b b5 3e
       0.22009082 0.13838072 0.10555613 0.35421082
000050 ef 1a 90 bc 6e c9 89 bc 3f 39 9d 3c 89 f6 b5 bc
       -0.017590968 -0.016819682 0.019192336 -0.022212284
000060 83 a3 73 be bd 0d 1c 3d 17 37 be 3e d2 e5 e2 3d
       -0.23792844 0.03809904 0.37151405 0.11078991
000070 22 b6 c7 bd 5b 69 a9 3e 33 9f 05 be 81 24 54 be
       -0.09751536 0.33088192 -0.13049011 -0.2071705
000080 35 a3 a5 3c 21 9a 85 bc 84 64 ce 3e 59 79 94 3e
       0.020219425 -0.016308846 0.40311062 0.2899883
000090 4d 6b 8e bd 03 09 32 bc 0d bc 65 bc b7 c2 e2 3d
       -0.0695406 -0.010866406 -0.014021886 0.11072295
0000a0 95 c0 e5 be ed c0 c0 3e f0 fd f8 3d
       -0.4487349 0.3764719 0.1215781
