onnxnetworks/fashion1l8n.onnx (onnx, 27207 bytes, 4 tensors)

StatefulPartitionedCall/sequential/dense_1/MatMul/ReadVariableOp:0 f4 [8, 10]
0	0xbf0d6975	-0.5523904
1	0xbf1a309b	-0.60230416
2	0xbe5512e3	-0.20807986
3	0xbe85f019	-0.26159742
4	0x3e7875fa	0.24263754
5	0x3dd43e21	0.10363413
6	0x3dbd23ce	0.09235345
7	0xbf71bedc	-0.94431853
8	0x3f2c7eaf	0.67380804
9	0xbfaea1bc	-1.3643107
10	0xbf1dd679	-0.61655384
11	0x3e788808	0.24270642
12	0xbf2c906f	-0.6740789
13	0xbf6ca307	-0.9243626
14	0xbeb1ecf1	-0.34751084
15	0x3f34fa31	0.7069426
16	0x3e72e341	0.23719503
17	0xbf5fda57	-0.87442535
18	0xbf9520d8	-1.1650648
19	0x3eba77e7	0.36419603
20	0x3da759e7	0.081714444
21	0x3ea8fe05	0.33006302
22	0xbdb53a62	-0.08849026
23	0x3f144b90	0.579278
24	0xbe09d792	-0.1346114
25	0xbe8fd8bb	-0.2809504
26	0xbdfef77f	-0.1244955
27	0xbf84ca5e	-1.0374258
28	0xbf0c8664	-0.54892564
29	0xbf536d95	-0.82589084
30	0x3ed002fc	0.40627277
31	0xbec2b68e	-0.38029903
32	0x3ed622ff	0.41823575
33	0xbf0953e6	-0.53643644
34	0xbca83fea	-0.02053829
35	0xbe88f722	-0.26751047
36	0x3ea9a06b	0.33130202
37	0xbf0a14cb	-0.5393798
38	0x3ebd93d2	0.3702684
39	0x3ded89b3	0.1159853
40	0xbf0e29aa	-0.55532324
41	0x3f3ef49f	0.7459201
42	0xbf2b4254	-0.66898084
43	0xbf0d7ced	-0.55268747
44	0x3dcda9f5	0.10042182
45	0xbe6efc8a	-0.23338524
46	0xbf1840cc	-0.5947387
47	0x3f6784fc	0.90437293
48	0xbe4da02d	-0.20080633
49	0xbd3ce8ff	-0.04612064
50	0x3f2e954c	0.6819656
51	0xbe2cb423	-0.16865592
52	0xbe8bbb23	-0.2729121
53	0xbedaf70d	-0.4276661
54	0xbe858738	-0.26079726
55	0xbf6eeb56	-0.93327844
56	0x3f189834	0.59607244
57	0x3e96b925	0.2943813
58	0x3f05031c	0.5195787
59	0x3ea80589	0.32816723
60	0xbe086412	-0.13319424
61	0xbf7621dc	-0.96145415
62	0xbd9500da	-0.07275553
63	0xbc4bf5c3	-0.012448731
64	0xbea17751	-0.31536344
65	0x3f7ddcf9	0.991653
66	0xbf17b3e1	-0.5925885
67	0x3e9ec3c2	0.31008726
68	0x3ea69ed1	0.32543042
69	0x3f16426b	0.58695096
70	0xbe1d3d9d	-0.15355535
71	0xbf2aa5a6	-0.6665901
72	0x3f53c860	0.82727623
73	0xbe95f784	-0.29290402
74	0x3eb0f058	0.34558368
75	0xbfa9c5f5	-1.3263537
76	0xbd82df41	-0.063902386
77	0xbf0171c6	-0.5056423
78	0xbef45186	-0.47718447
79	0x3dee374d	0.116316415

StatefulPartitionedCall/sequential/dense_1/BiasAdd/ReadVariableOp:0 f4 [10]
0	0x3e7e15ec	0.2481305
1	0xbee06caa	-0.43832904
2	0x3df43a78	0.119252145
3	0x3e8a62b0	0.27028418
4	0xbf52b806	-0.8231205
5	0x3f89150f	1.0709552
6	0x3eed1fca	0.46313316
7	0x3eff301a	0.49841386
8	0xbf118fe5	-0.5686019
9	0xbf8a435e	-1.0801809

StatefulPartitionedCall/sequential/dense/MatMul/ReadVariableOp:0 f4 [784, 8]
0	0x3d27ee59	0.04099879
1	0xbda9d833	-0.0829319
2	0x3dd91c67	0.106011204
3	0x3cab6b54	0.020925201
4	0x3d797728	0.060904652
5	0x3cfcbf07	0.030852808
6	0xbc53d32a	-0.012928763
7	0xbdc5a219	-0.09650058
8	0xbdcaf880	-0.09910679
9	0x3dcfa98a	0.10139759
10	0x3e34ac3b	0.17643826
11	0x3cd11e24	0.025527067
12	0xbe469ab2	-0.19394949
13	0xbe41651b	-0.18886225
14	0x3db9dec6	0.09075694
15	0x3daf783e	0.08567856
16	0xbe5f4dae	-0.21806976
17	0x3e13b0e7	0.14422952
18	0x3e5f52e0	0.21808958
19	0xbca4d6e8	-0.020122007
20	0xbeba06d0	-0.36333323
21	0x3df4bb18	0.11949748
22	0xbe9bd1ea	-0.3043359
23	0x3e0c1559	0.13680018
24	0xbda57400	-0.08078766
25	0x3df92634	0.1216549
26	0x3cf61c61	0.030042829
27	0x3d869d96	0.06573026
28	0xbe3214fb	-0.17390816
29	0x3e767695	0.24068673
30	0xbdf82b43	-0.121176265
31	0xbe136b95	-0.14396508
32	0x3dc920ed	0.09820733
33	0x3d8a910f	0.06765949
34	0x3e2d1999	0.16904296
35	0x3d4ffb98	0.050777048
36	0x3e3c1925	0.18368967
37	0xbdeb3eba	-0.114865735
38	0xbedef5d9	-0.43546942
39	0xbe02620c	-0.12732714
40	0x3df32a7e	0.11873339
41	0x3d5cf4d7	0.053944435
42	0x3e7cb5d6	0.2467874
43	0x3d52e4f8	0.051487893
44	0x3eb3b1d2	0.35096604
45	0xbe9c2e43	-0.30504045
46	0xbe9069c1	-0.28205684
47	0xbf0009e5	-0.500151
48	0xbdf73a16	-0.12071626
49	0x3e24b8bb	0.16086094
50	0x3f26fd65	0.652304
51	0x3da03aee	0.0782374
52	0x3f2de309	0.67924553
53	0xbf3887f6	-0.7208246
54	0xbe88b9c0	-0.26704216
55	0xbf620d94	-0.8830197
56	0xbe8d433f	-0.27590367
57	0x3d4e99fd	0.050439823
58	0x3f34ba36	0.70596635
59	0xbdb155bc	-0.08658931
60	0x3f3d96ac	0.7405803
61	0xbf0a8fb2	-0.5412551
62	0xbe2e2e46	-0.1700984
63	0xbf2b88cd	-0.67005616
64	0xbed9730e	-0.42470592
65	0xbded0177	-0.11572545
66	0x3d7fdeb0	0.06246823
67	0xbd7f4578	-0.06232211
68	0x3e700a63	0.23441462
69	0xbcec4e5c	-0.028845958
70	0xbec41c92	-0.38303047
71	0xbdd9ea0f	-0.10640346
72	0xbe585f11	-0.21130015
73	0xbe47b50d	-0.19502659
74	0xbd51cd27	-0.05122104
75	0xbdacb29f	-0.08432507
76	0xbe462580	-0.19350243
77	0x3e155039	0.14581384
78	0xbf165eb3	-0.5873825
79	0xbddccd37	-0.10781329
80	0xbf0f6d55	-0.560262
81	0xbec79e2a	-0.38987857
82	0x3eb12056	0.34594983
83	0xbd7893da	-0.060687877
84	0xbdc278c8	-0.094956934
85	0xbda17aed	-0.07884774
86	0xbee48d77	-0.4463918
87	0x3d944705	0.072401084
88	0xbf3217bf	-0.69567484
89	0xbe70c429	-0.23512329
90	0x3f08ef03	0.534897
91	0xbcff0d50	-0.031134278
92	0x3e1cd4a6	0.15315494
93	0xbe9da415	-0.30789247
94	0x3e0b9f7c	0.13635057
95	0x3e1b1f5e	0.15148684
96	0x3e1e1953	0.15439348
97	0x3f015f84	0.5053637
98	0x3e90df84	0.2829553
99	0x3d8415ea	0.06449492
100	0x3e9f93e8	0.3116753
101	0x3c85140d	0.016244913
102	0xbd564b24	-0.052317753
103	0x3d1948b1	0.03742284
104	0x3ef41045	0.47668663
105	0x3e8bc120	0.2729578
106	0x3d1711d7	0.036882248
107	0x3d3ba6b4	0.045813277
108	0x3f058fea	0.5217272
109	0xbdb733dd	-0.08945439
110	0x3e2ae462	0.16688684
111	0x3e30f467	0.17280732
112	0x3f09c2fc	0.5381315
113	0xbce75f11	-0.028243573
114	0xbe960041	-0.2929707
115	0xbd629750	-0.055320084
116	0x3f3b176b	0.7308261
117	0x3db84c43	0.08998921
118	0x3e4495bb	0.19197743
119	0x3e46cdcd	0.19414444
120	0x3ebb5877	0.3659093
121	0x3e93d697	0.28874657
122	0x3d0ea0fa	0.034821488
123	0xbd63fa2b	-0.0556585
124	0x3ed71ae2	0.42012697
125	0x3dc1885d	0.09449837
126	0x3da9d4c1	0.08292533
127	0x3d98f232	0.0746807
128	0xbf0e5053	-0.55591315
129	0xbde3ef01	-0.11129571
130	0x3ec9a6bf	0.3938503
131	0xbd8b4ca0	-0.068017244
132	0x3e8fd46a	0.28091747
133	0xbe15e920	-0.14639711
134	0x3dd4c96a	0.10389979
135	0x3d7bb0c0	0.06144786
136	0xbf5f0337	-0.8711428
137	0xbf073eb7	-0.5283007
138	0x3eb4f8c7	0.35346052
139	0xbd33c141	-0.043885473
140	0xbd811a7a	-0.06303878
141	0xbdfde4f9	-0.12397189
142	0x3e6639c2	0.2248297
143	0x3d8e2c94	0.06942096
144	0xbf041404	-0.5159304
145	0xbcc1199f	-0.023571787
146	0xbbc5a37b	-0.0060314513
147	0xbc1eec78	-0.009699933
148	0xbdaf9470	-0.08573234
149	0x3e47254e	0.19447824
150	0xbeb35251	-0.3502374
151	0xbd8f03e0	-0.06983161
152	0xbf0124c7	-0.5044674
153	0xbd4aceab	-0.0495135
154	0xbdf4b84d	-0.11949215
155	0xbd9375d4	-0.07200208
156	0x3eafefc0	0.34362602
157	0x3e085c58	0.13316476
158	0xbea0be8b	-0.31395373
159	0xbe0ed58c	-0.13948649
160	0xbf3cf864	-0.73816514
161	0x3e218a17	0.15775333
162	0x3e0340c5	0.12817676
163	0x3d06ae42	0.03288103
164	0x3f251808	0.64489794
165	0xbe0d1ef6	-0.13781342
166	0xbe8c0efb	-0.2735518
167	0xbebb47ef	-0.36578318
168	0xbf134d0f	-0.5753946
169	0x3e80a8bc	0.25128734
170	0x3ee6b0e8	0.45056844
171	0xbd78db4a	-0.060756005
172	0x3f56b812	0.8387462
173	0xbef0f0aa	-0.47058612
174	0x3c541e45	0.01294667
175	0xbf161e9a	-0.58640444
176	0xbdad217e	-0.08453654
177	0x3e91e62e	0.28495926
178	0x3e0abd3a	0.13548747
179	0xbdb155bf	-0.08658933
180	0x3f1a800c	0.60351634
181	0xbe19b505	-0.1501046
182	0xbcc73b5f	-0.024320303
183	0xbeb26a03	-0.34846506
184	0x3e6e8549	0.23293032
185	0x3e1ab567	0.15108262
186	0xbe2d88cd	-0.16946717
187	0xbca09538	-0.019602403
188	0x3e5ef6fd	0.21773906
189	0x3d0df9d0	0.034662068
190	0xbdd4449a	-0.10364647
191	0xbe2cfa44	-0.16892344
192	0x3d199529	0.037495766
193	0x3dc83070	0.09774864
194	0xbd6f51bd	-0.05842756
195	0xbd9f0b91	-0.07765878
196	0xbdca74a6	-0.0988553
197	0x3dd2924e	0.10281812
198	0x3d08a1a6	0.033357285
199	0xbdb3b1c0	-0.087741375
200	0x3d9c928e	0.076451406
201	0x3d461fac	0.04837005
202	0x3c59313c	0.013256367
203	0x3da0db44	0.078543216
204	0xbd29c028	-0.04144302
205	0x3d86dcec	0.06585106
206	0x3d7e84c9	0.062138353
207	0x3ce77c06	0.028257381
208	0x3dd1e179	0.102480836
209	0x3e338757	0.17532097
210	0xbc55b042	-0.013042511
211	0xbd18ed43	-0.037335645
212	0xbd8bfa69	-0.06834871
213	0xbd2fcf94	-0.04292257
214	0x3e83c7d5	0.25738397
215	0xbcbff7ec	-0.023433648
216	0xbe1d430c	-0.15357608
217	0x3cd2a212	0.025712047
218	0x3e04fe84	0.12987715
219	0x3d790d7c	0.060803875
220	0xbdcceeb2	-0.10006465
221	0x3e8e6126	0.27808493
222	0xbe55032d	-0.20801993
223	0x3e4e6b72	0.20158175
224	0xbe235632	-0.1595085
225	0xbd778fa3	-0.060439717
226	0x3e6e9254	0.23298007
227	0xbd02d3cd	-0.03194027
228	0xbdc0a314	-0.09406105
229	0x3e59a3b5	0.21253856
230	0xbe11aa42	-0.14225104
231	0x3bf78401	0.007553578
232	0xbd8b9b15	-0.06816689
233	0xbd3d6541	-0.04623914
234	0x3dc19a52	0.094532624
235	0x3d83a03c	0.06427047
236	0xbdb1b108	-0.08676344
237	0xbdef5bc6	-0.11687426
238	0x3d2aa8b5	0.041664798
239	0xbd5a41f8	-0.05328557
240	0xbe9273e8	-0.28604054
241	0xbd9e9491	-0.077431805
242	0x3e5fea51	0.21866728
243	0x3d7e1810	0.062034667
244	0xbe7b9202	-0.24567416
245	0x3e6d31e4	0.23163563
246	0xbea84030	-0.3286147
247	0x3de12eb6	0.109952375
248	0xbe28ac69	-0.1647202
249	0x3de5e4cb	0.112252794
250	0x3e2e6080	0.17029
251	0xbdad5a40	-0.084644794
252	0xbd8f8696	-0.07008092
253	0x3cf879cf	0.03033152
254	0xbe831963	-0.25605306
255	0x3ce0a99f	0.027424632

StatefulPartitionedCall/sequential/dense/BiasAdd/ReadVariableOp:0 f4 [8]
0	0x3e16632a	0.14686266
1	0x3e4ec816	0.20193514
2	0x3ece6664	0.40312493
3	0xbc817716	-0.015803855
4	0xbeb4a916	-0.35285252
5	0xbe3110e3	-0.17291598
6	0x3f198733	0.5997192
7	0xbf0d4a66	-0.5519165
