onnxnetworks/fashion1l1n.onnx (onnx, 4942 bytes, 3 tensors)

StatefulPartitionedCall/sequential/dense_1/MatMul/ReadVariableOp:0 f4 [1, 10]
-0.113175 -0.26391387 -0.2938331 0.6614432 0.40397546 -0.3827215 -0.20767519 -0.08639018
0.5346714 -0.09141309
00000000: 4bc8 e7bd b81f 87be 4b71 96be 5754 293f
00000010: dfd5 ce3e 13f4 c3be cea8 54be 56ed b0bd
00000020: 3ae0 083f c936 bbbd

StatefulPartitionedCall/sequential/dense_1/BiasAdd/ReadVariableOp:0 f4 [10]
-0.02216622 -0.0050804014 0.00017909022 -0.011156985 -0.0012657448 -0.00861996 0.0044682245 0.015468424
0.0032110596 -0.016655723
00000000: ef95 b5bc 7f79 a6bb 2aca 3b39 c9cb 36bc
00000010: 59e7 a5ba bc3a 0dbc 2f6a 923b 466f 7d3c
00000020: a470 523b 9571 88bc

StatefulPartitionedCall/sequential/dense/MatMul/ReadVariableOp:0 f4 [784, 1]
0.075244874 0.034648344 -0.0053682476 -0.08151434 0.017946512 -0.014063209 -0.029436573 -0.0348997
-0.0034502735 0.003999814 -0.025281247 0.012452284 0.022831144 0.022484934 0.07379525 0.017315501
0.02086258 -0.081489034 -0.07817233 -0.015227787 -0.06705003 -0.036240697 0.08494739 -0.08738831
-0.0031345189 0.021040052 -0.06984069 -0.037243128 -0.08517393 -0.054277066 0.051070735 -0.0065740496
-0.042636614 0.059591204 0.063639626 -0.05268169 0.040339757 0.072069846 0.047072247 -0.06116568
0.074649885 -0.046952263 0.06427171 -0.05042865 -0.079090856 0.06402954 -0.038931403 0.04461472
-0.011724763 0.002661422 0.01646676 0.026802404 -0.056102067 -0.057550907 -0.055183165 0.07332137
0.059124067 0.084545165 0.08684459 -0.0621181 0.03361108 -0.046300612 -0.051894244 0.07446748
0.0638763 -0.0034558312 -0.050289292 0.005731695 0.06590775 -0.08396015 -0.0071435417 -0.06261848
-0.08085413 0.02642596 0.032077495 0.033735752 -0.06798865 -0.053702787 0.010307309 0.062125575
0.001971058 -0.01155699 -0.0955213 0.0005701259 0.030514166 -0.070653334 -0.07195608 0.06489873
0.0199349 -0.0062970966 0.027799942 -0.00452663 -0.04166101 0.03634206 -0.042447094 0.037127197
-0.064869635 0.027810698 -0.019832803 -0.034698106 -0.081342086 0.04830583 -0.05367477 0.023476353
-0.084503256 -0.10355011 0.035718586 0.026269872 0.034639955 0.06054919 0.05923998 -0.03660947
-0.06422463 -0.035002023 0.064400405 -0.074577466 -0.07203594 -0.016900145 0.042473912 0.032047242
0.053791158 0.037806775 0.0020214082 -0.0027573265 2.6327609e-05 0.055924896 0.043584384 0.024792701
0.008913298 0.013408186 -0.051101528 0.0027316357 -0.058133695 -0.026987944 0.052617088 -0.04193572
-0.03901159 -0.017479911 0.026284503 0.042391866 -0.07032265 -0.039838456 0.039799586 -0.015285462
0.012836397 -0.066111304 -0.085366376 -0.049938243 -0.089867026 0.050704792 -0.07470415 0.057826456
-0.054461956 -0.00029511531 -0.019698175 -0.02839082 0.021740923 -0.092335135 0.012477894 -0.023576725
-0.03352487 0.07319533 -0.015865732 0.018615898 0.048790082 0.05948383 0.005287353 0.038695663
0.053107545 -0.014078073 0.0849925 -0.04115984 0.05982849 -0.0077075064 -0.0011987612 -0.0813819
0.015568417 0.053929996 -0.07866752 0.049057268 -0.026703013 0.056020945 -0.0075073414 0.03035094
-0.017603664 0.009489116 -0.012360122 -0.0110824425 -0.030115109 -0.044731103 0.032075986 -0.045536734
0.02985462 -0.05764359 0.050133124 -0.07482453 0.05534774 -0.036885735 0.076808855 -0.08201329
-0.07633789 -0.048489608 0.02810879 0.062618166 -0.025158517 0.026745386 -0.08508102 -0.07731612
-0.057336476 -0.08175835 0.0138126295 -0.086905465 0.046655558 -0.002705274 0.07560533 -0.041020054
0.02626945 -0.027591454 -0.086817764 -0.064650826 -0.03945642 0.04070306 -0.06899549 -0.06610699
-0.037914284 -0.06451522 -0.024598517 -0.015310913 -0.020616606 -0.014520027 0.029492974 -0.030242693
0.07453958 -0.006026855 0.04086179 0.03649483 -0.060821835 0.036237784 -0.045167375 -0.027676951
0.0760293 0.028477173 -0.012802277 -0.014295767 -0.075290814 -0.07964964 0.03021195 0.048435148
0.060255587 -0.006174194 -0.08654094 -0.046810847 0.0618816 0.069687545 0.08453624 0.056993604
00000000: fc19 9a3d 6ceb 0d3d 20e8 afbb fef0 a6bd
00000010: 9004 933c 6069 66bc f824 f1bc fdf2 0ebd
00000020: fc1d 62bb df10 833b 9e1a cfbc aa04 4c3c
00000030: 6108 bb3c 5332 b83c f721 973d 3dd9 8d3c
00000040: 00e8 aa3c b9e3 a6bd d118 a0bd f87d 79bc
00000050: 8751 89bd 2071 14bd e6f8 ad3d a4f8 b2bd
00000060: 806c 4dbb 305c ac3c a308 8fbd 408c 18bd
00000070: ab6f aebd a151 5ebd 8c2f 513d 206b d7bb
00000080: bba3 2ebd e815 743d 7e55 823d c1c8 57bd
00000090: 4d3b 253d 5b99 933d d4ce 403d dd88 7abd
000000a0: 0ae2 983d 0451 40bd e3a0 833d 468e 4ebd
000000b0: 63fa a1bd eb21 833d 8976 1fbd edbd 363d
000000c0: 3819 40bc 406b 2e3b 4ce5 863c b790 db3c
000000d0: 48cb 65bd 80ba 6bbd be07 62bd 8429 963d
000000e0: 142c 723d 0426 ad3d 94db b13d 8c6f 7ebd
000000f0: c6ab 093d b6a5 3dbd 0f8f 54bd 6882 983d
00000100: 94d1 823d 3a7b 62bb 25fc 4dbd f1d0 bb3b
00000110: a4fa 863d 4df3 abbd 5f14 eabb 1e3e 80bd
00000120: da96 a5bd 417b d83c b163 033d 802e 0a3d
00000130: a23d 8bbd 74f7 5bbd fddf 283c 6377 7e3d
00000140: de2c 013b 8859 3dbc aca0 c3bd 8074 153a
00000150: d8f8 f93c b2b2 90bd b65d 93bd a0e9 843d
00000160: 844e a33c e057 cebb b4bc e33c 2054 94bb
00000170: bca4 2abd 69db 143d 01dd 2dbd b012 183d
00000180: 5fda 84bd 43d3 e33c 6778 a2bc 9a1f 0ebd
00000190: ae96 a6bd 56dc 453d 13da 5bbd 7b51 c03c
000001a0: 0b10 adbd 1412 d4bd a74d 123d ea33 d73c
000001b0: a0e2 0d3d 6d02 783d 9fa5 723d d0f3 15bd
000001c0: 3488 83bd 485e 0fbd 5ce4 833d 12bc 98bd
000001d0: 9487 93bd 2c72 8abc 20f9 2d3d f843 033d
000001e0: 1e54 5c3d 47db 1a3d 9a79 043b 43b4 34bb
000001f0: 1cda dc37 8111 653d 8a85 323d 101a cb3c
00000200: 1509 123c 02ae 5b3c d64f 51bd 3e05 333b
00000210: 991d 6ebd d215 ddbc 0485 573d cac4 2bbd
00000220: 9eca 1fbd 0832 8fbc 9952 d73c 18a3 2d3d
00000230: 5205 90bd a62d 23bd e404 233d e06f 7abc
00000240: c04f 523c 5d65 87bd 91d4 aebd 0b8c 4cbd
00000250: 340c b8bd d4af 4f3d 7dfe 98bd 6fdb 6c3d
00000260: 8013 5fbd b5b9 9ab9 115e a1bc dd93 e8bc
00000270: 051a b23c 341a bdbd 1570 4c3c fa23 c1bc
00000280: 6051 09bd 6fe7 953d daf8 81bc 5e80 983c
00000290: 1cd8 473d 51a5 733d 8841 ad3b 587f 1e3d
000002a0: 4c87 593d b8a7 66bc 8c10 ae3d 3897 28bd
000002b0: b80e 753d 408f fcbb c01f 9dba 8eab a6bd
000002c0: ac12 7f3c b3e5 5c3d 701c a1bd 46f0 483d
000002d0: 47c0 dabc 3876 653d 2500 f6bb 89a2 f83c
000002e0: 8f35 90bc 3d78 1b3c 1c82 4abc 2293 35bc
000002f0: f6b3 f6bc f637 37bd 1c62 033d ba84 3abd
00000300: ad91 f43c af1b 6cbd 6458 4d3d 9a3d 99bd
00000310: 50b4 623d 7f15 17bd f64d 9d3d 95f6 a7bd
00000320: 0a57 9cbd 0a9d 46bd 6844 e63c f43d 803d
00000330: 3c19 cebc 2419 db3c f53e aebd ea57 9ebd
00000340: a7d9 6abd ec70 a7bd 5e4e 623c 7efb b1bd
00000350: e619 3f3d f74a 31bb f8d6 9a3d a504 28bd
00000360: 0833 d73c 7907 e2bc 83cd b1bd a767 84bd
00000370: 0e9d 21bd 40b8 263d 824d 8dbd 1a63 87bd
00000380: 024c 1bbd 8e20 84bd d482 c9bc a0da 7abc
00000390: 28e4 a8bc 68e5 6dbc 409b f13c 86bf f7bc
000003a0: 35a8 983d ed7c c5bb b15e 273d 9a7b 153d
000003b0: 5120 79bd 126e 143d 6d01 39bd c6ba e2bc
000003c0: 40b5 9b3d f648 e93c a4c0 51bc cb38 6abc
000003d0: 1232 9abd 5a1f a3bd 0d7f f73c ef63 463d
000003e0: 90ce 763d e550 cabb 603c b1bd bbbc 3fbd
000003f0: 9077 7d3d 58b8 8e3d 5621 ad3d 2072 693d
