onnxnetworks/pgdTrainedD.onnx (onnx, 103529 bytes, 4 tensors)

StatefulPartitionedCall/sequential/dense_1/MatMul/ReadVariableOp:0 f4 [32, 10]
000000 de 39 c4 be b7 31 e1 be c9 cc 8f bf 2a 14 b7 bf
       -0.383254 -0.43983242 -1.123437 -1.4303029
000010 06 87 a0 bf 7b 53 08 3f 2d 54 14 3d 52 89 75 ba
       -1.2541206 0.5325238 0.03621309 -0.00093664706
000020 d3 b2 d6 bf c5 27 2a 3e 23 ed 10 bf 54 47 8c bf
       -1.6773323 0.16616733 -0.5661184 -1.0959268
000030 7f f3 14 3e 17 f3 e1 bf b9 62 9a be 7b 6b ab 3e
       0.14546011 -1.765231 -0.30153444 0.3348044
000040 13 33 a8 be 5f 80 8f bc 16 ca 57 3e 2f 08 56 3e
       -0.32851467 -0.017517267 0.21073183 0.2090156
000050 2d 1e 8a bf ad 05 59 3d c0 4c b1 bf 57 66 55 bf
       -1.0790459 0.05298393 -1.3851547 -0.83359283
000060 d9 f5 65 bf 08 9f e4 3d d9 4a e4 bf 45 10 cd 3e
       -0.8982826 0.11163145 -1.7835342 0.40051475
000070 85 58 01 3f 2b 8d cf 3d 66 a6 a8 3e 09 e9 35 3e
       0.50525695 0.101343475 0.32939452 0.17764677
000080 ed e6 bf 3e 65 5e 18 3e cb 0a 9f 3e 8d bb c7 be
       0.3748087 0.14879759 0.31062922 -0.39010277
000090 c3 9e b4 3e 2d db 58 bf 3d f8 da 3e 3c 5f 99 bf
       0.35277376 -0.84709436 0.42767516 -1.1982188
0000a0 7f dc 93 be 7b 92 59 3f d0 34 df bd 3d c2 cf be
       -0.28879163 0.84989136 -0.10898745 -0.4057788
0000b0 57 63 8e 3e 7d 6d d8 bc 9c 36 93 3e a7 bd 98 bd
       0.27810165 -0.026419396 0.287526 -0.07458048
0000c0 a2 6c 9c 3e 46 60 d9 3e b7 b7 31 3d 29 ca 32 bf
       0.3055163 0.42456263 0.043388095 -0.6983972
0000d0 3f da 8d 3e cd 4e 9a bf 3e ce cf be 6c a3 5b 3e
       0.2770557 -1.2055298 -0.40587038 0.21449059
0000e0 61 d4 14 bf 8c f6 ca 3e 5f fb 27 bf c8 61 48 3d
       -0.58136564 0.39641225 -0.65617937 0.048921376
0000f0 fe cc 07 3e 9d b8 3e be 61 5f 07 3e d8 7d 8f 3e
       0.13261792 -0.18625112 0.13219978 0.280257
000100 5e 4a eb bd 06 3f 2d bf d4 81 52 be 99 f3 53 be
       -0.11488794 -0.6767429 -0.20557338 -0.20698394
000110 dd 39 a0 3e 1c 60 a1 3e a2 71 20 be cf 17 c8 3e
       0.31294146 0.31518638 -0.15668347 0.39080665
000120 85 2c d0 3d 76 3b 09 3f 48 c0 00 3f 74 cf bf bf
       0.101647414 0.53606355 0.502934 -1.4985185
000130 30 39 71 bd 9e 5c ed 3e 35 41 18 bf fa 86 ac be
       -0.05889243 0.46359724 -0.594745 -0.3369673
000140 22 f8 1c 3e e5 5f 28 bf 72 c5 81 bd a7 3a 4a be
       0.1532903 -0.65771323 -0.06336488 -0.19748937
000150 c9 b5 b3 be 56 f2 38 be ad 43 d0 3e 85 8d 51 bf
       -0.3509963 -0.18061194 0.40676633 -0.81856567
000160 63 b3 2c bf b0 d3 8e 3e 0c cc 69 3f bc 8d e4 3e
       -0.6746122 0.2789588 0.91326976 0.44639385
000170 90 1f 3a bf 91 ff 05 bf 65 5b 4e be de d9 89 bf
       -0.7270441 -0.5234309 -0.20152052 -1.0769613
000180 0d 82 6e be 5b 1a 0f c0 b8 3a 05 3f 73 39 1c bf
       -0.23291798 -2.2359836 0.5204272 -0.6102516
000190 e6 a6 3e be cf 93 52 3e 51 00 e1 bc c1 29 81 3e
       -0.18618354 0.20564197 -0.027465971 0.25227168
0001a0 56 c0 01 3e fd 10 fe bc 44 54 a5 be 6c a5 01 3d
       0.12671027 -0.03101396 -0.32290852 0.0316519
0001b0 ae 56 b2 bd bb db 43 3e c4 b0 37 bf 6b b5 73 bf
       -0.08707939 0.1912679 -0.717541 -0.95198697
0001c0 ae 0c 94 bf 10 96 0e be fd 1c f1 be 01 e8 b9 3f
       -1.156637 -0.13924432 -0.4709243 1.4523927
0001d0 c9 f2 12 3d 50 17 ab bf 5d ab ab be 5c aa 44 3c
       0.03587607 -1.336649 -0.33529177 0.012003507
0001e0 5b b6 28 be 99 72 ae 3d cf ea 1a bf 0c c7 1c 3f
       -0.16475813 0.085179515 -0.6051454 0.6124122
0001f0 99 45 21 bf ef 66 57 3f 28 c4 da be 9b e0 c9 bf
       -0.6299682 0.8414144 -0.4272778 -1.5771669
000200 47 05 22 bd 58 40 f0 bd 46 cd 1d bf f4 ac ac bf
       -0.039555814 -0.117310226 -0.6164135 -1.3490281
000210 c7 6e 93 be 99 5d 54 3f 24 6f 8b bd c8 68 4a 3b
       -0.28795454 0.8295532 -0.06808308 0.0030885208
000220 76 48 c0 3e 67 ef 55 3e 6e 9f 68 3e 5b 41 ee 3e
       0.37555283 0.20892106 0.22717068 0.46534237
000230 ae c1 3d bd 38 81 c7 be ac 6e d6 be 32 ce c6 be
       -0.046327285 -0.38965774 -0.4188131 -0.3882919
000240 35 72 08 3f 22 b2 0d 3f 9d 87 4f 3f ce a3 8f bf
       0.53299266 0.55349934 0.81066304 -1.1221864
000250 f9 78 a6 3d ed b7 9a bf 48 44 26 bf 39 03 c1 be
       0.081285425 -1.208738 -0.6494794 -0.3769777
000260 e4 6b 0d bf 7f 5f 44 3f 10 89 1a 3f 53 99 fb 3e
       -0.55242753 0.76708215 0.6036539 0.49140415
000270 0c 71 32 bf bf 62 87 bf 15 dd 12 3f 08 23 66 be
       -0.69703746 -1.057701 0.57368594 -0.22474301
000280 07 5c 0e 3d 85 ef 96 3e 6a 37 96 be 04 cd f8 3e
       0.034755733 0.29479614 -0.29339153 0.48593915
000290 46 c9 9f bc 94 c9 40 3f de a7 0e 3e 73 63 bd bf
       -0.019505154 0.75307584 0.13931224 -1.4795974
0002a0 0f 2f 62 bf 08 7b 62 3e 39 5e 87 3e 9b 76 ab be
       -0.88353056 0.22117245 0.26439074 -0.33488926
0002b0 a7 d7 9f be ca 34 9d 3e e0 b5 ca be 67 17 5d bf
       -0.31219217 0.30704337 -0.39591885 -0.86363834
0002c0 8d 8a 21 3f 71 3a 7f be 32 d9 26 bf 7b 91 61 bf
       0.63102037 -0.24924637 -0.65175164 -0.8811261
0002d0 7e 1c 1a 3e 10 4d 8d bf 97 dc 5e bd 24 d1 5f 3e
       0.15049931 -1.1039143 -0.05440959 0.21857125
0002e0 e6 7e 4e 3e 73 53 2c 3e 8f ff 65 3e 60 af 2b bf
       0.20165595 0.16828708 0.22460769 -0.67064476
0002f0 15 6a 1f 3f 3c d8 93 bf e6 4e 34 3f 30 2c bb 3e
       0.62271243 -1.1550364 0.7043289 0.3655715
000300 93 00 7e 3f 47 52 9d be 54 89 80 bf 8f 90 64 bf
       0.99219626 -0.30726835 -1.0041909 -0.8928308
000310 cc 18 0e bf 30 4a 42 3f 95 f6 86 be 01 e5 34 bf
       -0.5550659 0.7589445 -0.26360002 -0.7066193
000320 69 2b 63 3e 67 ff 00 3f 45 28 e5 3e 66 c1 c2 3d
       0.22184528 0.50389713 0.44757286 0.09509544
000330 af f1 a1 3e b8 5d 37 be c9 e6 91 be f8 8a 12 3e
       0.31629702 -0.17906845 -0.28496388 0.14310825
000340 8a 61 0a bf 2b 31 14 bf 03 60 74 bf 68 33 8b 3f
       -0.5405508 -0.57887524 -0.95459 1.0875063
000350 88 6a 36 3e 91 68 1e 3e d4 6a 2b 3f ba 31 08 3e
       0.17814076 0.15469576 0.6695988 0.13300219
000360 3e 60 5b bf 12 cf 11 c0 85 e3 03 bc 2e e1 55 bf
       -0.8569373 -2.2782636 -0.00804985 -0.8354672
000370 66 b4 24 be 9a ec 1c 3e ff 07 e7 be 02 e5 c5 be
       -0.16084442 0.15324631 -0.45123288 -0.38651282
000380 02 b4 9f bf 4f 50 0c bf df fe 22 3e 5d 51 01 3f
       -1.2476809 -0.5481004 0.15917538 0.50514776
000390 23 77 38 bf fe d2 10 3f a1 89 d7 3e a3 b1 1b bf
       -0.7205679 0.5657195 0.4209719 -0.6081793
0003a0 4b b1 f5 be f6 9f db be e2 d7 a3 be 8e d1 61 3e
       -0.47986826 -0.42895478 -0.32000643 0.22052595
0003b0 d3 6d 96 3e 94 11 ad 3e c4 11 06 3f 23 86 4c bf
       0.29380664 0.33802474 0.5237086 -0.79892176
0003c0 36 6e 99 3e f5 0f ff be ee 1f 03 bf dd cf 09 bf
       0.29966897 -0.49816862 -0.51220596 -0.538328
0003d0 1d 98 44 be e7 fa f2 3c 70 b0 e5 be 50 71 a6 3b
       -0.19198652 0.029660655 -0.44861174 0.005079426
0003e0 15 a5 9b 3e 22 f3 65 3e f0 19 af 3e 6b 49 8a 3f
       0.30399385 0.22456029 0.34199476 1.0803655
0003f0 a4 cc b3 3e 54 f5 09 bf f5 ce 1b be e1 0a ce 3e
       0.35117066 -0.53889966 -0.15215667 0.40242675

StatefulPartitionedCall/sequential/dense_1/BiasAdd/ReadVariableOp:0 f4 [10]
000000 19 38 c1 bc bf 74 01 bf b5 33 93 3e 91 40 b8 3e
       -0.02358632 -0.50568765 0.28750387 0.3598676
000010 cb f8 d6 be fd 69 d1 3e 2e 51 8e 3e 07 2e 81 3d
       -0.4198669 0.40901175 0.2779631 0.06307607
000020 1c 25 2a bf 10 de 09 bf
       -0.66462874 -0.53854465

StatefulPartitionedCall/sequential/dense/MatMul/ReadVariableOp:0 f4 [784, 32]
000000 76 f1 28 c1 aa 1e f2 40 48 f5 2f 41 84 9a f9 40
       -10.55895 7.566243 10.997383 7.800112
000010 58 58 bc c0 83 e5 3d 41 ec e9 1c 41 89 ff 92 3e
       -5.885784 11.868533 9.80711 0.28710583
000020 b8 2f 80 c1 6a 0e 64 41 6c 15 52 bc 17 96 e9 c0
       -16.0233 14.253519 -0.01282249 -7.2995715
000030 2b 88 81 c1 94 55 a3 c1 d1 c6 01 c1 87 66 b0 c0
       -16.191488 -20.416786 -8.111039 -5.5125155
000040 9c 59 7e c1 31 4f 6b c1 29 a9 51 c1 19 18 8f 41
       -15.896877 -14.706834 -13.103799 17.886766
000050 52 b1 8d 41 40 a6 bb 40 ef 8d 62 40 c7 24 05 bf
       17.711582 5.864044 3.539913 -0.5200924
000060 4f eb 00 41 68 5c 84 41 1f 9c 9a 3c 56 30 41 c1
       8.057448 16.54512 0.018873272 -12.074301
000070 01 c3 69 c1 47 3e ae 41 43 95 5a 41 f2 73 07 c1
       -14.610108 21.780409 13.661441 -8.465807
000080 f7 df 6a c0 29 cd 13 c0 ca 2a f6 bf 91 7b 36 c0
       -3.6699197 -2.309397 -1.9231808 -2.851292
000090 5a 00 a0 41 9f 3f 32 c1 b0 cd 02 c1 16 19 e2 3f
       20.000172 -11.1405325 -8.175217 1.7663906
0000a0 1b ec 5d 40 b2 ae ca c0 93 7d d1 bb 52 9a f2 3f
       3.4675357 -6.333825 -0.0063931434 1.8953345
0000b0 ac 36 74 c1 8a 05 ef 40 71 5d 45 41 36 8b 1a 41
       -15.263348 7.469426 12.335313 9.658987
0000c0 57 68 1a 40 07 ec 9c bc 50 4a 1c 41 ff ce 95 c1
       2.4126184 -0.019155515 9.768143 -18.726072
0000d0 d9 e9 4e c1 2a d7 ae 40 7b ab 90 40 35 af 86 40
       -12.932092 5.463765 4.5209327 4.2088876
0000e0 5e ea a0 40 74 f7 79 c1 44 08 93 3d 9c 84 18 c1
       5.0286093 -15.622913 0.07179311 -9.532375
0000f0 91 c1 14 40 2e 38 fa c0 b1 68 fc c0 91 90 a9 41
       2.3243144 -7.819358 -7.8877797 21.19559
000100 d1 a1 47 bf c6 68 ec bd 39 56 9a bf 7a 14 11 c1
       -0.7798129 -0.115434214 -1.2057563 -9.067499
000110 70 7d 95 3f 5f d5 48 c0 de 81 a8 40 ad e1 ec 40
       1.1678905 -3.1380231 5.265853 7.4025483
000120 5e 3b 8c c0 8c 51 62 c0 f5 d1 ab bd 4f eb 3d 3f
       -4.382247 -3.5362272 -0.083896555 0.7418718
000130 94 a4 76 40 22 b5 de 3f 3a 33 51 3f 74 18 a9 40
       3.853795 1.7399027 0.8171879 5.284235
000140 0e 6c b1 3f ab f0 1b c0 e8 96 7b 3f 83 6e 2d c1
       1.3861101 -2.4365642 0.9827714 -10.83948
000150 3d 8d 8a 3f b6 ce 14 41 28 77 cd 40 70 e9 8a c0
       1.0824353 9.300467 6.4207954 -4.340996
000160 00 97 0f 40 ac 89 81 c1 a1 b5 38 bd 2c c3 91 3f
       2.2435913 -16.192223 -0.04509509 1.1387687
000170 20 95 2d c1 08 16 5e 40 da 04 6f c0 b1 98 c0 3f
       -10.848907 3.4700947 -3.734671 1.5046598
000180 fc 9e 4a 3f 68 75 33 bc 90 ab fa bf 82 ed 56 c0
       0.7914884 -0.010953285 -1.9583607 -3.3582463
000190 37 7f 4e 3e e1 fe 42 bf ab f1 eb 3f 2e bc 25 40
       0.20165716 -0.76170164 1.8433126 2.5896106
0001a0 ef cb 15 c0 b1 20 5f bf 4b 33 9b bd dc bc 40 40
       -2.340572 -0.8715926 -0.07578143 3.011527
0001b0 82 a2 03 40 07 c1 b9 3e 42 ed 1a bf f4 ba a3 40
       2.0567937 0.3628008 -0.60518277 5.1165714
0001c0 cd f9 06 40 db dd e6 bd 33 f7 a4 3e 7d 06 87 c0
       2.1089966 -0.11272784 0.32219848 -4.219542
0001d0 c6 0b 47 3e 51 e7 13 40 20 3c 88 40 bb 56 13 bf
       0.19438085 2.3109934 4.2573395 -0.57554215
0001e0 a9 0e 1e 3f c4 e8 b8 c0 18 8d 58 3c 95 61 d8 3f
       0.6174112 -5.778414 0.013217233 1.690478
0001f0 08 b7 e6 c0 8f 58 c3 3f 09 76 11 c0 b3 8d 00 c0
       -7.2098427 1.5261401 -2.2728293 -2.0086486
000200 f1 45 58 3f 9a 6e db 3e 9e d5 15 3e 40 54 2f 3f
       0.8448172 0.4285782 0.1463227 0.6848793
000210 5e 6b 67 bf 9b e9 19 be 8a 3a 01 3f d2 ea 7b bf
       -0.90398204 -0.1503052 0.5047995 -0.9840518
000220 77 36 95 3e af f1 58 3f 14 e5 e9 bc 36 4e d7 bf
       0.29143116 0.8474378 -0.028551616 -1.6820743
000230 7b 25 b1 3e b3 94 67 bd 95 9e 75 c0 56 f4 9f bf
       0.34598908 -0.056538295 -3.837804 -1.249644
000240 fb ae 4a 3f 47 8d 21 bd 70 90 b0 be 7f ec 40 3f
       0.7917325 -0.039441373 -0.34485197 0.75360864
000250 00 76 28 3d 50 df 5c bf 8b 97 ee bf c7 43 d6 3e
       0.04112816 -0.8627825 -1.8639997 0.41848585
000260 33 fe e1 be 5e e2 3d 3e 3c 5b 76 bb 55 5c 18 bf
       -0.4413925 0.18543383 -0.0037591 -0.5951589
000270 4f 86 7c bf 15 60 49 bb 1f c3 02 be 79 51 0c c0
       -0.9864244 -0.0030727435 -0.12769745 -2.1924727
000280 25 58 28 3f 20 c2 96 bd 2a cf 12 3f fa ff ea 3e
       0.657595 -0.07361245 0.5734736 0.4589842
000290 61 98 fb 3e b4 46 90 be ce 0b ab bf 2d 9f e3 3e
       0.49139693 -0.28178942 -1.3362978 0.4445738
0002a0 b1 4f 92 bd 03 de 92 bd 9b a3 4a 3d 7b 1f 24 c0
       -0.07144106 -0.071712516 0.049472433 -2.5644214
0002b0 6b 4d 1b bf f9 27 4a 3e 5e 33 a1 bf 68 43 95 c0
       -0.60665005 0.19741811 -1.2593801 -4.6644783
0002c0 7b f8 25 bd b1 01 dd be 8b b5 85 bd 5b 1b d8 be
       -0.040520173 -0.43165353 -0.06528767 -0.4220837
0002d0 5e 2d 21 3e 4b 10 c8 be 19 dd 5b bf 56 41 7d 3e
       0.15739962 -0.3907493 -0.85884243 0.24731955
0002e0 3a 0e d8 be 46 95 0e 3d 26 b8 d1 bc fc 9b 80 c0
       -0.42198354 0.034810327 -0.025600504 -4.019041
0002f0 0f 47 42 bf 9e af d2 3d b9 ab 24 40 ab 22 11 bf
       -0.75889677 0.102874026 2.572981 -0.56693524
000300 12 35 2b 3e aa d6 58 3e 4f 32 a4 bd b6 b2 0c be
       0.16719463 0.21175638 -0.08017408 -0.13740048
000310 37 d3 89 be 4e f9 58 bc df cd a2 be 33 f5 07 3e
       -0.26918957 -0.013243033 -0.31797692 0.1327713
000320 31 4e cf be 77 26 73 bf 42 ae 74 3d d6 58 83 3f
       -0.40489343 -0.9498057 0.059736498 1.0261486
000330 83 2a 87 3f d8 bb 24 3e 21 1e 85 bf ca 67 8c c0
       1.0559849 0.16087282 -1.039982 -4.3876696
000340 f3 b5 e2 3e f2 ef 71 be 09 97 43 be 76 32 48 3e
       0.4427944 -0.23626688 -0.19100584 0.195505
000350 cc b0 53 3d d9 a0 3b be 37 dd e9 bf ad 89 5c be
       0.05168228 -0.18323077 -1.8270634 -0.21536894
000360 9d d2 49 3e fd 4e b3 3e 44 03 0d 3d 7f 9c 07 c0
       0.19709249 0.350212 0.034426942 -2.1189268
000370 7c b6 25 bf 39 6f cb 3d ff 70 4c 3f 3c 44 b0 bf
       -0.64731574 0.099333234 0.7985992 -1.3770823
000380 e1 fa fe be 99 d5 a8 bd cc 5c d1 bf d2 7a c1 bd
       -0.4980078 -0.082438655 -1.6356444 -0.09447254
000390 22 d0 22 3f b7 a0 39 bd 14 47 02 bd 1f e7 a6 3e
       0.63598835 -0.045319285 -0.031806067 0.32598206
0003a0 c4 ae 34 bd db 87 d1 bd 30 04 76 3d 74 50 e7 3e
       -0.044111982 -0.102309905 0.060062587 0.45178568
0003b0 86 28 03 3f 27 e7 8b bd 46 29 58 3f 8f 69 29 be
       0.5123371 -0.06831198 0.8443798 -0.16544174
0003c0 4b ba 41 3f f6 51 af 3e 5a da b4 3d 87 e3 57 be
       0.75674886 0.3424222 0.0883071 -0.21082889
0003d0 76 9c 86 bd bb df c9 3d 79 53 84 bf 7c f9 ea 3d
       -0.06572811 0.09857126 -1.0337974 0.114733666
0003e0 c4 8c 28 3f cc 33 2f 3e 5b 04 b1 bd c4 2c 51 c0
       0.6583979 0.17109603 -0.08643409 -3.2683573
0003f0 cb 4f 39 bf c6 b0 76 be fb a8 ac bf 2f 09 c6 bd
       -0.7238738 -0.24090871 -1.3489069 -0.096697204

StatefulPartitionedCall/sequential/dense/BiasAdd/ReadVariableOp:0 f4 [32]
000000 5f b2 8b 3f 1d 99 6a 3f a6 bf 92 3f 21 70 e0 3e
       1.091381 0.9163988 1.1464736 0.43835548
000010 a6 ff c6 be 52 b8 7e 3e 69 11 ae be b6 33 fd 3e
       -0.3886692 0.24875 -0.33997658 0.49453515
000020 cc 14 22 3f 3d 13 be 3e 85 f4 7a bc c0 be 27 3e
       0.63312984 0.37124053 -0.015317087 0.16381359
000030 24 9a 38 3f a3 81 1b 3f 2a df 70 3e 3a 7c a1 be
       0.721102 0.60744685 0.2352263 -0.3154009
000040 d0 3b 89 3e 20 29 54 3f 45 38 55 3e 17 ba 2d 3f
       0.26803446 0.8287525 0.20822246 0.67862076
000050 be a7 1f 3d 1c e5 f1 3e 5f dc de 3c 6d 92 71 3f
       0.03897833 0.4724511 0.02720469 0.94364053
000060 bc 8c c9 be 23 41 b2 3e 8c 69 64 bc d5 d4 22 3f
       -0.39365184 0.3481532 -0.01394118 0.63606006
000070 bb eb 06 3f 8b ed 01 be 02 9e 3a 3f 2f 78 a5 be
       0.52703446 -0.12688272 0.7289735 -0.32318255
