onnxnetworks/pgdTrainedB.onnx (onnx, 103529 bytes, 4 tensors)

StatefulPartitionedCall/sequential/dense_1/MatMul/ReadVariableOp:0 f4 [32, 10]
000000 73 cd e2 bd 10 fd f1 3e a8 56 de 3e 64 13 2c bf
       -0.110743426 0.47263384 0.43425488 -0.6721709
000010 99 89 1f be 52 6a 2c bf b7 9d 35 bf 76 e1 6b 3f
       -0.15579833 -0.6734973 -0.7094378 0.921409
000020 09 34 28 bf f0 b0 53 bf f8 60 37 be 88 0e f7 bd
       -0.657044 -0.8269186 -0.17908084 -0.120633185
000030 d7 a2 e9 3d 28 f7 ba be a3 76 15 3e fa b9 ec be
       0.11408012 -0.3651669 0.14596038 -0.4623564
000040 f3 bd 80 3e a7 72 3a 3d e2 c0 c3 3e 8b 5d c7 bd
       0.2514492 0.045519497 0.38233095 -0.09734639
000050 c2 77 e2 3e d9 02 51 be 46 9d 53 3d cc 86 08 3e
       0.44231993 -0.20411243 0.05166366 0.13332671
000060 a1 7d 44 3e aa 1e 05 be c8 77 27 3e 96 50 1e bf
       0.19188549 -0.12999979 0.16354287 -0.61841714
000070 e9 2c 8c bd 80 0b 2f bf 50 74 8f 3d 25 c5 04 3f
       -0.068445034 -0.6837692 0.07004607 0.5186332
000080 92 fc 43 bd 77 18 a8 be 02 4c 44 be 88 44 2f 3f
       -0.04784829 -0.32831165 -0.1916962 0.68463945
000090 a6 4e 4e be 10 93 0e bf 29 99 0a bf 68 a4 e2 be
       -0.2014719 -0.5569315 -0.54139954 -0.44266057
0000a0 07 5c bd bd 01 1c 08 3f bf d7 b1 3e 35 b1 55 3e
       -0.092460684 0.5316773 0.34734914 0.2086838
0000b0 d4 8f 45 3e 71 37 27 bf 6f 1c 97 3e 2f 40 aa bd
       0.19293147 -0.6531897 0.2951388 -0.08313023
0000c0 19 62 32 3d 5e f9 06 be 5f 9a 1b bd ec e1 56 3d
       0.043550584 -0.13181064 -0.037989017 0.05246155
0000d0 45 7a 64 be 57 78 2e be d0 3d ba be 65 d8 70 be
       -0.22312267 -0.17038094 -0.36375284 -0.23520048
0000e0 0f 93 8f be 8a 7e 07 bc ad 83 66 be ed 6f bb 3e
       -0.28041884 -0.008269915 -0.22511168 0.3660883
0000f0 05 66 1a 3e 99 8e 1c bf 3e 46 ef 3c 80 6b 52 be
       0.1507798 -0.61155087 0.029208299 -0.2054882
000100 12 19 87 be b6 89 c7 3d 44 34 a7 3e 59 77 80 bd
       -0.26386315 0.09743063 0.32657063 -0.06272764
000110 29 3e 58 3e d5 73 a4 3e 9b 51 79 be c6 60 93 bd
       0.21117462 0.32119623 -0.24347536 -0.071961924
000120 1e 79 08 be a7 4f 88 be 8e 75 ab be 79 17 df 3c
       -0.13327453 -0.2662327 -0.33488125 0.027232872
000130 4d 99 f2 be 68 81 89 3d fc af 42 bf 2e 43 33 bd
       -0.47382584 0.067141354 -0.7604978 -0.04376524
000140 98 0a 02 bf 87 65 fe be 40 c2 f6 be 30 82 17 be
       -0.50797415 -0.49686834 -0.48195076 -0.14795756
000150 8e df 97 bd 69 81 70 be 48 ff 88 be 02 e3 44 3e
       -0.074156865 -0.23486866 -0.26757264 0.19227222
000160 23 13 89 3e 01 f9 06 3f 17 59 0a bf 9f d8 bf be
       0.26772413 0.527237 -0.5404219 -0.37469956
000170 e6 a9 f3 be 29 80 08 bf ba 53 fd be fa 96 39 3f
       -0.4759056 -0.53320557 -0.4947794 0.72495997
000180 ab cb ad be 6c 0c 59 bf 6a 4d ab be 48 b1 af bd
       -0.3394445 -0.8478458 -0.334575 -0.085787356
000190 86 df e3 3c bf 95 60 3d f5 4c ea be 71 ab aa 3e
       0.027816545 0.05483031 -0.4576184 0.33333924
0001a0 26 ab 29 3e bd b4 94 bd 9a b7 9e 3e 9e a4 75 bf
       0.16569194 -0.072610356 0.30999452 -0.9595431
0001b0 6b 32 70 3e 44 4f a9 be f2 78 46 bf 95 d7 13 3f
       0.23456733 -0.33068287 -0.775283 0.5775083
0001c0 1d 69 9e be 1e 66 4a 3f 19 fb 14 3e 34 f8 74 be
       -0.3093957 0.7906207 0.14548911 -0.23922807
0001d0 af b1 2e bf f2 e5 46 bf fa 86 50 3d bc ef 65 3b
       -0.68239874 -0.7769462 0.050909974 0.003508552
0001e0 1e 18 2a 3f 10 45 26 be bd 62 0c 3f d5 49 00 3f
       0.6644305 -0.16237283 0.5483816 0.5011266
0001f0 e8 e7 f0 be e3 7c 8b bf b2 15 e5 be 6b 74 02 c0
       -0.4705193 -1.0897487 -0.44743115 -2.0383556
000200 c3 ce 1e be 0a e2 8a be 03 db bc 3d a0 f9 28 bf
       -0.15508561 -0.2712558 0.09221461 -0.660059
000210 f3 02 c4 3e 8a c0 1b bf d5 23 11 bf fb 55 01 be
       0.382835 -0.60840666 -0.566953 -0.12630455
000220 ac 46 07 bf 2f 5b 2c 3f bb 29 27 bf da 2e 33 bf
       -0.5284221 0.67326635 -0.6529805 -0.69993365
000230 6e 2f 41 3e 91 ef 11 3f 1f b5 21 3e b0 1e 92 3e
       0.18865749 0.57006174 0.15791748 0.28539038
000240 2a 5e 79 bd da 1c 3c bc 0c 32 2a 3e a3 86 75 be
       -0.060880817 -0.011481488 0.16620654 -0.23977141
000250 39 b8 87 3e 84 fd af 3e a4 59 ac be fa c2 fb bd
       0.26507738 0.34373105 -0.3366214 -0.12293048
000260 74 2d b7 bd 68 58 38 be f6 e8 e1 3c ea 4a bf be
       -0.08944216 -0.18002474 0.027576905 -0.37361842
000270 32 9f 48 bd 51 c3 93 be 51 3f 99 bd aa f5 42 bc
       -0.048979945 -0.28859952 -0.0748278 -0.011899391
000280 3a 5e 55 be 20 f3 40 bf 2c 13 57 be 15 c2 cc be
       -0.20836726 -0.7537098 -0.21003407 -0.39991823
000290 e7 cb 2c bf e8 c4 53 3f 54 24 61 3e 59 8f 4d be
       -0.6749863 0.8272233 0.21986514 -0.20074214
0002a0 78 56 6e bd 37 e7 f8 be 79 5d 27 3d 1a 39 27 bf
       -0.05818793 -0.48613903 0.040860627 -0.65321505
0002b0 cc 25 9d be a4 a9 93 3d 03 42 06 bd 15 8c 8b be
       -0.306929 0.07210091 -0.032777797 -0.27255312
0002c0 90 f8 59 3d 7f a4 bc 3e 58 47 97 3e 37 e5 66 3d
       0.053215563 0.3684425 0.29546618 0.05637094
0002d0 0b e4 52 be 7f 1c f1 be 36 70 0c 3d b4 98 0a 3f
       -0.20594804 -0.47092053 0.0342867 0.54139256
0002e0 22 c5 9c 3d 79 fa 9d 3e 33 37 b2 3e b7 9f d7 3e
       0.076547876 0.30855158 0.3480774 0.4211404
0002f0 59 82 4a bf 79 8f 12 bf 75 38 e8 3e 14 2b d3 3e
       -0.79105145 -0.5725017 0.45355573 0.41243804
000300 47 1e 45 bf 3c 0d 9f be 3b 56 0f bf 40 45 8c 3e
       -0.76999325 -0.31064785 -0.5599095 0.27396584
000310 6f d9 d8 3c b5 20 f7 3e 74 d8 32 bf 40 48 85 3e
       0.026470868 0.4826714 -0.6986153 0.26031685
000320 71 5b c7 3d db 0b 0c 3f f7 fc aa be 29 b3 ac be
       0.09734238 0.5470559 -0.33396122 -0.33730438
000330 1f df 4f 3e c3 b9 98 3e 5f 39 12 bf 95 58 ab 3e
       0.20299958 0.29829225 -0.5711879 0.3346602
000340 20 d9 b3 3e 5e b2 17 3d 24 d8 fc 3d 9c 83 10 bf
       0.3512659 0.03703534 0.12345913 -0.5645082
000350 1a be f2 be 85 9c 86 be 72 29 bc be cc 51 8f 3f
       -0.4741066 -0.2629129 -0.3675037 1.1196837
000360 a9 f9 05 be 52 bb 4d bf f4 70 07 3e b6 e3 e6 be
       -0.13083519 -0.80363953 0.13226682 -0.45095605
000370 76 5e 39 3f 9e cb e3 bd cc 2f ce 3e 8f 84 0b bf
       0.7240976 -0.11122821 0.4027084 -0.54499143
000380 a4 a5 17 bf 92 11 3f bf e2 5d 09 be 65 f8 70 bf
       -0.5923712 -0.74636185 -0.1341472 -0.9412902
000390 0d 6b 7a 3d 91 da e7 3c 88 ec 8d bd 1c 7c ea be
       0.061137248 0.028302463 -0.069298804 -0.45797813
0003a0 a3 9d 6e be f3 5f 44 be e6 69 2c bf f2 a0 e6 3e
       -0.23302321 -0.19177227 -0.6734909 0.45044667
0003b0 be 7e 9c be 94 02 ac 3e c6 ee a4 bd 20 44 b6 3e
       -0.30565447 0.33595717 -0.08053355 0.3559885
0003c0 f2 fe 02 3d 81 ea 17 bf d7 5e da 3e 97 e8 16 bf
       0.031981416 -0.593422 0.42650482 -0.58948654
0003d0 27 59 85 be 1d 62 ce 3e ad d8 44 be 2e d2 8f 3e
       -0.2604458 0.4030923 -0.1922328 0.28090042
0003e0 83 d4 0b be 87 81 54 bf b2 49 06 3e ae 9b 5f bd
       -0.13655286 -0.83010143 0.1311405 -0.054591827
0003f0 3f a0 59 3d 3a e0 05 be eb cf 99 3e 35 ec a3 be
       0.05313134 -0.13073817 0.3004144 -0.3201615

StatefulPartitionedCall/sequential/dense_1/BiasAdd/ReadVariableOp:0 f4 [10]
000000 7c b2 93 3d e1 87 8c be 62 d3 61 bd 6b 5b 73 3e
       0.072117776 -0.27447417 -0.05513323 0.23765342
000010 52 62 9b be 19 19 a8 3e 3c c6 9f 3e 47 c8 de 3d
       -0.3034845 0.32831648 0.31205928 0.108780436
000020 4f 2d 95 be 2a 63 f0 be
       -0.2913613 -0.46950656

StatefulPartitionedCall/sequential/dense/MatMul/ReadVariableOp:0 f4 [784, 32]
000000 ce ee d7 40 27 e7 08 40 54 4d b7 bf 7b 70 0a 40
       6.747901 2.1391084 -1.4320474 2.1631153
000010 47 5a f1 3e 68 74 b7 3d e7 25 54 c0 57 08 fb 3e
       0.4713919 0.089577496 -3.3148134 0.490298
000020 2c 8c de 3f e1 40 b8 bf 46 04 a9 c0 95 ab 12 c0
       1.7386527 -1.43948 -5.2817717 -2.2917225
000030 62 58 53 40 39 7b 95 40 e0 7b 00 c0 70 25 09 3d
       3.3022695 4.671292 -2.0075607 0.03348297
000040 45 f2 6b c0 cd a8 03 bf 11 12 b2 c0 78 71 1a 40
       -3.686662 -0.51429445 -5.5647054 2.4131756
000050 ca c3 9b 40 1e 71 49 c0 ab 81 a2 40 ff 94 87 bf
       4.86765 -3.1475291 5.0783286 -1.0592345
000060 44 62 54 40 bb fa d2 be be b0 19 3f 7f ec c8 c0
       3.3184977 -0.41206917 0.6003531 -6.278869
000070 03 08 8a 40 a4 06 3f 40 dc 8b 35 bd 49 ec 90 40
       4.313478 2.9847803 -0.044322833 4.5288434
000080 ad 67 6c c0 8d aa aa 40 8c 42 37 c0 c1 5f 3f c0
       -3.6938279 5.333319 -2.8634367 -2.9902194
000090 45 72 05 40 5c 53 b9 bc 01 64 e4 3f 22 04 a3 bf
       2.0850995 -0.022622757 1.7843019 -1.2735636
0000a0 73 57 4e 40 09 23 ee 3e 13 af 8d 40 2c db a1 bf
       3.2240875 0.46511105 4.4276214 -1.2645011
0000b0 a8 9e c0 c0 fa 0b 89 c0 49 44 12 bf 1e 28 a6 3d
       -6.019367 -4.282712 -0.57135445 0.081131205
0000c0 fc 87 c0 bf bb d8 31 40 14 71 a7 bf ab ba 5d c0
       -1.5041499 2.7788532 -1.3081384 -3.4645183
0000d0 d8 4e 7c 3f 1b ec d4 3d bc 35 7f c0 2d 3f 60 c0
       0.98557806 0.10396596 -3.9876547 -3.503856
0000e0 22 d8 87 c0 da 32 7f 40 3a 13 84 40 a4 6a da 3f
       -4.2451334 3.9874787 4.127347 1.7063794
0000f0 57 cf 6f c0 e0 0f cc 3e 3b 84 86 bb 37 b6 2a 40
       -3.74703 0.39855862 -0.0041051186 2.6673715
000100 86 d1 a9 bf 28 2a d0 be d6 38 c1 bf 6b 29 ee bf
       -1.3267066 -0.40657163 -1.509547 -1.860639
000110 98 85 25 3f fa 88 a1 bc e4 cf 52 c0 c7 fe 10 bf
       0.6465697 -0.019718636 -3.2939386 -0.5663876
000120 eb 52 ac 3f ac 50 78 3f a2 fd 07 40 07 00 8c 40
       1.3462805 0.96998096 2.1248555 4.3750033
000130 d9 07 d8 bf 4b 8b 6c c0 ff 61 bb 3f 94 ad a5 3c
       -1.6877395 -3.6960018 1.4639281 0.02022437
000140 43 aa 28 c0 3a 8b 34 3f a3 3a 12 be 29 bd 01 c0
       -2.635392 0.7052494 -0.1428018 -2.0271704
000150 6e 2f 22 40 4c e8 be be d1 e8 7f c0 f4 c2 0c c0
       2.5341449 -0.37286603 -3.998585 -2.199399
000160 d5 89 4e c0 f3 67 18 3f a6 68 57 3f e6 88 14 c0
       -3.2271626 0.59533614 0.84144056 -2.3208556
000170 64 47 a8 3f 45 71 41 3e 9c 3c 41 40 f1 ba 1e 40
       1.3146787 0.18890865 3.0193243 2.48016
000180 14 d6 ce be 19 e2 48 bf e6 9a 99 be aa 0d 54 be
       -0.40397704 -0.7847 -0.3000099 -0.20708337
000190 4b 55 a4 bd 31 3e 9c bd 21 96 d2 bf 2e a7 a1 be
       -0.08024081 -0.076290496 -1.6452066 -0.3157286
0001a0 a0 5d ba 3e 83 15 c4 3f fb 42 0f 3f 27 a4 03 40
       0.36399555 1.5319065 0.5596158 2.056894
0001b0 ae 6f 89 bd d8 13 04 c0 14 7a 09 3f 3d 7a 15 bc
       -0.06710754 -2.0637112 0.537019 -0.009123382
0001c0 d3 7c 5e bf 59 95 29 be 78 6f 38 3f f9 79 54 bf
       -0.86909217 -0.16560878 0.7204509 -0.82998616
0001d0 55 ae 2f 3f 80 67 11 3d 97 f4 1e c0 6d c0 90 bf
       0.68625385 0.035499096 -2.4836786 -1.1308724
0001e0 04 6f a1 bf 5f bc 87 3e f6 e4 97 3e 55 85 b1 bf
       -1.2612004 0.26510903 0.2966687 -1.3868815
0001f0 92 13 50 3f 06 a2 06 bf a6 0e 73 3f 71 1a a5 3f
       0.8127986 -0.5259098 0.94944227 1.2898694
000200 b2 54 48 3f d3 b9 e0 be 27 41 b2 3e 9b 21 91 bd
       0.78254235 -0.43891773 0.34815332 -0.07086488
000210 47 ef f4 be c5 ad 21 bd 09 6e cb 3e e6 31 b0 3e
       -0.47838804 -0.03947236 0.39732388 0.3441307
000220 34 9a 7d 3d f5 c4 f9 be c9 8b 1d bf 55 1d 0f bd
       0.061914638 -0.4878308 -0.6154142 -0.034940083
000230 1d 51 93 3f a0 28 d5 3e 04 ba b2 3e cb 8e de 3b
       1.1509129 0.41632557 0.34907544 0.0067919246
000240 a5 51 c4 3b 28 f3 0d 3e 89 49 03 bf d8 c3 56 3e
       0.005991178 0.13862288 -0.5128408 0.20973146
000250 d4 b0 4c be 85 0e 33 bf e6 ad 91 3f e9 ba 81 3f
       -0.1998933 -0.6994403 1.1381195 1.0135165
000260 1f 9c 00 3e 44 da 13 bf c1 ed d0 bf b5 cd be bf
       0.12559555 -0.5775492 -1.6322557 -1.4906527
000270 18 f1 75 3f f1 7e f6 bd 12 6e f0 3c a2 35 17 bd
       0.96071005 -0.12035931 0.02934936 -0.036916383
000280 86 8a b5 3f 10 33 a9 3e 48 ae e8 bd 34 a8 03 be
       1.4182899 0.3304677 -0.113613665 -0.12857133
000290 99 b5 11 3e 6a bc 89 bc 49 4f 15 be 19 d7 bc 3f
       0.1422943 -0.016813476 -0.14581026 1.4753143
0002a0 26 62 1b bf fc 0f 5a bf 68 28 aa be 4c fd bb be
       -0.6069664 -0.8518064 -0.33233953 -0.36716688
0002b0 8d 0d 5e bd 93 3f 63 3f d8 70 09 bf 04 32 e6 3b
       -0.05421214 0.8876888 -0.5368781 0.0070250053
0002c0 4c a6 95 3e e5 2b ed 3d d7 e8 30 be fe be 9a bd
       0.29228437 0.11580638 -0.17276321 -0.0755596
0002d0 f1 ab ea bc ee 47 73 bf f1 ca eb 3d 79 c1 25 3d
       -0.028646441 -0.9503163 0.115133174 0.040467713
0002e0 a9 07 1f 3d 9e e5 87 be 62 97 f4 bb 2b 48 8d bf
       0.038825665 -0.26542372 -0.0074643353 -1.1037649
0002f0 56 a1 56 be 24 8d f6 bd 4e af c3 bc 35 1d 29 3e
       -0.20959982 -0.12038639 -0.023887303 0.16515048
000300 14 5f 05 3f dc 07 70 be 51 f2 3d be a0 c3 a1 bd
       0.520982 -0.23440498 -0.18549468 -0.07898641
000310 f6 1d 7f 3e d3 50 7b 3b 78 bb 8a bd e3 f2 3e 3f
       0.24913773 0.0038347736 -0.06774038 0.74589366
000320 a0 a1 84 bf dd ea 09 be bf b9 32 3d 41 c7 fd 3d
       -1.0361824 -0.134685 0.043634173 0.1239152
000330 af 74 b5 3e c1 77 16 3f 86 cb bf 3e bc 8a 88 3b
       0.35440585 0.5877648 0.37459964 0.004166929
000340 20 9f b1 3e 4e ec 39 3d 79 c3 e4 3d b7 8c 74 be
       0.34691715 0.045391373 0.11170096 -0.23881803
000350 ef 83 1b be e9 2d 15 3f 22 17 c2 bc a5 04 0a 3f
       -0.15187047 0.5827318 -0.023692671 0.53913337
000360 67 fb ad 3d 9d b4 0f bf 28 44 c6 be e9 13 5f be
       0.08495217 -0.5613497 -0.38723874 -0.21784939
000370 bc 4c f3 bd b9 5b c1 be bd 6e 07 3e 69 ea 72 be
       -0.1187987 -0.3776529 0.13225837 -0.23722233
000380 b3 5e 4e be cb d1 5c bd a7 be d4 bc 3a c1 1d 3e
       -0.20153312 -0.05391101 -0.025969816 0.15405741
000390 19 d1 1b 3e 96 f4 8d 3d 5c 5f bf bd 49 bd 25 be
       0.15216483 0.06931417 -0.0934436 -0.16185488
0003a0 30 00 b7 3e 57 8e 17 be 90 14 c0 3e c5 45 3f 3e
       0.3574233 -0.14800392 0.37515688 0.18678959
0003b0 ae 2b 5f bb f8 04 86 bf 9b a4 18 3f a9 e6 49 bd
       -0.0034053135 -1.0470266 0.5962617 -0.04929224
0003c0 b0 90 e7 be 6b d2 5e 3e e3 bc 62 be f1 bd 27 be
       -0.45227575 0.21759956 -0.22142367 -0.1638105
0003d0 7d 09 06 3e 11 0a 29 3e 16 c9 5d be 29 25 d2 be
       0.13089557 0.16507746 -0.2165874 -0.41043976
0003e0 8d 8e ac be d0 8a 13 3d b0 8c ab be 72 46 b2 3d
       -0.33702508 0.036021054 -0.33505774 0.087048426
0003f0 ce 77 1f be 6e 7d 2b bf 47 e5 9c 3d 10 ef 94 be
       -0.15573046 -0.66988266 0.07660919 -0.2908864

StatefulPartitionedCall/sequential/dense/BiasAdd/ReadVariableOp:0 f4 [32]
000000 f8 d8 d2 3d ad dd 55 be 50 3a ad 3e d1 51 9b 3d
       0.1029529 -0.20885344 0.3383355 0.075839646
000010 5d 59 02 be 92 7d 8b bc be 16 44 3e 6c df 95 3e
       -0.12729402 -0.01702765 0.191493 0.2927202
000020 aa de 86 be 90 dc 49 3e 8d c5 1e 3e 35 12 a5 3e
       -0.26341754 0.19713044 0.15505047 0.32240453
000030 da 9d 84 3e cd 16 0e 3f 1d e6 0a be 7c b8 b4 bc
       0.2590168 0.5550354 -0.13564344 -0.022060625
000040 48 d9 09 3f 78 3f 2b 3d 6d 1b 21 3f 1f af ad 3e
       0.5384717 0.041808575 0.62932473 0.3392267
000050 9a ba 41 be f5 16 a6 3e 9b 74 40 3e b0 7f d0 3e
       -0.18918839 0.3243939 0.18794481 0.40722418
000060 b4 3e 03 3f 08 32 8f be 48 19 0e 3e db 46 e8 3e
       0.5126755 -0.27967858 0.13876832 0.45366558
000070 e4 5a 0f be 0c 88 10 3f 2a 27 5f 39 34 9e 31 be
       -0.13999516 0.5645759 0.00021281527 -0.17345506
