onnxnetworks/pgdTrained.onnx (onnx, 103513 bytes, 4 tensors)

StatefulPartitionedCall/sequential/dense_1/MatMul/ReadVariableOp:0 f4 [32, 10]
0	0x3ec535fc	0.3851775
1	0xbe95f74a	-0.2929023
2	0xbea96516	-0.33084935
3	0x3d0f7745	0.035025854
4	0x3e12405d	0.14282365
5	0x3ecef40d	0.4042057
6	0x3ea2f43b	0.31826958
7	0x3e9d1633	0.30681
8	0xbf2f4b1a	-0.6847397
9	0xbf221b13	-0.6332256
10	0x3dbb6dc9	0.09151799
11	0x3de56f93	0.11202922
12	0xbbcf60f8	-0.0063286982
13	0x3ea57f58	0.32323718
14	0x3d5b7cf7	0.053585973
15	0xbe8b45d7	-0.2720172
16	0x3e433e94	0.1906684
17	0x3ddb8fcf	0.10720789
18	0x3e2da075	0.16955741
19	0xbe99d1ac	-0.3004278
20	0x3e68792a	0.2270247
21	0xbf027200	-0.509552
22	0xbebfdbb9	-0.37472323
23	0xbec2e5fd	-0.38066092
24	0xbf0661be	-0.5249289
25	0xbdb07297	-0.08615606
26	0x3ef34718	0.47515178
27	0xbe581c51	-0.21104552
28	0x3e1476a0	0.14498377
29	0x3efa5a6b	0.48897108
30	0x3ec34f01	0.38146213
31	0xbe95fac9	-0.29292896
32	0x3e9e89ee	0.30964607
33	0x3e682373	0.22669773
34	0xbefebda9	-0.49754074
35	0x3dbb816b	0.09155544
36	0xbe2e6312	-0.1702998
37	0xbed52d58	-0.41636157
38	0x3d9301f9	0.07178111
39	0x3d32d334	0.04365845
40	0x3e9a0f6c	0.3008989
41	0x3d4cf408	0.050037414
42	0xbde69631	-0.112591155
43	0xbf25e458	-0.6480155
44	0xbe1aa50b	-0.15102021
45	0x3cd64fe5	0.026161144
46	0xbf3b917d	-0.7326887
47	0x3ec17158	0.37781787
48	0xbf01a30d	-0.5063942
49	0xbcb5800e	-0.022155788
50	0xbecb6bc4	-0.39730656
51	0x3db5c004	0.08874515
52	0x3e779da6	0.24181232
53	0x3ec1801a	0.37793046
54	0xbead9ba6	-0.33907813
55	0x3e794861	0.24344017
56	0xbecc8eb3	-0.3995262
57	0xbd1c899b	-0.03821717
58	0xbf42ade0	-0.7604656
59	0xbdd4e678	-0.10395521
60	0x3eda0152	0.42579132
61	0x3f06ec93	0.52704734
62	0x3ea7f9d1	0.32807782
63	0xbec87b2b	-0.3915647
64	0x3ea653e4	0.32485878
65	0xbdf9eadd	-0.12203
66	0xbcb37289	-0.0219052
67	0xbcee441b	-0.02908521
68	0x3e77046b	0.24122779
69	0xbf27cb3b	-0.6554448
70	0x3e9037ff	0.28167722
71	0x3ea0647c	0.31326663
72	0xbdccc816	-0.09999101
73	0xbebbc604	-0.3667451
74	0x3e1c06b8	0.15236938
75	0xbdb83169	-0.08993799
76	0x3cb3f024	0.021965094
77	0xbeda3718	-0.42620158
78	0x3ea45106	0.32093066
79	0xbe41b2b2	-0.18915823
80	0x3eabeb21	0.33577827
81	0x3e41651a	0.18886223
82	0xbd3fe121	-0.04684556
83	0x3eb28780	0.34869003
84	0x3ee60b42	0.44930464
85	0xbf20cc71	-0.6281195
86	0xbe8970e1	-0.26843932
87	0xbec98d30	-0.3936553
88	0x3e656276	0.22400841
89	0xbf021ea7	-0.5082802
90	0x3e92c2c7	0.28664228
91	0xbeea834b	-0.45803294
92	0x3e990403	0.29885873
93	0x3eca40e4	0.39502633
94	0xbeccd547	-0.40006468
95	0xbf12c4c0	-0.57331467
96	0x3daf2cf0	0.08553493
97	0xbd095e8d	-0.033537436
98	0xbd1d2e30	-0.038374126
99	0xbecf0736	-0.4043519
100	0xbe9e28b4	-0.3089043
101	0x3ee2940b	0.44253573
102	0x3e8db6cd	0.27678528
103	0x3e6e1aa1	0.23252346
104	0x3e87d034	0.26526034
105	0xbeec9ba8	-0.46212506
106	0xbe2fda5f	-0.17173146
107	0x3ee5cc33	0.44882354
108	0xbbdcc64c	-0.006737506
109	0x3ed7e064	0.42163384
110	0xbf0d52df	-0.55204576
111	0x3ec3c360	0.38234997
112	0xbeeda623	-0.46415815
113	0xbf4a565e	-0.79038036
114	0x3e5f5c46	0.21812543
115	0x3ec45cbc	0.38352
116	0x3e432e96	0.1906074
117	0xbf3fbf6d	-0.7490147
118	0xbccb5d0e	-0.024824645
119	0xbf3f7eb8	-0.7480273
120	0x3ea6e558	0.3259685
121	0xbea7cc61	-0.32773116
122	0xbe87dc04	-0.26535046
123	0xbe86d459	-0.26333883
124	0xbf276473	-0.6538765
125	0x3f0855da	0.53256
126	0x3f154bb8	0.5831866
127	0xbf250d29	-0.64473206
128	0xbf2bb42e	-0.6707181
129	0xbf0620d6	-0.52393854
130	0xbecfc388	-0.40578866
131	0xbe0561b4	-0.13025552
132	0x3e590319	0.21192588
133	0x3eb1bfcd	0.34716645
134	0xbe3e9c14	-0.18614227
135	0xbaee83df	-0.001819726
136	0xbf0397db	-0.5140359
137	0x3ec6b865	0.38812557
138	0xbd8de523	-0.0692847
139	0x3e8492d2	0.25893265
140	0x3e3762fb	0.17908852
141	0xbefed1cf	-0.49769446
142	0x3dc74dd1	0.09731639
143	0xbf0291db	-0.5100381
144	0x3e7d7966	0.24753341
145	0xbd307996	-0.043084703
146	0xbe117688	-0.14205372
147	0x3ec11345	0.37710014
148	0x3e20afd9	0.1569208
149	0x3ea25fe8	0.31713796
150	0xbf029bfb	-0.5101926
151	0xbeb81b3b	-0.35958275
152	0xbe9e6855	-0.30938974
153	0xbea782f2	-0.3271709
154	0xbf0adeed	-0.5424641
155	0x3f653cb3	0.89545745
156	0xbe04cd6f	-0.12968992
157	0xbea51d17	-0.32248756
158	0xbf3e5f40	-0.7436409
159	0xbee2d6aa	-0.443044
160	0x3e210128	0.15723097
161	0x3ed88cd0	0.4229493
162	0xbec3359c	-0.38126838
163	0x3eb37c79	0.35055903
164	0x3e1e98c1	0.15487958
165	0xbf079d5b	-0.5297448
166	0x3e7b72c0	0.24555492
167	0xbe259776	-0.16171059
168	0xbcbaa933	-0.022785759
169	0x3eccadc5	0.39976326
170	0xbe450560	-0.19240332
171	0xbe819832	-0.25311428
172	0x3e81d09a	0.25354463
173	0x3e5e2f89	0.2169782
174	0xbca29b02	-0.019849304
175	0xbe8665c6	-0.26249522
176	0xbe9dbf0d	-0.30809823
177	0xbe6b4107	-0.22974025
178	0x3e25c5e2	0.16188768
179	0xbe5e2ec5	-0.21697529
180	0x3eabaaeb	0.33528838
181	0x3e92bd9d	0.28660288
182	0x3dd8f220	0.10593057
183	0x3dc433d0	0.09580195
184	0x3e097c70	0.13426375
185	0x3e5d0fea	0.21588102
186	0xbf0129e1	-0.5045453
187	0xbf16c104	-0.5888827
188	0x3e666a6b	0.22501533
189	0x3d3ac3f1	0.04559702
190	0xbf329a60	-0.6976681
191	0xbf4a1e14	-0.78952146
192	0xbf0a7e26	-0.5409874
193	0xbf3f4ffb	-0.74731416
194	0xbf3b41aa	-0.7314707
195	0x3f8c06ca	1.0939572
196	0xbf097217	-0.5368971
197	0xbeffe7c6	-0.49981517
198	0xbf391265	-0.7229369
199	0x3ee1b1c3	0.44080934
200	0xbc0abf46	-0.008468455
201	0xbf11f085	-0.5700763
202	0xbef9e95e	-0.48810858
203	0xbef85464	-0.48501885
204	0x3cac9da2	0.021071259
205	0x3ef683b4	0.48147357
206	0x3e70dc87	0.23521625
207	0x3e509d22	0.20372441
208	0x3cb37279	0.02190517
209	0x3ef3bbe6	0.47604293
210	0xbe5f3749	-0.21798433
211	0xbe4d094e	-0.2002308
212	0xbf1d1f34	-0.6137574
213	0x3efb92a0	0.49135303
214	0xbeeed3bb	-0.46645913
215	0x3dbb3414	0.091407925
216	0x3e122b91	0.14274432
217	0x3efc6620	0.49296665
218	0x3df2c8d7	0.118547134
219	0xbe9ba57d	-0.30399695
220	0xbe8373cf	-0.25674292
221	0x3f1a36a6	0.60239637
222	0x3e6525c0	0.22377682
223	0xbd5da9fc	-0.054117188
224	0xbeb295e9	-0.34879997
225	0xbeaf229b	-0.3420609
226	0xbe81681e	-0.25274748
227	0xbdfb6ab2	-0.1227621
228	0xbc77cf22	-0.015125068
229	0x3f183643	0.59457797
230	0xbe8edd3c	-0.27903163
231	0xbe301430	-0.17195201
232	0xbd8737c3	-0.066024326
233	0xbeb5c6f5	-0.35503355
234	0x3ecd14e0	0.4005499
235	0x3e9769e7	0.29572985
236	0x3e1dd0e7	0.15411721
237	0xbe625924	-0.22104317
238	0x3ed86164	0.42261803
239	0xbecaf36d	-0.39638844
240	0xbe7c7caf	-0.24656938
241	0x3df4ab44	0.11946729
242	0xbe8b4d9d	-0.27207652
243	0xbed9aa17	-0.4251258
244	0xbf15aa19	-0.58462673
245	0xbe8f1b44	-0.2795049
246	0xbece355f	-0.40275094
247	0x3e01fff0	0.12695289
248	0x3f16b3c5	0.58868057
249	0x3c6929d9	0.014231169
250	0x3de7f2fd	0.11325643
251	0x3ef747b4	0.48296893
252	0xbf5ce9b1	-0.86294085
253	0xbba94e00	-0.005166769
254	0xbf376fc4	-0.71654916
255	0x3f04bd5b	0.51851434

StatefulPartitionedCall/sequential/dense_1/BiasAdd/ReadVariableOp:0 f4 [10]
0	0xbc262e20	-0.010142833
1	0xbed2c6ca	-0.4116729
2	0x3e3f877f	0.18704031
3	0x3e0ce18f	0.13757919
4	0xbe90f27a	-0.28309995
5	0x3edfb641	0.43693736
6	0x3e18b187	0.14911471
7	0x3d268894	0.040657595
8	0xbe393272	-0.1808565
9	0xbee6f868	-0.45111394

StatefulPartitionedCall/sequential/dense/MatMul/ReadVariableOp:0 f4 [784, 32]
0	0x3fe5da84	1.7957311
1	0xbf2dc465	-0.678778
2	0xbfe11679	-1.7584983
3	0xc0236553	-2.5530593
4	0x40335d7d	2.802581
5	0xc03de2e1	-2.9669726
6	0x4041ceff	3.028259
7	0x3d7362bb	0.05942033
8	0x402a1a31	2.6578486
9	0xc02b4cf4	-2.6765718
10	0xbfe0cef6	-1.756316
11	0x4046f59f	3.1087415
12	0xbf176b46	-0.5914806
13	0xc01835fa	-2.3782945
14	0x403aa16c	2.9161024
15	0x400cac1d	2.198005
16	0xbfcd78a5	-1.6052443
17	0x3d801985	0.062548675
18	0x401cadfe	2.4481196
19	0x3d753f8f	0.059875067
20	0x40108123	2.2578819
21	0xc01382a4	-2.3048487
22	0xc0162e05	-2.3465588
23	0x403446dd	2.8168252
24	0x3f8ef427	1.1168259
25	0x3fb1e126	1.3896835
26	0x3faf1f39	1.3681403
27	0xc00009d5	-2.0006
28	0x40463f5a	3.0976167
29	0xbd9190fc	-0.07107732
30	0xbbf2c154	-0.0074083004
31	0xc03382b2	-2.804852
32	0xbffd966d	-1.9811531
33	0xbe630c2b	-0.2217261
34	0x4020860a	2.508181
35	0xc027d1a6	-2.622171
36	0xc026f694	-2.6088
37	0xc0347c1b	-2.8200748
38	0xbf85c3d7	-1.045039
39	0xbc607776	-0.013700357
40	0xc00c0000	-2.1875
41	0xc01cb43d	-2.4485009
42	0x3ecf2a14	0.4046179
43	0x403fdccf	2.997852
44	0xbfa0430d	-1.2520462
45	0xc00a93fc	-2.1652822
46	0xbe2bb581	-0.16768457
47	0xc01c8ccd	-2.4460938
48	0x4007526b	2.1144054
49	0xbd966cf4	-0.07345
50	0xc01b194b	-2.4234188
51	0x3f00a0df	0.5024547
52	0x4022384b	2.5346859
53	0xbfae6e78	-1.3627462
54	0x3fa948fb	1.3225397
55	0x40339b12	2.8063397
56	0x40234526	2.5510955
57	0xbfa1d4db	-1.2643083
58	0xc00ede53	-2.2323196
59	0x3e8ac3c1	0.27102473
60	0xbfc386e1	-1.5275537
61	0x3ff5edff	1.9213256
62	0xbdb25062	-0.08706738
63	0x400540d0	2.0820808
64	0xc00caffd	-2.1982415
65	0xbe9b2c9b	-0.3030747
66	0xbfed674f	-1.8547152
67	0xc02d0eed	-2.704036
68	0xbee9c935	-0.4566132
69	0xbfebb68a	-1.8415082
70	0x3fc8abad	1.5677391
71	0x3d8f2c6b	0.06990894
72	0x3fef4dc4	1.8695607
73	0xc02ad009	-2.6689475
74	0x3fed0423	1.8516887
75	0x4043a6a4	3.057046
76	0xbff198de	-1.8874776
77	0xbed0aa7a	-0.40755063
78	0x3fcf502e	1.6196344
79	0xbf806d94	-1.003344
80	0x3f0ad19e	0.542261
81	0x3dbb63ac	0.0914987
82	0x3f9f7b7f	1.2459563
83	0x3eb1c86d	0.34723225
84	0x3f8e3de4	1.1112638
85	0xc0079eb5	-2.1190617
86	0x3f19aa0f	0.60025114
87	0x401acdb7	2.4188058
88	0x3f9af456	1.2105815
89	0xbf0dec98	-0.5543914
90	0xbf991085	-1.1958166
91	0xbf40d1b3	-0.75319976
92	0xbfa9b77b	-1.3259119
93	0x3ffe22c5	1.9854361
94	0xbcae4f40	-0.021278024
95	0xbee7f817	-0.45306465
96	0x3f909289	1.1294719
97	0x3cef0fd8	0.02918236
98	0xbfb46bbe	-1.409538
99	0xc00a6b1b	-2.1627872
100	0xbe6a1d7d	-0.22862811
101	0xbecbc020	-0.39795017
102	0x3f0f97e0	0.5609112
103	0x3c1333d8	0.0089845285
104	0x3f6bd679	0.92124134
105	0xbfebeecd	-1.8432251
106	0x3e5f7826	0.21823177
107	0x4024e99a	2.576758
108	0xbefc59ad	-0.49287167
109	0xbf1511df	-0.58230394
110	0x3e340345	0.17579372
111	0x3f9cc5c0	1.2247849
112	0xbdfacfa6	-0.12246637
113	0xbd60cf44	-0.054885164
114	0xbf18fb85	-0.5975879
115	0x3e469b6b	0.19395225
116	0x3f57fbe3	0.84368724
117	0x3a4b42c8	0.00077537866
118	0xbfcd80bd	-1.6054913
119	0x3fd09661	1.6295892
120	0xbdb8a688	-0.09016138
121	0xbd4dbd23	-0.050229203
122	0x3f1b820f	0.6074533
123	0xbf03b409	-0.51446587
124	0x3f44991d	0.7679613
125	0x3f8d38d1	1.1032964
126	0x3cee3aaa	0.029080708
127	0x3dafd884	0.08586219
128	0xbed69464	-0.41910088
129	0xbe760505	-0.24025352
130	0xbef2c0bc	-0.4741267
131	0x3f2b8033	0.6699249
132	0x3efd1e16	0.49437016
133	0xbdaae501	-0.0834446
134	0x3f7d44f7	0.98933357
135	0xbc785c62	-0.0151587445
136	0x3f1a8715	0.6036237
137	0xbbbbf561	-0.0057360386
138	0xbf329c66	-0.69769895
139	0xbf8a54d4	-1.0807137
140	0x3dba01d3	0.09082379
141	0xbcbf6035	-0.023361305
142	0x3f347e31	0.7050505
143	0x3f589bcd	0.84612733
144	0xbf7896a8	-0.97104883
145	0x3d82d9a1	0.06389166
146	0x3f2e8b77	0.68181556
147	0x3f915383	1.1353611
148	0xbe07e6d8	-0.13271654
149	0xbf857b89	-1.0428325
150	0xbf0199f9	-0.5062557
151	0x3ed1a1fb	0.40943894
152	0xbc9882a8	-0.01861699
153	0x3d0b6116	0.034028135
154	0x3e251f79	0.16125287
155	0x3ea10d73	0.31455573
156	0x3eb85c3d	0.36007872
157	0x3eaefeb0	0.34178686
158	0xbae26cf4	-0.0017274902
159	0xbf2af060	-0.66773033
160	0xbebbd984	-0.3668939
161	0xbec5edae	-0.38657898
162	0xbe60035e	-0.21876284
163	0x3e8d6f04	0.2762376
164	0x3ea1bab3	0.31587753
165	0xbb6adfed	-0.0035839037
166	0x3ef1c453	0.47220096
167	0xbd009efe	-0.031401627
168	0x3ddfc54e	0.10926305
169	0xbe96b888	-0.2943766
170	0xbe5d7ced	-0.21629687
171	0xbed1e839	-0.40997484
172	0x3e1cd6ca	0.1531631
173	0xbde30526	-0.11084966
174	0x3eb95a05	0.36201492
175	0x3f370b66	0.7150177
176	0xbea6037f	-0.32424542
177	0x3ca590c0	0.020210624
178	0x3e939ad7	0.2882907
179	0x3fc21656	1.5163066
180	0x3db06348	0.086126864
181	0xbfb5ef8e	-1.4213731
182	0xbbbbc357	-0.0057300734
183	0x3e97f25a	0.29677087
184	0xbe7ab2ba	-0.24482241
185	0xbd346f43	-0.04405142
186	0x3dde325d	0.1084945
187	0x3df8085e	0.12110971
188	0xbe764e39	-0.24053277
189	0xbcdb8f9d	-0.026801879
190	0x3e1d7599	0.15376891
191	0xbe2bf37e	-0.16792104
192	0x3c971d68	0.01844664
193	0xbdef97da	-0.11698885
194	0xbd998baa	-0.07497342
195	0xbe2aeb44	-0.16691309
196	0xbe1160a3	-0.1419702
197	0xbd53ec02	-0.051738746
198	0x3d72e53f	0.059300657
199	0x3de65eac	0.11248526
200	0x3e0f7c7c	0.14012331
201	0xbeab1dc2	-0.3342114
202	0xbe9ab66d	-0.30217305
203	0x3e8427e9	0.258117
204	0x3de43fe5	0.111449994
205	0xbe9d9619	-0.30778578
206	0xbe4b6f20	-0.1986661
207	0x3f348f50	0.7053118
208	0x3e03e9f5	0.12882216
209	0xbcd4c021	-0.02597052
210	0x3e28ab0c	0.16471499
211	0x3fa5a00a	1.2939465
212	0x3d78ecae	0.06077259
213	0xbeab5df6	-0.33470124
214	0xbd8f5f8b	-0.07000645
215	0x3e903269	0.2816346
216	0xbe026aed	-0.12736101
217	0x3ef1aa21	0.4720011
218	0x3e1cdb92	0.15318134
219	0xbe7b8a01	-0.24564363
220	0xbe1cb81e	-0.1530461
221	0x3e96592f	0.29364917
222	0x3cdc23d1	0.026872547
223	0xbd6a12af	-0.057146724
224	0xbd43832d	-0.04773252
225	0xbd90d0bd	-0.07071064
226	0xbe4528df	-0.19253872
227	0xbdbe164e	-0.09281598
228	0xbd8efc15	-0.069816746
229	0xbd007c6a	-0.03136865
230	0x3e67720b	0.22602098
231	0xbd675578	-0.056477994
232	0x3ebaf0b4	0.36511767
233	0xbf192687	-0.59824413
234	0x3db2e783	0.087355636
235	0x3e5584fa	0.20851508
236	0xbd7da001	-0.06192017
237	0xbdb92476	-0.090401575
238	0xbe33aa4d	-0.17545433
239	0x3dd40a12	0.10353483
240	0x3e9b182e	0.30291885
241	0xbafd9d9d	-0.0019349341
242	0x3ea5b336	0.3236329
243	0x3fb22d0f	1.3920001
244	0x3bae528f	0.0053199003
245	0xbe8f1a48	-0.27949739
246	0x3e96e739	0.29473284
247	0x3dce2254	0.10065141
248	0x3d46dd1a	0.048550703
249	0x3ed05c5a	0.4069546
250	0x3ce291e5	0.027657459
251	0xbea86e31	-0.3289657
252	0xbef65040	-0.481081
253	0x3e611a39	0.2198266
254	0x3d9a8ce6	0.075464055
255	0x3d291b47	0.04128578

StatefulPartitionedCall/sequential/dense/BiasAdd/ReadVariableOp:0 f4 [32]
0	0x3e993c78	0.29928946
1	0x3d8c0c55	0.0683829
2	0x3a8495b8	0.001011542
3	0x3e9dc625	0.30815235
4	0x3e062f64	0.13104016
5	0x3ec853b4	0.3912636
6	0xbda6271b	-0.081129275
7	0xbc558ace	-0.013033582
8	0xbe468331	-0.19385983
9	0x3e8df16a	0.27723247
10	0xbeb26b7e	-0.34847635
11	0xbd44a2ef	-0.048006948
12	0x3e7423b3	0.23841743
13	0x3de90c8f	0.113793485
14	0xbe4067af	-0.18789552
15	0x3f00b8ed	0.50282174
16	0xbe934995	-0.28767076
17	0xbc5339f5	-0.012892236
18	0x3d5430b0	0.051804245
19	0x3ec66a9f	0.3875322
20	0x3dbcb5b0	0.09214342
21	0x3ee9f489	0.45694378
22	0xbe79bf23	-0.24389319
23	0x3d5a7709	0.053336177
24	0xbd4636ce	-0.04839211
25	0x3e8f2dc5	0.27964607
26	0x3d18c1e3	0.03729428
27	0x3e8a8d01	0.27060702
28	0x3ecbf775	0.39837232
29	0x3d4fd9dd	0.05074488
30	0xbccf32bf	-0.025292752
31	0xbdc3913e	-0.09549187
