LeNet/LeNet.onnx (onnx, 251759 bytes, 10 tensors)

StatefulPartitionedCall/sequential/dense_1/MatMul/ReadVariableOp:0 f4 [84, 10]
0	0x3e3af35d	0.18256898
1	0x3d91c3ef	0.071174495
2	0xbe762edb	-0.24041311
3	0x3d895a7b	0.06706711
4	0x3db36b40	0.08760691
5	0x3ea01c57	0.31271622
6	0x3e54c431	0.20777966
7	0x3e9285e3	0.28617772
8	0xbea6888d	-0.32526055
9	0x3e857d73	0.26072273
10	0x3d7f1056	0.06227144
11	0xbeca690b	-0.39533266
12	0xbdcee36a	-0.101019695
13	0xbe1f64c5	-0.15565784
14	0x3e4ddee7	0.20104562
15	0x3e403d59	0.18773402
16	0xbe60b8d7	-0.21945511
17	0xbc846bda	-0.016164709
18	0x3e1aeb4f	0.15128826
19	0xbe60b2b2	-0.21943167
20	0xbe9344e1	-0.28763488
21	0x3d47f66c	0.04881899
22	0x3e48d4c0	0.19612408
23	0x3e347f7f	0.17626761
24	0x3e165706	0.14681634
25	0xbdeb457c	-0.114878625
26	0x3db43bc9	0.088004656
27	0xbea27c02	-0.31735235
28	0xbd95f2bb	-0.07321688
29	0x3e74d3f2	0.23908976
30	0xbe2eff9b	-0.17089693
31	0x3e92b0ea	0.286506
32	0x3e28fada	0.16501942
33	0x3e1a1d1f	0.15050171
34	0x3d9545cf	0.072887056
35	0x3e837035	0.25671545
36	0x3e6cbc55	0.23118718
37	0x3e6a70ee	0.22894642
38	0x3e718861	0.2358718
39	0xbe056515	-0.13026841
40	0x3d87f06c	0.06637654
41	0x3d8f61ce	0.07001077
42	0xbd78d9d7	-0.060754623
43	0x3e0fccf4	0.14043027
44	0xbeb00f00	-0.34386444
45	0x3d3873e4	0.045032397
46	0xbe80de84	-0.25169766
47	0xbde75722	-0.11295916
48	0x3dd170b0	0.102265716
49	0x3e9acfe8	0.30236745
50	0xbebd411d	-0.3696374
51	0xbe51a89b	-0.20474474
52	0xbd964c25	-0.07338742
53	0xbc4c7db3	-0.012481141
54	0xbcf477d3	-0.029842293
55	0xbe1f30ec	-0.15546006
56	0xbe5564d2	-0.20839241
57	0x3c64f304	0.013973955
58	0xbe14b95b	-0.14523832
59	0xbe3d11d8	-0.18463838
60	0x3e3c1fdd	0.1837153
61	0x3cf1aa42	0.02950013
62	0xbe921d82	-0.28538138
63	0xbe645b61	-0.22300483
64	0xbca9974d	-0.020702029
65	0x3e7cf01e	0.24700972
66	0x3dd37580	0.10325146
67	0xbe7bf3ac	-0.24604672
68	0x3e9372b7	0.28798458
69	0x3e549a4b	0.20761983
70	0xbdfdd3d5	-0.123939194
71	0xbe8c7773	-0.27434883
72	0x3e93d42e	0.28872818
73	0x3dd77372	0.10520066
74	0xbe414155	-0.18872578
75	0xbcdcd9ae	-0.026959267
76	0xbeb24dc3	-0.34824952
77	0x3e19b20b	0.15009324
78	0x3e51f6d6	0.20504317
79	0xbe8e2cfb	-0.27768692
80	0x3d741e6f	0.059599336
81	0x3da9f73d	0.0829911
82	0xbbf6d0e2	-0.007532225
83	0xbdedfbea	-0.116203144
84	0x3e94b150	0.2904153
85	0xbe71f5be	-0.236289
86	0xbdd14d30	-0.102198005
87	0xbb39d583	-0.0028356023
88	0xbeacdbe3	-0.3376151
89	0x3e7c6607	0.24648295
90	0xbbd84f5e	-0.006601258
91	0xbe60c487	-0.21949969
92	0x3d9d3020	0.07675195
93	0x3e769aec	0.24082536
94	0xbe975c6c	-0.295627
95	0xbe609e84	-0.21935469
96	0xbd49c07e	-0.04925584
97	0x3e764778	0.240507
98	0x3e940524	0.28910172
99	0xbe49b22a	-0.1969687
100	0x3e896b63	0.26839742
101	0xbd99610a	-0.07489212
102	0xbe52295a	-0.20523587
103	0xbe857cbb	-0.26071724
104	0xbd89a98d	-0.06721792
105	0xbe1ab4a7	-0.15107976
106	0xbe0d88f4	-0.13821775
107	0x3e02b83b	0.12765591
108	0xbea322d2	-0.31862503
109	0x3dd004f7	0.10157197
110	0x3e3dd952	0.18539932
111	0x3d328851	0.043587033
112	0x3e2a1180	0.16608238
113	0x3d9acfb2	0.07559146
114	0xbdfa4628	-0.122204125
115	0xbe0354cc	-0.12825316
116	0xbd9ab680	-0.0755434
117	0xbe821389	-0.2540553
118	0xbe08d25b	-0.13361494
119	0x3d909b39	0.07060856
120	0xbe095761	-0.13412239
121	0x3da3620d	0.07977686
122	0x3e45ce32	0.19316939
123	0xbe3462d5	-0.17615826
124	0xbdd0591e	-0.10173248
125	0x3db8b626	0.09019117
126	0xbe268245	-0.16260631
127	0xbe14d767	-0.14535294
128	0xbe44c41a	-0.19215432
129	0xbda02108	-0.078188
130	0x3e043a4b	0.12912862
131	0xbea30b3c	-0.3184451
132	0x3e10a3f7	0.14125048
133	0xbe361491	-0.17781283
134	0x3e74d5f4	0.23909742
135	0xbe441fc4	-0.19152743
136	0x3e70cf29	0.23516525
137	0xbdaaf173	-0.08346834
138	0x3d5ac2bc	0.05340837
139	0xbe955905	-0.2916948
140	0xbe93b544	-0.28849232
141	0x3e4545fb	0.19264977
142	0xbe3e5271	-0.18586136
143	0xbee27b53	-0.44234714
144	0x3d07cae8	0.03315249
145	0x3dd3a76b	0.10334667
146	0xbe864031	-0.2622085
147	0xbcf05613	-0.029337918
148	0xbe247e09	-0.16063704
149	0x3e91bc3c	0.28463924
150	0xbe9b35f3	-0.30314597
151	0x3d71e965	0.059060473
152	0xbd2b2029	-0.041778717
153	0xbe9169c4	-0.28401005
154	0xbc28bf92	-0.01029958
155	0x3e53ca09	0.20682539
156	0x3e8e334c	0.2777351
157	0xbe80cb08	-0.251549
158	0x3e9143fe	0.28372186
159	0x3dca5dda	0.09881182
160	0x3ed78e03	0.42100534
161	0x3dc338a2	0.09532286
162	0xbd9df59b	-0.07712861
163	0xbddeb762	-0.10874821
164	0x3e275a92	0.16343144
165	0xbe721f69	-0.23644795
166	0x3dc708e2	0.09718491
167	0xbda823b4	-0.08209935
168	0x3e86f9b0	0.2636237
169	0x3e98f797	0.29876396
170	0xbde6a75a	-0.112623885
171	0xbcbe2916	-0.02321295
172	0x3e5d8091	0.21631075
173	0x3d9eb642	0.07749607
174	0x3e5a3465	0.2130905
175	0x3cbe3309	0.023217695
176	0xbefaeedf	-0.4901037
177	0x3d77126f	0.060320314
178	0xbe9315c6	-0.2872755
179	0x3e613719	0.21993674
180	0xbe4125ec	-0.18862122
181	0x3d960221	0.07324625
182	0xbe6c53ab	-0.23078792
183	0xbedcfadd	-0.43160143
184	0x3e9d703d	0.30749694
185	0xbe9beaf7	-0.304527
186	0x3d6bad19	0.057538126
187	0xbc84e022	-0.016220156
188	0xbe382ee7	-0.17986642
189	0xbc64c59b	-0.013963128
190	0xbe64ccfb	-0.22343819
191	0xbe47c86d	-0.1951005
192	0x3d4fbfd0	0.050720036
193	0xbe09d705	-0.1346093
194	0x3d5234e7	0.051319983
195	0x3dcce8ae	0.10005318
196	0xbe82daac	-0.25557458
197	0x3e207741	0.15670492
198	0x3dabb6e4	0.08384493
199	0x3d8254a9	0.06363804
200	0xbd5ea9c2	-0.054361112
201	0x3e59999a	0.2125
202	0x3d86eccf	0.065881364
203	0xbe70a7a2	-0.23501447
204	0x3e118ae7	0.14213143
205	0xbea0ba01	-0.3139191
206	0xbe6db9bb	-0.23215382
207	0x3e9c2768	0.30498815
208	0xbdcb0da4	-0.09914711
209	0xbe1d2496	-0.15345988
210	0xbe48bdba	-0.19603625
211	0x3d8a49cf	0.06752359
212	0x3e148d13	0.1450694
213	0x3e570d72	0.21001223
214	0xbdd479cd	-0.10374794
215	0xbe8eea71	-0.2791324
216	0xbecb64de	-0.39725393
217	0x3dd7367f	0.10508441
218	0x3d73526e	0.059404783
219	0x3e463db3	0.19359474
220	0xbe329f8d	-0.17443676
221	0xbc9c5701	-0.019084455
222	0xbe175764	-0.1477943
223	0xbea03fff	-0.31298825
224	0x3dcd6a48	0.10030037
225	0x3dc7e46e	0.097603664
226	0x3cc46a2c	0.023976408
227	0x3e21b348	0.15791047
228	0x3c40d7d7	0.01177021
229	0xbddfffe1	-0.10937477
230	0xbe26d623	-0.16292624
231	0x3da07172	0.07834138
232	0x3e405406	0.18782052
233	0x3e8ab126	0.2708828
234	0xbdc8515a	-0.097811416
235	0x3e06ee46	0.13176832
236	0xbe82fddf	-0.25584313
237	0x3e0ac17d	0.13550372
238	0xbc9748a2	-0.018467251
239	0x3de718df	0.11284041
240	0x3e75b048	0.23993027
241	0x3e77d2e5	0.24201544
242	0xbee3d348	-0.44497132
243	0x3e397cd2	0.18114021
244	0xbdf592b5	-0.11990873
245	0xbd909b82	-0.07060911
246	0x3ea4ce9f	0.3218889
247	0xbed22696	-0.41045064
248	0xbe4ca3ab	-0.1998431
249	0xbe41c7f7	-0.18923937
250	0x3e1e79e4	0.15476185
251	0x3dfbc960	0.122942686
252	0xbee75a73	-0.45186195
253	0xbec4e23c	-0.38453853
254	0x3dac90f3	0.08426084
255	0x3a848f68	0.0010113539

StatefulPartitionedCall/sequential/dense_1/BiasAdd/ReadVariableOp:0 f4 [10]
0	0xbd03b347	-0.032153394
1	0xbd5fd837	-0.054649558
2	0xbb220443	-0.0024721778
3	0xbc569799	-0.013097667
4	0xbcc61220	-0.024178565
5	0xbcc09676	-0.023509245
6	0xbbf724c0	-0.0075422227
7	0x3cd41d49	0.02589287
8	0x3dae5393	0.08512034
9	0x3c026c1d	0.0079603465

StatefulPartitionedCall/sequential/dense/MatMul/ReadVariableOp:0 f4 [120, 84]
0	0xbd353d85	-0.044248123
1	0x3e29fdd9	0.16600741
2	0x3c837faf	0.016052095
3	0x3d9ccdd4	0.07656446
4	0x3e0512a4	0.12995392
5	0xbd60917d	-0.05482625
6	0x3d6a29c4	0.057168737
7	0x3ca9b232	0.020714853
8	0x3d6178ab	0.05504672
9	0xbe24bc9f	-0.16087578
10	0x3d855089	0.065095015
11	0x3c4dcf05	0.012561564
12	0xbdebaa89	-0.115071364
13	0x3d999d60	0.0750072
14	0xbd052f54	-0.03251584
15	0xbd568a9f	-0.052378293
16	0xbcccbb42	-0.024991635
17	0x3b235f77	0.0024928728
18	0xbd2ca219	-0.042146776
19	0x3d99c030	0.0750736
20	0x3e24bb4f	0.16087078
21	0x3df392de	0.11893247
22	0x3e267de3	0.1625896
23	0xbd723c92	-0.059139796
24	0xbc5e9925	-0.013586317
25	0xbd9e2371	-0.07721604
26	0xbe07f236	-0.1327599
27	0xbd3c50e7	-0.045975592
28	0x3e0d5599	0.13802184
29	0x3e1fa449	0.15590014
30	0x3dc90298	0.09814948
31	0x3e00c3ae	0.12574646
32	0x3e2d6d07	0.16936122
33	0xbda0c891	-0.07850755
34	0xbdc46186	-0.095889136
35	0x3d280650	0.041021645
36	0x3c6b6100	0.014366388
37	0xbcd88daa	-0.026434738
38	0x3cb411be	0.021981116
39	0xbe07b821	-0.13253833
40	0x3e263f20	0.16235018
41	0x3e26a6c0	0.16274548
42	0xbd8e0f2d	-0.06936488
43	0xbdd388d2	-0.10328831
44	0xbe1ace76	-0.15117821
45	0x3d4971f8	0.049180955
46	0xbe08d37c	-0.13361925
47	0x3c29df57	0.01036819
48	0xbda0d7e9	-0.078536816
49	0x3d5208e9	0.05127803
50	0xbdc81c25	-0.09770993
51	0x3c870bcf	0.016485123
52	0xbce7e033	-0.028305149
53	0xbbcd8df0	-0.006273024
54	0x3e049b05	0.1294976
55	0xbde8b603	-0.11362841
56	0x3d5d1c09	0.053981815
57	0x3cc7e24b	0.024399897
58	0x3d16efa3	0.03684963
59	0xbd1ae678	-0.03781745
60	0x3bafc45a	0.005363983
61	0xbc7b0794	-0.015321631
62	0xbd3438bc	-0.04399942
63	0x3cf2bbc5	0.029630551
64	0x3dde545e	0.108559355
65	0x3d639e3a	0.05557082
66	0xbde0d03e	-0.10977219
67	0xbd22e05b	-0.039764743
68	0xbe049a55	-0.12949498
69	0xbe2d57d3	-0.16928034
70	0xbabf7a65	-0.001460862
71	0xbe2a2637	-0.1661614
72	0xbe32a687	-0.17446338
73	0x3e1464e2	0.14491609
74	0x3e0bd0d4	0.1365388
75	0x3cc182d3	0.023621952
76	0xbde2a91c	-0.11067411
77	0xbdd044e1	-0.101693876
78	0xbdcb966f	-0.09940802
79	0xbe268522	-0.16261724
80	0x3d717984	0.058953777
81	0x3dd17201	0.10226823
82	0x3e2ccedb	0.16875784
83	0xbe1f5419	-0.15559424
84	0xbd5b1935	-0.053490836
85	0x3ccade88	0.024764314
86	0xbe1560dd	-0.14587732
87	0xbc3d4837	-0.011552862
88	0xbd39195f	-0.04519021
89	0x3e32d4f3	0.17464046
90	0xbddd6f56	-0.10812251
91	0xbd88d579	-0.06681342
92	0x3e1dd21f	0.15412186
93	0xbd84c271	-0.06482399
94	0xbe12b21b	-0.14325754
95	0xbd88e445	-0.06684164
96	0xbd737c7e	-0.059444897
97	0xbd9e6960	-0.077349424
98	0xbcfe3901	-0.031033041
99	0xbe0950f2	-0.13409784
100	0x3d874d2b	0.066065155
101	0x3ccee270	0.025254458
102	0xbdefefdf	-0.11715674
103	0x3dbf307e	0.09335421
104	0x3e10d10c	0.14142245
105	0x3d9921f7	0.074771814
106	0xbd80cf93	-0.06289592
107	0xbe287896	-0.1645225
108	0xbe31cada	-0.17362538
109	0xbc4a4f27	-0.012347973
110	0xbd42e89d	-0.04758512
111	0x3e11649e	0.14198539
112	0x3d051cd1	0.032498185
113	0x3defa444	0.11701253
114	0xbe2374d4	-0.15962535
115	0x3d400622	0.04688085
116	0x3d99abe3	0.07503488
117	0xbd2413fc	-0.04005812
118	0x3d38b6d6	0.04509624
119	0xbda696a4	-0.08134201
120	0x3daf1f1e	0.08550857
121	0xbd829a1d	-0.06377051
122	0xbdc43a7a	-0.09581466
123	0x3d1982b0	0.03747815
124	0xbc9c2384	-0.019059904
125	0xbe05c8b7	-0.13064848
126	0xbd383876	-0.04497572
127	0xbd9e7f92	-0.07739176
128	0xbd60c8af	-0.054878887
129	0xbd8fce66	-0.07021789
130	0x3e048d23	0.12944464
131	0xbe01cae7	-0.12675057
132	0x3dd5cf13	0.10439887
133	0xbdc53e79	-0.09631056
134	0x3dfb1471	0.12259758
135	0x3cdf0d77	0.0272281
136	0x3cdbb6ed	0.026820624
137	0x3cfc3428	0.030786589
138	0xbde6d448	-0.11270958
139	0xbddbc7da	-0.10731478
140	0x3d007b96	0.03136786
141	0x3de924ab	0.11383947
142	0xbd097e02	-0.033567436
143	0x3d8898b6	0.06669752
144	0x3d361fc1	0.044463877
145	0x3adad900	0.0016696751
146	0xbccaca15	-0.024754563
147	0x3cc2211d	0.02369743
148	0xbd6ffc66	-0.058590315
149	0xbdfdc000	-0.12390137
150	0x3e400aa2	0.18754056
151	0xbd228589	-0.03967813
152	0x3d87d021	0.06631494
153	0x3c5dcd70	0.01353775
154	0xbddbb6e0	-0.1072824
155	0xbdfadc65	-0.12249068
156	0x3cfd5d42	0.030928258
157	0x3c169130	0.009189889
158	0x3ccd3f20	0.025054514
159	0xbe33c824	-0.17556816
160	0x3e269c1d	0.1627049
161	0xbe0a6793	-0.13516073
162	0xbdf5711a	-0.11984463
163	0x3d8836a1	0.06651045
164	0xbe20f474	-0.15718251
165	0x3c8220c0	0.015884757
166	0xbbd23640	-0.0064151585
167	0x3d4374e4	0.047718897
168	0x3e33d35d	0.17561097
169	0xbd73c66f	-0.059515413
170	0x3d3175cc	0.04332523
171	0xbd20d394	-0.039264277
172	0xbe1cec15	-0.15324433
173	0x3d46ddc5	0.04855134
174	0x3e2d7d18	0.1694225
175	0xbda23acb	-0.0792137
176	0x3e148a5b	0.14505903
177	0x3d81fc4a	0.063469484
178	0x3d4d4f70	0.050124586
179	0xbe212c7f	-0.1573963
180	0xbca823a6	-0.020524811
181	0x3e3355f7	0.17513262
182	0x3df24a57	0.118305854
183	0xbd37c290	-0.044863284
184	0x3e59bb4e	0.21262857
185	0xbe30ad96	-0.17253718
186	0x3dbec848	0.09315544
187	0x3d8aa79b	0.067702495
188	0x3e3fc358	0.18726861
189	0x3e2631ef	0.16229986
190	0x3d44e4a7	0.048069622
191	0x3e22f76b	0.15914695
192	0xbdfb1611	-0.12260068
193	0x3de9c1fe	0.11413954
194	0x3def7c98	0.11693686
195	0xbd4c4279	-0.04986808
196	0xbde403bc	-0.11133525
197	0x3e2b1ecc	0.16710967
198	0x3e22239c	0.15833896
199	0x3e3397a4	0.17538315
200	0x3d77a331	0.060458366
201	0xbdc88c24	-0.09792355
202	0x3e24a4cb	0.16078489
203	0x3cb4e697	0.02208261
204	0x3e29a803	0.16567998
205	0x3caca99b	0.021076968
206	0xbd198916	-0.03748425
207	0x3d0b2ef0	0.03398031
208	0x3e1b8f32	0.15191343
209	0x3de3d691	0.1112491
210	0x3da2a7d3	0.07942166
211	0x3d9fb922	0.07798983
212	0xbd7d0b41	-0.06177831
213	0xbe1ffe1a	-0.15624276
214	0x3da5c1bc	0.080935925
215	0x3e2884e3	0.16456942
216	0x3dba12f9	0.0908565
217	0xbd292629	-0.041296158
218	0x3d1bc48a	0.03802923
219	0x3dea1835	0.114303984
220	0xbe1a5376	-0.150709
221	0x3c27adba	0.010234291
222	0xbdb3c29d	-0.08777354
223	0xbdd56cd0	-0.10421145
224	0xbda813c5	-0.08206896
225	0x3c6174e2	0.013760777
226	0xbe10f01d	-0.14154096
227	0xbce5dbae	-0.028058853
228	0x3d1022f5	0.035189588
229	0xbd6370a2	-0.055527337
230	0x3db87689	0.09006984
231	0x3e5ab914	0.21359664
232	0xbe302b29	-0.17203964
233	0xbe5ff74c	-0.2187168
234	0x3dfe51ba	0.12417932
235	0xbd5054fe	-0.050862305
236	0x3e4fe5c7	0.20302497
237	0xbde86758	-0.11347836
238	0xbdc33448	-0.09531456
239	0x3da4b861	0.0804298
240	0x3e01c1ad	0.12671538
241	0xbe51c42d	-0.20484991
242	0xbe3a8e13	-0.1821826
243	0xbe285a92	-0.164408
244	0x3d5ab072	0.053390928
245	0xbe000336	-0.12501225
246	0x3e1253ab	0.1428973
247	0x3dd32fdd	0.103118636
248	0xbdd06234	-0.10174981
249	0x3ddcb159	0.10776014
250	0x3e080199	0.1328186
251	0xbdf156ba	-0.1178412
252	0x3d6ba14d	0.057526875
253	0xbddd3f9c	-0.10803148
254	0xbe132049	-0.14367785
255	0x3da720dc	0.08160564

StatefulPartitionedCall/sequential/dense/BiasAdd/ReadVariableOp:0 f4 [84]
0	0xbc3799e8	-0.011206128
1	0x3d745b6d	0.059657503
2	0x3ce2a95d	0.02766865
3	0xba89ab5c	-0.001050334
4	0x3d29c81e	0.041450612
5	0x3c8af1ab	0.01696094
6	0x3d829e37	0.06377833
7	0x3d869dac	0.06573042
8	0xbd061b34	-0.032740787
9	0x3db051c5	0.08609346
10	0x3c1afaf9	0.009459251
11	0xbc2c4319	-0.010514044
12	0xbca6489f	-0.0202983
13	0x3d129c1b	0.035793405
14	0xbc1f1775	-0.009710182
15	0x3d499c2e	0.04922121
16	0x3dc32741	0.095289715
17	0x3b4294fc	0.0029690852
18	0xbc52882b	-0.012849848
19	0x3d158163	0.036500346
20	0x3b6bb9e2	0.003596895
21	0x3d9e7cba	0.077386335
22	0xbcbbdcb7	-0.022932393
23	0x3a3b8298	0.0007152944
24	0x3c3350d2	0.010944562
25	0x3c7a80b6	0.015289476
26	0x3d504bfb	0.05085371
27	0x3c052885	0.008127336
28	0xbb407682	-0.002936751
29	0x3c5eafb3	0.013591695
30	0x3d041a0d	0.032251406
31	0x3d0e77ca	0.03478221
32	0xbc33c629	-0.010972538
33	0xbd95c401	-0.073127754
34	0x3d870a20	0.06593728
35	0xbd2895ad	-0.041158367
36	0x3c827305	0.015923986
37	0x3b923e58	0.0044629984
38	0xbc4e791b	-0.012602116
39	0x3c61d676	0.013784042
40	0x3c7b3e8c	0.015334737
41	0x3d20d406	0.0392647
42	0x3db6d273	0.08926859
43	0x3d36422d	0.044496704
44	0x3cff9fa6	0.031204056
45	0xbc6d18bc	-0.014471229
46	0x3cb8edb8	0.02257429
47	0x3ba06288	0.0048945583
48	0x3d1be87a	0.038063504
49	0x3d4367e2	0.047706492
50	0x3d93e04a	0.07220514
51	0xbcd36247	-0.025803698
52	0x3d357f4c	0.044310853
53	0xbaed7264	-0.0018115756
54	0xbceb74b1	-0.028742166
55	0xbcf66ed5	-0.030082146
56	0xbc8a19e8	-0.016858056
57	0x3d37cd2e	0.04487341
58	0x3d9c8f53	0.076445244
59	0xbd649179	-0.055802796
60	0x3cb26db4	0.021780826
61	0xba433bb4	-0.0007447556
62	0x3c47e78a	0.012201199
63	0x3d06aa20	0.032877088
64	0xbb5894ca	-0.003304767
65	0x3b532e2f	0.0032223572
66	0x3d6c73d5	0.057727654
67	0x3d963dad	0.073359825
68	0x3d2f4752	0.042792626
69	0xbca7e4f9	-0.020494925
70	0x3d670bea	0.056407847
71	0x3cdc8845	0.026920447
72	0x3d630e0b	0.055433314
73	0x3a05ce52	0.00051042915
74	0x3954296d	0.00020233328
75	0xbc836c51	-0.01604286
76	0xbcfdcc60	-0.030981243
77	0x3ce81ce2	0.028334085
78	0xbbab24e1	-0.005222902
79	0x3d418a70	0.047251165
80	0xbd588970	-0.052865446
81	0x3d2ea523	0.042637955
82	0xbcb47405	-0.022027979
83	0xbc5934f5	-0.013257255

StatefulPartitionedCall/sequential/conv2d_2/Conv2D/ReadVariableOp:0 f4 [120, 16, 5, 5]
0	0xbc6428b9	-0.013925725
1	0xbd281269	-0.041033182
2	0xbd40fdd3	-0.047117066
3	0xbd3ec203	-0.046571743
4	0x3cbb2c8b	0.022848388
5	0x3cc7e83d	0.024402732
6	0x3cd5be96	0.026091855
7	0xbd351655	-0.04421075
8	0x3c986b7b	0.018605938
9	0xbd3598ae	-0.04433506
10	0xbd2f76dd	-0.042837966
11	0xbbc23723	-0.005926983
12	0xbc7c4ef2	-0.015399681
13	0x3c7fbf62	0.015609594
14	0x3b367352	0.0027839732
15	0xbcbc898d	-0.023014808
16	0x3cb63539	0.022242175
17	0xbd37b57d	-0.044850815
18	0xbd2ed462	-0.042683013
19	0xbc748cf7	-0.014926187
20	0x3b9c3d3d	0.0047680424
21	0xbd458707	-0.048224475
22	0x3c7fc85f	0.015611737
23	0xbd06a9e6	-0.03287687
24	0xbc8d1679	-0.01722263
25	0xbcc4acb7	-0.024008138
26	0x3cd47c53	0.025938189
27	0x3cb6fdec	0.022337876
28	0x3c3c406d	0.01148997
29	0x3b82bbb0	0.0039896592
30	0xbd164c2e	-0.036693744
31	0xbb726eff	-0.0036992428
32	0xbbd85482	-0.006601871
33	0xbc24557d	-0.010030148
34	0x3c16ebec	0.009211522
35	0x3cc043b6	0.023469787
36	0xbd083b1c	-0.033259496
37	0xbbfdb5dc	-0.0077426266
38	0xbd106148	-0.035249025
39	0xbd0615ba	-0.032735564
40	0xbd49b657	-0.04924616
41	0xbc99bc4e	-0.018766548
42	0x3ceebc66	0.02914257
43	0xbd245b4f	-0.04012614
44	0x3d1063bf	0.035251375
45	0xbcffd68b	-0.031230232
46	0x3d02c15e	0.03192269
47	0x3af800a5	0.001892109
48	0xbab64ba0	-0.0013908036
49	0xbcf61fae	-0.030044403
50	0x3cf5f57d	0.030024284
51	0xbc46beda	-0.0121304635
52	0x3d08e5bb	0.033422213
53	0x3c7e806f	0.015533551
54	0xbc825bd4	-0.015912928
55	0x3cd1767b	0.025569191
56	0xbc0ff21b	-0.00878575
57	0xbc8f54d5	-0.017496506
58	0xbd02e98d	-0.031961013
59	0xbcf081fb	-0.029358855
60	0x3b04f367	0.002028668
61	0xbd28b449	-0.04118756
62	0x3ca45362	0.020059291
63	0xbc2cd3ea	-0.010548571
64	0x3bfb38db	0.00766669
65	0xbd47f4d9	-0.04881749
66	0xbd075b53	-0.033046078
67	0x3aa7af14	0.0012793266
68	0xbcabfa42	-0.020993356
69	0xbd1563ce	-0.036472134
70	0x3ce51dd2	0.027968321
71	0xbd33e567	-0.043919947
72	0x3ccba9f4	0.024861313
73	0x3becf4f2	0.007231348
74	0xbc929b47	-0.017896308
75	0x3cc26b48	0.023732796
76	0x3c247814	0.0100383945
77	0x3b486c24	0.0030582035
78	0x3d03471e	0.032050245
79	0xbd3a2192	-0.04544217
80	0x3ca427ac	0.020038448
81	0xbd013494	-0.031544283
82	0xbcca01d0	-0.024659067
83	0xbd168ff1	-0.036758367
84	0x3cc2b558	0.023768112
85	0x3d021eae	0.03176754
86	0x3cff314a	0.031151433
87	0xbcba7f56	-0.022765797
88	0x3cbff332	0.023431394
89	0x3cf20f35	0.029548267
90	0xbc98e9f2	-0.018666241
91	0xbb2470bc	-0.002509161
92	0xbacbc79f	-0.0015547163
93	0x3ca4f67a	0.02013706
94	0xbb803625	-0.0039127045
95	0xbd272434	-0.04080601
96	0xbcf378e4	-0.029720731
97	0x3cb2ca07	0.02182485
98	0x3c1544fc	0.009110685
99	0xbc5a61a9	-0.013328948
100	0xbcd95566	-0.026529979
101	0xbcd1bb6c	-0.025602065
102	0x3c9ea255	0.019364515
103	0xbd45901f	-0.048233148
104	0xbc0be98b	-0.008539568
105	0xbb7b8de7	-0.003838414
106	0xbd2a3577	-0.041554894
107	0xbd064380	-0.032779217
108	0xbbbee454	-0.0058255587
109	0x3a97bedf	0.001157727
110	0xbd42402c	-0.04742448
111	0xbcb00ab0	-0.021489471
112	0xbd0e4d08	-0.03474143
113	0xbb8122c7	-0.0039409134
114	0x3c51421f	0.012772112
115	0xbba2d4a5	-0.004969197
116	0xbd1bf02d	-0.038070846
117	0x3bd92ab2	0.006627404
118	0xbc953cc0	-0.018217444
119	0x3cbcb59b	0.023035815
120	0xbd06e6bc	-0.03293489
121	0xbcb8b231	-0.022545906
122	0xbc9f29b6	-0.019429069
123	0xbba4779d	-0.005019142
124	0xbcd11d47	-0.025526656
125	0x3c9c388d	0.019069934
126	0xbc99b8e0	-0.018764913
127	0xb9c6e727	-0.00037937725
128	0xbc96449f	-0.018343268
129	0xbc098c53	-0.008395272
130	0xbcf0a298	-0.029374406
131	0x3ca9c1ae	0.020722236
132	0x3bfe34cc	0.0077577587
133	0xb7456c79	-1.1767371e-05
134	0x3cafc317	0.02145533
135	0xbcd4bfaf	-0.025970308
136	0x3ca5876c	0.020206176
137	0x3c8f8e65	0.017523954
138	0x3cd1f041	0.025627257
139	0x3ca187c8	0.019718066
140	0xbd0540be	-0.032532446
141	0xbc070a3d	-0.008242187
142	0xbd25b392	-0.040454455
143	0xbba73f9a	-0.0051040174
144	0xbbff1038	-0.007783916
145	0xbc0eec2f	-0.008723303
146	0xbc09c5c2	-0.008408966
147	0x3bba2a96	0.005681346
148	0xbbca831c	-0.0061801802
149	0x3c93ee5d	0.018057996
150	0x3cd8a639	0.026446449
151	0xbd3527cc	-0.044227406
152	0xbb94abd3	-0.0045370846
153	0x3c4aa25b	0.01236781
154	0x3cef48c1	0.029209496
155	0xbb835a2a	-0.004008551
156	0xbcd70309	-0.026246564
157	0xbcd35eaf	-0.025801985
158	0xbd1654b5	-0.036701877
159	0x3c8cbd55	0.017180124
160	0x3c87356f	0.016504971
161	0x3c4ccd1c	0.012500074
162	0xbd251b8c	-0.040309474
163	0x3b05908c	0.0020380346
164	0x3ca8c017	0.020599408
165	0x3c8af90f	0.016964464
166	0x3ca06b3d	0.019582385
167	0xbd242c69	-0.040081415
168	0x3ca0edcb	0.019644639
169	0xbc5a66a1	-0.013330133
170	0xbc7d394f	-0.015455558
171	0xbb93d3c5	-0.004511329
172	0xbd1c4da1	-0.03815997
173	0x3abfe00c	0.0014638915
174	0x3c0ee427	0.008721388
175	0x3d29f5bf	0.041494127
176	0xbc82a7b6	-0.015949111
177	0xbd245ce3	-0.040127646
178	0x3ad44ec8	0.0016197795
179	0xbbb7826e	-0.005600265
180	0x3ce286c7	0.027652157
181	0xbcbf7756	-0.023372333
182	0x3cadae76	0.021201354
183	0x3d37d95e	0.044885032
184	0xbd3a0d93	-0.0454231
185	0x3b495bb5	0.0030724828
186	0xbbba669f	-0.005688503
187	0x3cc4ad31	0.024008365
188	0x3a118485	0.0005551058
189	0xbc013100	-0.007885218
190	0xbc29b84b	-0.01035888
191	0x3d07e6bd	0.033179034
192	0xbd1a0701	-0.037604336
193	0xbd3f2ed7	-0.04667553
194	0xbd2843ee	-0.041080408
195	0xbc2c7bdc	-0.010527577
196	0x3cf6f187	0.030144466
197	0x3c845288	0.016152635
198	0x3c8c0464	0.017091937
199	0xbd17e15a	-0.037080146
200	0xbbcbaca7	-0.00621565
201	0x3cf6737b	0.030084362
202	0xbc905999	-0.017620848
203	0xbbe9cf1d	-0.0071352855
204	0xbbea5bc0	-0.0071520507
205	0x3cc63c4c	0.024198674
206	0xbc334570	-0.010941848
207	0xbd0643bf	-0.03277945
208	0xbcbea09c	-0.023269944
209	0xbd0b0e1b	-0.033949
210	0xbd2ee822	-0.042701848
211	0x3ab66ba5	0.0013917579
212	0x3cabb438	0.020959958
213	0x3c0193f8	0.007908814
214	0x3c97be2f	0.018523304
215	0x3d1f3514	0.03886898
216	0x3b1b782b	0.0023722749
217	0x3cb4d187	0.022072567
218	0xbb1cd614	-0.0023931311
219	0x3d0f742a	0.035022892
220	0xbb6b00d4	-0.0035858648
221	0x3b6f2c56	0.0036494932
222	0x3cae6e9b	0.021292975
223	0xbd2f0d67	-0.04273739
224	0xbc1a658c	-0.009423625
225	0xbb27738d	-0.0025551051
226	0x3ca5f574	0.020258643
227	0xbc38bdad	-0.011275691
228	0xbd0a02dc	-0.033694133
229	0xb82ce879	-4.1224503e-05
230	0x3cebd15f	0.02878636
231	0x3cdc28c5	0.02687491
232	0xbbf338ab	-0.007422527
233	0xbd2dd15b	-0.042435985
234	0x3b2d7bfc	0.0026471606
235	0xbbfa83a0	-0.0076450855
236	0x3ca5c3ca	0.020234961
237	0xbd43f108	-0.047837287
238	0xbc8dd26b	-0.01731225
239	0xbd0c8b82	-0.034312733
240	0x3b5b4664	0.0033458704
241	0xbd02fcb9	-0.031979296
242	0x3cab9528	0.020945147
243	0xbbb4b509	-0.005514745
244	0xbc2cd594	-0.010548968
245	0xbd1f6504	-0.038914695
246	0xbbec4cf0	-0.00721132
247	0xbb8de6da	-0.004330498
248	0xbd457662	-0.0482086
249	0x3d145e0e	0.03622251
250	0x398df81a	0.00027078466
251	0xbcb712ae	-0.022347774
252	0xbc0c27cd	-0.008554411
253	0x3d10aa20	0.035318494
254	0xbcc49fec	-0.024002038
255	0x3c901c5d	0.01759165

StatefulPartitionedCall/sequential/conv2d_2/BiasAdd/ReadVariableOp:0 f4 [120]
0	0xbc0bf17c	-0.008541461
1	0xbc846e57	-0.016165895
2	0x3db5b52f	0.08872449
3	0xbbd0c80b	-0.006371503
4	0x3cfa7f71	0.030578347
5	0xbd044f0e	-0.032301955
6	0xbc38a9c9	-0.011270949
7	0x3cd19509	0.02558376
8	0xbc0e2ccc	-0.008677673
9	0x3cd05fe9	0.025436359
10	0x3cec9a0a	0.028882045
11	0xbc00abab	-0.007853429
12	0xb97c84dc	-0.00024082087
13	0xbbbcca56	-0.005761425
14	0xbc4f641a	-0.012658143
15	0x3d15a5ad	0.036534954
16	0xbcd22283	-0.025651222
17	0xbd35a991	-0.044351164
18	0x3d2f6330	0.042819202
19	0x3da2ef39	0.07955784
20	0x3dc742b7	0.09729522
21	0xbce2dae7	-0.027692271
22	0x3beea682	0.007283033
23	0xbc0e04d1	-0.0086681405
24	0xbce1ab3c	-0.027547471
25	0x3cb3f797	0.021968646
26	0xbca6fc1f	-0.020383893
27	0xbc18948c	-0.00931276
28	0xbcea16f9	-0.028575407
29	0xbbe56adc	-0.007001264
30	0x3d989a77	0.07451337
31	0xbc771d80	-0.015082717
32	0xbcf75a8c	-0.030194543
33	0x3dcfcb6a	0.1014622
34	0x3d56bf22	0.052428372
35	0x3d182611	0.037145678
36	0xbbdca953	-0.006734052
37	0x3d0b3409	0.03398517
38	0xbcde5834	-0.027141668
39	0x3d9a8dd1	0.075465806
40	0x3ceb6d4d	0.028738642
41	0xbcd9f65f	-0.026606737
42	0x3ac6d284	0.001516894
43	0x3d00e8ba	0.031471945
44	0x3d5bdeb7	0.053679194
45	0x3d7e2b84	0.06205322
46	0xbcb693d0	-0.02228728
47	0x3ccef994	0.025265492
48	0xb8afecf6	-8.388788e-05
49	0x3c0f57db	0.008748974
50	0xbc82c43a	-0.015962709
51	0x3d139869	0.03603402
52	0x3cf2bd8f	0.029631404
53	0x3cbfc567	0.023409558
54	0x3b2678ac	0.0025401516
55	0xbc28ef93	-0.010311025
56	0xbbc73ed9	-0.00608049
57	0xbc053b64	-0.008131836
58	0xbcb56359	-0.0221421
59	0x3d2672d3	0.04063685
60	0xbc762d65	-0.015025471
61	0xbbcf0bb1	-0.0063185324
62	0x3cb45bfe	0.022016522
63	0xbbe3d8c2	-0.00695333
64	0x3d44e7f5	0.048072774
65	0x3c6092bc	0.013706859
66	0xbce964b9	-0.028490411
67	0x3c98d98d	0.018658424
68	0xbc1ce47b	-0.009575958
69	0x3a8bc4b7	0.0010663484
70	0x3cc2a6cf	0.023761181
71	0xbc1da122	-0.009620937
72	0x3cb73cfa	0.022367943
73	0x3cb2e0c3	0.02183569
74	0x3d0cd276	0.0343804
75	0xbc6c1f98	-0.014411829
76	0xbd04d76a	-0.032431997
77	0x3d5c947b	0.05385254
78	0x3ced8f5a	0.02899902
79	0xbc004314	-0.007828493
80	0xbc267ed4	-0.010162074
81	0xbc9f05e1	-0.019411983
82	0xbb8d1328	-0.004305262
83	0xbc0161a1	-0.007896812
84	0x3d7b01dc	0.06128107
85	0xbb8d295f	-0.0043079103
86	0x3ced041b	0.028932622
87	0x3cafdbb5	0.02146707
88	0x3ceade7c	0.028670542
89	0xbc4f9308	-0.012669332
90	0x3d94a1c5	0.072574176
91	0x3c4a6a9e	0.012354521
92	0xbc16adc1	-0.0091967
93	0x3c5de9f9	0.013544553
94	0x3cfcefe8	0.030876115
95	0x3cddca7c	0.027074091
96	0x3ba9c39c	0.005180789
97	0x3d409b6e	0.04702323
98	0x3d06470b	0.032782596
99	0x3ccd8303	0.025086885
100	0x3db751bf	0.08951139
101	0xbc0d1ddd	-0.008613077
102	0x3cefacad	0.029257143
103	0xbd0b9b56	-0.034083687
104	0xbd406a14	-0.046976164
105	0x3c16e696	0.009210249
106	0xbd0910c8	-0.03346327
107	0x3dd2e434	0.102974325
108	0x3cb56110	0.02214101
109	0xbc764275	-0.015030493
110	0xbc35d3fc	-0.011097904
111	0x3d011028	0.03150955
112	0xbbcad4e0	-0.0061899275
113	0xbcf3b8d3	-0.029751217
114	0xbca8434b	-0.0205399
115	0x3ca50bf7	0.020147307
116	0x3dbdd45a	0.092690185
117	0x3cc38398	0.02386646
118	0x3ca4f789	0.020137565
119	0x3d5a7e83	0.053343307

StatefulPartitionedCall/sequential/conv2d_1/Conv2D/ReadVariableOp:0 f4 [16, 6, 5, 5]
0	0xbe2cfa7f	-0.16892432
1	0x3d95fbd1	0.07323421
2	0x3d809e7e	0.0628023
3	0xbcc9e8e3	-0.024647182
4	0xbce8ecff	-0.028433321
5	0xbdc2be20	-0.0950892
6	0x3b73224a	0.0037099295
7	0xbcea4009	-0.028594987
8	0xbe30a10a	-0.17248932
9	0xbd95d99a	-0.07316895
10	0x3d08af93	0.033370566
11	0xbd58de64	-0.052946463
12	0xbe092628	-0.13393462
13	0xbe06100e	-0.13092062
14	0x3cf1d948	0.029522553
15	0xbd9cfe5c	-0.07665703
16	0xbcac3519	-0.021021413
17	0x3c8bac27	0.017049862
18	0xbdda3bf6	-0.10655968
19	0xbe835267	-0.25648805
20	0x3cacbc69	0.021085935
21	0x3b3f22da	0.002916506
22	0x3cd26405	0.025682459
23	0xbe73f583	-0.23824124
24	0xbe7d3f5f	-0.24731205
25	0x3ce7f4ce	0.028314974
26	0xbdd6c1b1	-0.104861625
27	0x3d4b5662	0.049642928
28	0x3dfa0ed1	0.12209857
29	0x3de126fe	0.10993765
30	0x3d709a09	0.05874065
31	0x3d2fc5dc	0.042913303
32	0xbe2d44cf	-0.1692078
33	0x3c20a342	0.009804549
34	0x3d430825	0.04761519
35	0x3dd2ed75	0.102991976
36	0x3c41c936	0.011827758
37	0xbce3fd1a	-0.02783065
38	0xbd666419	-0.056247804
39	0x3de81b9d	0.11333392
40	0xbd9f1302	-0.07767297
41	0xbcead4c0	-0.0286659
42	0x3e2fddc9	0.17174448
43	0x3e741d0e	0.23839208
44	0x3e13be2c	0.14428014
45	0xbdbfefc9	-0.09371907
46	0xbd13e322	-0.036105283
47	0xbd8859ea	-0.06657775
48	0x3d2893b0	0.04115647
49	0x3d6889d3	0.056772064
50	0x3d7c4d1d	0.06159698
51	0xbdab1226	-0.08353071
52	0xbcc54c2a	-0.02408417
53	0x3de693a8	0.11258632
54	0x3d8daa10	0.069172025
55	0x3d83fbd9	0.064445205
56	0xbbef0056	-0.007293741
57	0x3c160d7e	0.00915849
58	0xbd8fd33f	-0.07022714
59	0x3daa1f25	0.083067216
60	0xbdd62098	-0.104554355
61	0xbd8782f6	-0.06616776
62	0x3c9bef50	0.019035012
63	0xbd82ca77	-0.06386273
64	0xbd037000	-0.032089233
65	0xbdbb40d4	-0.09143224
66	0x3d0fbea1	0.035093907
67	0x3c037a9a	0.008024836
68	0x3d9efbd6	0.07762878
69	0xbcd1e2c8	-0.025620833
70	0x3d4162ad	0.047213245
71	0xbda9bbda	-0.08287783
72	0x3dc0dbfa	0.09416957
73	0x3d613d88	0.05499032
74	0xbc418b4b	-0.011812995
75	0x3d05ec1a	0.032695867
76	0xbd556ab5	-0.052103717
77	0x3dc47ff5	0.09594718
78	0xbc97762a	-0.018488962
79	0x3c4a01c1	0.01232952
80	0xbdc353ee	-0.09537493
81	0xbdcc425d	-0.09973595
82	0xbdf48ee5	-0.119413175
83	0x3d868a50	0.0656935
84	0x3d258c2f	0.040416893
85	0xbbcfd6e2	-0.0063427547
86	0x3d7b70c3	0.061386835
87	0xbd8dc9b3	-0.06923237
88	0x3b6eec04	0.0036456594
89	0xbdc870dc	-0.09787151
90	0x3cbac813	0.022800481
91	0x3dceb5ea	0.10093291
92	0x3d573e36	0.052549563
93	0xbe1752e0	-0.14777708
94	0xbd5f06bf	-0.054449793
95	0xbd972231	-0.07379568
96	0xbddb9517	-0.10721796
97	0xbe36a13b	-0.17834942
98	0xbe167947	-0.14694701
99	0xbdc7bbea	-0.09752639
100	0x3d200788	0.039069682
101	0xbdf15fd6	-0.117858574
102	0x3d74cc32	0.05976505
103	0xbc6d3390	-0.0144776255
104	0x3d1a236a	0.03763143
105	0x3cef9fe9	0.029251056
106	0xbcd43c07	-0.02590753
107	0xbc4f3bda	-0.012648547
108	0xbdfd9d9f	-0.123835795
109	0x3db35e48	0.08758217
110	0x3dab961a	0.08378239
111	0x3d273a48	0.040827066
112	0x3d9b9403	0.0759659
113	0x3ddd83fa	0.10816188
114	0x3dd4993a	0.10380788
115	0xbdb1017a	-0.0864286
116	0x3e2d45c9	0.16921152
117	0x3e43f0db	0.19134848
118	0x3d9ba376	0.07599537
119	0x3df63170	0.12021148
120	0xbdf64147	-0.120241694
121	0xbd036376	-0.032077275
122	0x3d1fb545	0.03899123
123	0x3c0b8391	0.008515255
124	0x3cd93f8e	0.026519563
125	0x3cadb8a2	0.021206204
126	0x3b6be7c7	0.0035996304
127	0xbbf7861a	-0.007553828
128	0xbd0ede91	-0.034880225
129	0xbd952441	-0.072823055
130	0xbe108a4f	-0.1411526
131	0xbd8fc246	-0.070194766
132	0xbd9124fe	-0.07087134
133	0xbdf49adf	-0.11943602
134	0x3d6e712a	0.05821339
135	0xbd788063	-0.060669314
136	0x3d9a7336	0.07541506
137	0xbda56dab	-0.08077558
138	0x3dc8aa87	0.097981505
139	0x3db06c95	0.086144604
140	0x3d2f82a5	0.0428492
141	0x3d93cd15	0.07216851
142	0x3e0e740f	0.1391146
143	0x3d8de403	0.069282554
144	0xbcc33c42	-0.023832444
145	0xbd0a08cd	-0.0336998
146	0x3d18a5c8	0.037267476
147	0x3d477c13	0.04870231
148	0x3d0e16a2	0.034689553
149	0xbc94ce0e	-0.01816466
150	0x3c5c1f35	0.013435175
151	0x3d2640b7	0.04058906
152	0xbd45b8d4	-0.04827197
153	0x3c2a9eef	0.010413869
154	0x3e1f236f	0.1554086
155	0x3dd350b0	0.10318124
156	0xbe6ea503	-0.23305134
157	0xbd457490	-0.048206866
158	0xbcea0095	-0.02856473
159	0x3dfd2727	0.12360983
160	0xbe1039be	-0.14084527
161	0xbe9e29e0	-0.30891323
162	0xbe9691f0	-0.29408216
163	0x3e2c4cbb	0.16826145
164	0x3d5e5393	0.05427892
165	0xbe9470ec	-0.28992403
166	0xbe15b1a0	-0.1461854
167	0x3d0e0e29	0.034681473
168	0x3e7f4752	0.2492955
169	0x3dec3d50	0.11535132
170	0xbe0ef987	-0.13962375
171	0xbc57b4c1	-0.013165654
172	0x3e0451d5	0.12921841
173	0x3e538605	0.20656593
174	0x3ceeacce	0.029135134
175	0x3da82246	0.08209662
176	0x3e1eac8c	0.15495509
177	0x3e0d2187	0.13782321
178	0x3d925dc3	0.0714679
179	0x3d494dad	0.049146343
180	0x3d198049	0.037475858
181	0x3ddd5d24	0.10808781
182	0x3d56fd89	0.052487884
183	0xbe49b294	-0.19697028
184	0xbea49341	-0.32143596
185	0xbd9684ff	-0.07349586
186	0xbe0f2857	-0.13980232
187	0xbe963982	-0.2934075
188	0xbe5f569e	-0.21810386
189	0xbea2fc8f	-0.31833312
190	0x3e089c7c	0.13340944
191	0x3c8f36e2	0.017482225
192	0x3da59235	0.080845274
193	0x3e38cc1b	0.1804661
194	0x3e4c6754	0.19961292
195	0x3e3e24e5	0.18568762
196	0x3dc184e4	0.09449175
197	0x3e3de5ad	0.18544646
198	0x3e162539	0.14662637
199	0x3e2c51bf	0.16828059
200	0x3d478a01	0.048715595
201	0x3e21f680	0.15816689
202	0x3e317c03	0.17332463
203	0x3e2e059f	0.16994332
204	0x3e845349	0.25844792
205	0xbcc12bf2	-0.023580525
206	0x3e8b35fe	0.2718963
207	0x3e9d18ca	0.30682975
208	0x3e02b8a9	0.12765755
209	0x3dd4a00e	0.103820905
210	0x3d1dad24	0.038495198
211	0x3e1fde02	0.15612033
212	0x3b545893	0.0032401427
213	0x3db7e548	0.08979279
214	0xbc27a933	-0.010233211
215	0x3eb19d8e	0.34690517
216	0x3d7167c3	0.058936846
217	0x3dfb4ef2	0.12270917
218	0xbd167174	-0.03672929
219	0x3d614bdd	0.05500399
220	0x3ead2b77	0.33822224
221	0x3e1515f9	0.14559163
222	0x3a715fda	0.00092077034
223	0x3d229b46	0.03969886
224	0xbdcb36a5	-0.09922532
225	0x3d67c528	0.056584507
226	0xbc26fe34	-0.010192443
227	0xbd453832	-0.048149295
228	0xbd3c9807	-0.046043422
229	0x3e67bf1b	0.22631495
230	0xbdb0a727	-0.08625632
231	0xbe1b76b6	-0.15182003
232	0xbe110849	-0.14163317
233	0xbe8621f4	-0.2619778
234	0x3df7b7ad	0.1209558
235	0xbd74c4a1	-0.059757832
236	0xbd8283c9	-0.06372792
237	0xbca81fdd	-0.020523006
238	0xbe271f4a	-0.1632053
239	0x3e0ca5a3	0.1373506
240	0x3c9a2a49	0.018818991
241	0xbde67ef8	-0.11254686
242	0xbe01df47	-0.1268283
243	0xbe4b8a73	-0.19877033
244	0xbbc0e46d	-0.0058866055
245	0x3dfe7035	0.124237455
246	0xbcdf8810	-0.02728656
247	0x3d8526f5	0.06501571
248	0xbdbebca5	-0.09313325
249	0x3da49a1a	0.08037205
250	0x3dbce224	0.092228204
251	0xbd9f2127	-0.07769995
252	0xbdc871cb	-0.09787329
253	0x3d98f6c0	0.07468939
254	0x3c953c71	0.018217297
255	0xbd87185d	-0.06596444

StatefulPartitionedCall/sequential/conv2d_1/BiasAdd/ReadVariableOp:0 f4 [16]
0	0x3b0d45ab	0.0021556418
1	0x3d979588	0.07401568
2	0xbbe64e6e	-0.0070283925
3	0xbbd532ab	-0.0065062842
4	0x3d3ddb7d	0.0463519
5	0x3cca8219	0.024720239
6	0xbb26d1f1	-0.0025454725
7	0x3c18428f	0.009293213
8	0x3cb61283	0.022225624
9	0x3d42a706	0.047522567
10	0x3d2742de	0.040835254
11	0x3a6729b3	0.00088181644
12	0x3d1ad686	0.03780224
13	0x3db75de9	0.08953459
14	0xbb7888a4	-0.003792324
15	0x3c9b163a	0.018931497

StatefulPartitionedCall/sequential/conv2d/Conv2D/ReadVariableOp:0 f4 [6, 1, 5, 5]
0	0xbd090b03	-0.033457767
1	0xbe81e1fe	-0.2536773
2	0x3de1a7e0	0.11018348
3	0xbc89e4be	-0.016832706
4	0x3e056127	0.13025342
5	0xbe9cc40c	-0.30618322
6	0xbd9e39a3	-0.07725837
7	0xbe1b7acb	-0.1518356
8	0x3e178b82	0.14799312
9	0xbd41cca6	-0.04731431
10	0xbeb5e8f3	-0.3552929
11	0xbe834ac8	-0.2564299
12	0x3e64f480	0.22358894
13	0x3de5af70	0.11215103
14	0x3eb72b49	0.3577521
15	0xbec167f6	-0.37774628
16	0x3e168691	0.1469977
17	0x3db3d7d2	0.08781399
18	0x3e75d855	0.24008305
19	0x3e7059d1	0.23471762
20	0xbe7a4df5	-0.24443801
21	0x3d9c61af	0.07635819
22	0x3decc03a	0.11560102
23	0x3e7484ce	0.23878786
24	0x3eb7f100	0.35926056
25	0xbd2947ef	-0.041328367
26	0xbe7f8a10	-0.2495501
27	0xbe99ceb6	-0.3004052
28	0xbe0f7218	-0.14008367
29	0xbe1063a5	-0.14100511
30	0xbe65f44b	-0.22456472
31	0xbef5e033	-0.48022613
32	0xbdfec085	-0.12439064
33	0xbe4393bf	-0.1909933
34	0xbd58bd9f	-0.05291521
35	0x3de2d82d	0.110763885
36	0xbd5bfb34	-0.053706363
37	0x3e78f646	0.24312696
38	0xbc0f2782	-0.008737447
39	0x3dba2423	0.09088924
40	0x3ece6246	0.40309352
41	0x3e9630cf	0.29334113
42	0x3e17ed09	0.14836515
43	0x3da5125d	0.08060143
44	0x3e8114cc	0.2521118
45	0x3e5f4e7d	0.21807285
46	0x3e979ab9	0.29610232
47	0x3d90d599	0.070719905
48	0x3e5f6baa	0.21818414
49	0x3db754b3	0.08951702
50	0xbdaeadf8	-0.08529276
51	0xbe9b056d	-0.30277577
52	0xbc2ab424	-0.010418925
53	0x3d91b8d9	0.07115335
54	0x3f035ca1	0.51313215
55	0xbdebb735	-0.11509553
56	0xbe772b90	-0.24137712
57	0xbf110c3c	-0.56659293
58	0xbf0571d3	-0.52126807
59	0xbeb2b38b	-0.34902605
60	0x3eb96b7a	0.3621481
61	0xbd416997	-0.04721984
62	0x3da3443e	0.079720005
63	0xbe3736b6	-0.17891964
64	0xbe67db81	-0.22642328
65	0x3eaebfdb	0.3413075
66	0x3e2a583f	0.16635226
67	0x3ddf7b75	0.109122194
68	0x3e067259	0.13129558
69	0xbdcd0084	-0.10009864
70	0x3e3f7622	0.18697408
71	0x3e819d12	0.25315148
72	0x3e6ae243	0.22937874
73	0x3e87e6e6	0.2654335
74	0x3cd2c5c2	0.025729064
75	0x3e8a2373	0.2698017
76	0xbdabefec	-0.08395371
77	0xbe451c87	-0.19249164
78	0xbeb66328	-0.35622525
79	0xbe4f5018	-0.20245397
80	0x3e251050	0.16119504
81	0x3e075cc1	0.13218977
82	0xbe4069dc	-0.18790382
83	0xbe0a4e05	-0.13506325
84	0xbe86807c	-0.262699
85	0x3e32489a	0.17410508
86	0xbd681631	-0.05666179
87	0x3ca42aca	0.020039935
88	0xbebe6117	-0.3718345
89	0xbe235238	-0.15949333
90	0x3e788b51	0.24271895
91	0x3e9227fc	0.2854613
92	0xbe048d2c	-0.12944478
93	0xbe824e8a	-0.25450546
94	0x3dcf1b71	0.10112656
95	0x3e93c02a	0.28857547
96	0x3e9ffeb7	0.3124902
97	0xbd7076df	-0.058707114
98	0x3d5820a1	0.052765492
99	0x3e7ff335	0.2499512
100	0x3cf14541	0.029451968
101	0xbe1fb902	-0.15597919
102	0xbdd07cea	-0.101800755
103	0xbe3ca5b7	-0.1842259
104	0xbe30870a	-0.17239013
105	0xbe1dd645	-0.15413769
106	0xbe56ef34	-0.20989686
107	0x3e300a36	0.17191395
108	0xbdaab85d	-0.08335946
109	0x3c82c4cb	0.015962979
110	0x3e23c478	0.15992916
111	0x3e4661ae	0.193732
112	0x3e07cb18	0.13261068
113	0x3e94d9c2	0.29072386
114	0x3e75818d	0.23975201
115	0x3dc4854c	0.09595737
116	0x3e75b77e	0.23995778
117	0x3e821618	0.2540748
118	0x3e8dc26b	0.27687392
119	0x3eb97b80	0.36227036
120	0x3c60b963	0.013716075
121	0xbd7ebf10	-0.06219393
122	0x3e32cecb	0.17461698
123	0x3e9053df	0.2818899
124	0xbdccf611	-0.10007871
125	0x3e4e5d54	0.2015279
126	0x3e3334ba	0.17500582
127	0xbb9bed93	-0.0047585457
128	0xbe14bf60	-0.14526129
129	0xbd5ed1cf	-0.054399308
130	0xbd943f8e	-0.072386846
131	0xbd4e7e28	-0.05041328
132	0x3e650976	0.2236689
133	0xbd3b581f	-0.045738336
134	0x3e16ae64	0.14714962
135	0x3e52311e	0.20526549
136	0x3e1fde63	0.15612178
137	0x3d814092	0.06311144
138	0xbda44d2a	-0.080225304
139	0x3e1fece3	0.15617709
140	0x3e3b099f	0.18265389
141	0x3e60ac99	0.21940841
142	0x3e8290c5	0.25501075
143	0x3dd720c9	0.105043
144	0x3e3ec630	0.1863029
145	0x3dca6da4	0.098841935
146	0x3e31d509	0.17366423
147	0x3d8d0cb0	0.068871856
148	0x3d741174	0.059586957
149	0xbda46094	-0.08026233

StatefulPartitionedCall/sequential/conv2d/BiasAdd/ReadVariableOp:0 f4 [6]
0	0x3d299a22	0.041406758
1	0x3cc480f0	0.023987263
2	0x3d7d01a5	0.061769146
3	0x3d3ccd0f	0.046093997
4	0x3d82b13b	0.0638146
5	0xbbee466e	-0.0072715795
